Pre-trained/HAC_Pendulum-h-v1_level_0_actor.pth (torch, 21240 bytes, 5 tensors)

actor.0.weight f4 [64, 4]
0	0x3f8689fb	1.0510858
1	0x3e5f34a5	0.21797426
2	0xbf8c4be8	-1.0960665
3	0xbd3f9f55	-0.04678281
4	0x3d2d1c13	0.0422631
5	0xbe262b7f	-0.1622753
6	0x3da396dc	0.079877585
7	0x3f35d39e	0.7102603
8	0x3ea9088b	0.3301433
9	0xbf471eae	-0.7778119
10	0x3f0170d7	0.50562805
11	0x3f2c554f	0.6731767
12	0x3fa5abec	1.2943091
13	0x3f14aad9	0.5807319
14	0x3f3e8984	0.7442858
15	0xbe002808	-0.1251527
16	0x3fa13337	1.2593755
17	0x3ea2ebaf	0.31820437
18	0xbf545d2d	-0.82954675
19	0x3df8a5ef	0.12141024
20	0xbf21895d	-0.63100225
21	0xbea8862d	-0.32914868
22	0xbf990694	-1.1955132
23	0x3e831285	0.25600067
24	0xbf6b45d3	-0.9190342
25	0xbf03a969	-0.51430374
26	0xbd94af88	-0.072600424
27	0xbe8673fc	-0.26260364
28	0xbee001b4	-0.437513
29	0xbec3f5e5	-0.3827354
30	0x3f5b3801	0.8563233
31	0xbe65021e	-0.22364089
32	0x3f989559	1.1920577
33	0xbda3bac7	-0.07994609
34	0xbf472f10	-0.77806187
35	0x3ed5c404	0.4175111
36	0x3d495200	0.049150467
37	0x3ed985b8	0.42484832
38	0x3f0577e2	0.5213605
39	0xbd3baf8e	-0.04582172
40	0x3f5e90fd	0.86939985
41	0xbea76007	-0.3269045
42	0x3ebf3d27	0.37351343
43	0x3f3bfd5a	0.7343346
44	0x3e6ad6ab	0.22933452
45	0xbedc2425	-0.42996326
46	0x3f4b4571	0.79402834
47	0x3ed7aafd	0.4212264
48	0x3f65f0c7	0.8982052
49	0x3c08d192	0.008350747
50	0xbf5f5c33	-0.8725006
51	0x3d956066	0.07293777
52	0xbf563f46	-0.836903
53	0x3edf7aa1	0.43648246
54	0x3f65ce0d	0.89767534
55	0xbef70222	-0.48243815
56	0x3ecf178f	0.4044766
57	0x3e618d8a	0.22026649
58	0x3f8d75fb	1.105163
59	0xbe7a3206	-0.24433145
60	0xbe3d8dcf	-0.18511127
61	0xbed901b5	-0.42384115
62	0x3f70b3b6	0.9402422
63	0x3ed947bf	0.4243755
64	0xbe8824c9	-0.26590565
65	0xbbae6429	-0.0053219986
66	0x3f6b0e91	0.918191
67	0xbddf8325	-0.10913686
68	0xbf4f9e56	-0.81100976
69	0xbf2ecd85	-0.6828235
70	0x3f12168d	0.5706566
71	0x3f1c6a03	0.6109926
72	0x3f99803f	1.1992263
73	0xbea3f987	-0.32026312
74	0xbfb86329	-1.4405261
75	0x3a4cbd64	0.0007810204
76	0xbf90dc58	-1.1317244
77	0xbdc9922f	-0.098423354
78	0x3ef1b27e	0.4720649
79	0x3e4ebc4b	0.20189016
80	0xbf97757d	-1.183273
81	0xbf0bff93	-0.5468685
82	0x3f8d26fb	1.1027521
83	0x3e1dc192	0.15405872
84	0x3ed33cf8	0.41257453
85	0x3f3c4520	0.73542976
86	0x3d7e6dd0	0.062116444
87	0xbf41e4c9	-0.75739723
88	0x3d30e525	0.04318728
89	0x3ec219e2	0.37910372
90	0x3f84f57f	1.038742
91	0x3f25b5af	0.6473035
92	0x3f60ba0d	0.8778389
93	0x3f034670	0.51279354
94	0xbf3a7c8a	-0.7284628
95	0xbdb9a466	-0.0906456
96	0x3fe37d90	1.7772694
97	0xbc71ebb0	-0.014765665
98	0xbe976bf7	-0.29574558
99	0x3c31b8ae	0.010847254
100	0xbef0fdd5	-0.47068658
101	0x3d7ed694	0.062216356
102	0xbf6bda6d	-0.92130166
103	0xbe0bd534	-0.1365555
104	0x3f9b2543	1.2120746
105	0x3d26be2d	0.04070871
106	0xbefe95b2	-0.49723583
107	0xbe7f4fe1	-0.24932815
108	0xbfa9331a	-1.321872
109	0xbd59599a	-0.053063966
110	0x3fd07833	1.6286682
111	0xbd12279f	-0.035682317
112	0x3f5a564d	0.85287935
113	0xbdd27cf5	-0.1027774
114	0xbf9cf225	-1.2261397
115	0x3e31e18c	0.17371196
116	0x3c0202ea	0.007935265
117	0xbf64f727	-0.89439625
118	0xbdd2c2eb	-0.10291084
119	0x3e03e0ad	0.12878676
120	0xbdc8e911	-0.09810079
121	0xbd643299	-0.055712316
122	0x3c5696d6	0.0130974855
123	0xbf0b59ec	-0.54434085
124	0xbf5db928	-0.8661065
125	0xbf10e82a	-0.56604254
126	0xbec30da7	-0.38096353
127	0x3f1e0a20	0.617342
128	0xbefb2795	-0.49053636
129	0xbea54896	-0.3228194
130	0x3fac6a4b	1.3469938
131	0x3ed86b1b	0.42269215
132	0xbf553e08	-0.8329778
133	0xbd108381	-0.035281662
134	0xbdebd66b	-0.11515506
135	0xbda5a885	-0.08088783
136	0xbf456103	-0.77101153
137	0xbf11ce17	-0.56955093
138	0x3f367b93	0.7128231
139	0x3d0b9e2f	0.034086403
140	0x3f018494	0.50592923
141	0xbecbe0f0	-0.3982005
142	0x3f260617	0.6485304
143	0x3dd06712	0.10175909
144	0xbf305a1b	-0.6888749
145	0xbf095f35	-0.536609
146	0x3f10b802	0.56530774
147	0x3f19cc74	0.60077596
148	0x3ebeea3d	0.37288085
149	0xbe9defe7	-0.30847093
150	0x3f7789d4	0.96694684
151	0x3dd0103c	0.101593465
152	0xbf2b35a5	-0.6687873
153	0xbe86a75c	-0.2629956
154	0x3fb19fd3	1.38769
155	0xbee8b08f	-0.45447204
156	0x3ef23a72	0.47310215
157	0x3f04b58d	0.51839525
158	0xbf5eaa44	-0.86978555
159	0xbf09be9d	-0.5380648
160	0x3fa386a4	1.2775464
161	0x3f4c4e30	0.79806805
162	0xbed2e519	-0.41190413
163	0xbf2ccc8a	-0.674996
164	0x3fc59269	1.5435306
165	0xbecababe	-0.39595598
166	0xbfd68f61	-1.6762506
167	0x3ec1b77b	0.37835297
168	0xbd0aa912	-0.033852644
169	0xbec167d3	-0.37774524
170	0xbf9681ed	-1.17584
171	0x3e9cba38	0.30610824
172	0x3fa7b336	1.3101566
173	0x3e9a1392	0.30093056
174	0xbf883afc	-1.0643001
175	0xbe55f4cb	-0.20894162
176	0xbf498662	-0.78720677
177	0x3f127160	0.57204247
178	0x3f50abeb	0.81512326
179	0xbf30ed90	-0.6911249
180	0x3eef80a9	0.46777847
181	0x3f3d0d04	0.73847985
182	0x3de51cb0	0.11187112
183	0xbf2e8d6d	-0.6818455
184	0x3e9c0f9e	0.30480665
185	0x3f1629b9	0.58657414
186	0x3f0406d0	0.51572895
187	0xbc7a074a	-0.015260527
188	0xbe6534e3	-0.22383456
189	0x3e465c95	0.19371255
190	0xbf46d1e8	-0.7766404
191	0x3cd171ff	0.025567053
192	0x3f7aed75	0.9801858
193	0x3f45b62c	0.772311
194	0x3d3c642a	0.04599396
195	0xbea70b0e	-0.32625622
196	0xbef89e22	-0.48558146
197	0xbe662fab	-0.22479121
198	0x3ee2cc72	0.44296604
199	0x3ecf0f28	0.4044125
200	0xbf770e59	-0.9650627
201	0xbe6a046d	-0.22853251
202	0x3facb68b	1.3493208
203	0x3db29694	0.08720127
204	0x3eaa0bdd	0.33212176
205	0x3eb68f96	0.35656422
206	0x3e2d1a2a	0.16904512
207	0xbf32f66f	-0.6990728
208	0x3ea428b9	0.3206232
209	0x3c445da7	0.011985219
210	0x3fa801f8	1.3125601
211	0xbd8f7ca9	-0.07006199
212	0xbf08c9fb	-0.534332
213	0xbf4dc073	-0.8037178
214	0xba87fb79	-0.0010374627
215	0x3f51ac95	0.81903964
216	0x3c3ee55c	0.011651363
217	0xbea83f95	-0.3286101
218	0x3d575fb3	0.0525815
219	0x3d8370d0	0.06418002
220	0xbf2e1bba	-0.6801106
221	0x3dcdab25	0.10042409
222	0x3e0b4bd8	0.13603151
223	0xbe1fcdaa	-0.15605798
224	0xbf5c67a2	-0.8609563
225	0x3f12385e	0.5711726
226	0x3f0862b4	0.5327561
227	0xbf1ceb9d	-0.6129702
228	0xbef33063	-0.47497854
229	0xbf5d5f2c	-0.86473346
230	0xbcd8eab6	-0.026479106
231	0x3f5913fe	0.8479613
232	0x3ef03b45	0.4692022
233	0x3d15525e	0.036455505
234	0xbf016fa6	-0.50560987
235	0xbdd7f544	-0.105448276
236	0x3f9854d6	1.190089
237	0x3e629871	0.22128464
238	0x3eb02dac	0.34409845
239	0xbe9d01f5	-0.30665556
240	0x3e976ce7	0.29575273
241	0x3e95a300	0.29225922
242	0xbeda380e	-0.4262089
243	0xbf1f3109	-0.62184197
244	0xbea96711	-0.33086446
245	0xbf587c62	-0.84564793
246	0xbe49fead	-0.19726057
247	0x3f5e3b3c	0.86809134
248	0x3dc83ff8	0.09777826
249	0x3f23e957	0.64027923
250	0xbf4c598e	-0.7982415
251	0xbf10fad7	-0.5663275
252	0x3e8af460	0.27139568
253	0xbe624ed4	-0.22100383
254	0xbeddeba9	-0.43343857
255	0xbe7a8cb0	-0.2446773

actor.0.bias f4 [64]
0	0xbe8c56e4	-0.27410042
1	0xbf1cc26b	-0.6123416
2	0xbec2b54c	-0.38028944
3	0xbedfeeef	-0.4373698
4	0x3e6ae0fa	0.22937384
5	0xbedc1505	-0.42984787
6	0x3f30a787	0.69005626
7	0xbfda47fe	-1.705322
8	0x3ed0c27c	0.4077338
9	0x3e1b8cfa	0.15190497
10	0xbfca64aa	-1.581197
11	0xbfdb7ab9	-1.7146827
12	0xbf546558	-0.8296714
13	0xbeae6a7d	-0.3406562
14	0x3ed75823	0.4205943
15	0xc0066c99	-2.1003783
16	0xbdbee346	-0.09320693
17	0x3d731305	0.05934431
18	0x3ea99a05	0.3312532
19	0xbf19d3ca	-0.6008879
20	0xbefa4bc8	-0.48885942
21	0xbe14f5e5	-0.14546926
22	0xbe76f9a6	-0.24118671
23	0xbfde4a3c	-1.7366405
24	0xbed8fb79	-0.42379358
25	0xc00f07d4	-2.2348528
26	0xbfb66e1e	-1.4252355
27	0xbedf3a85	-0.43599334
28	0xbe86bbcc	-0.26315153
29	0xbf922525	-1.1417586
30	0xc00728a4	-2.1118555
31	0xbfbf40a9	-1.4941608
32	0xbc4528e0	-0.012033671
33	0xbfda05fc	-1.7033076
34	0xbfd31ba2	-1.6492808
35	0xbfb14443	-1.3848957
36	0xbfd32607	-1.649598
37	0xc014f16d	-2.3272355
38	0xbec5af9f	-0.3861055
39	0xbe748788	-0.23879826
40	0xbeaaf7ed	-0.33392277
41	0xbe7d2a9e	-0.24723288
42	0xbf8e9189	-1.1138164
43	0x3e8a79c9	0.2704604
44	0x3e9818f4	0.29706538
45	0xbe86d76c	-0.2633623
46	0xc0027e39	-2.038954
47	0xc005f796	-2.0932364
48	0xbf106c14	-0.56414914
49	0x3e336bec	0.17521638
50	0xbf8cd117	-1.1001309
51	0xbf1014ec	-0.56281924
52	0xbf82e947	-1.022744
53	0xbdbc9b8e	-0.09209357
54	0x3f371bde	0.71526897
55	0x3edafb31	0.4276977
56	0xbefc52fc	-0.49282062
57	0xbe423984	-0.18967253
58	0x3e74f234	0.23920518
59	0xbea2f966	-0.318309
60	0xbe8862cc	-0.26637876
61	0x3e9afaa9	0.30269364
62	0xbf9c24db	-1.2198747
63	0xbf023c7f	-0.5087356

actor.2.weight f4 [64, 64]
0	0x3e8cffd1	0.27538922
1	0xbedb3a8a	-0.428181
2	0xbf741fe2	-0.9536115
3	0x3db83c85	0.08995918
4	0xbdcecdff	-0.100978844
5	0x3ed634e2	0.4183722
6	0x3ea724bd	0.32645217
7	0x3edc423a	0.43019277
8	0xbe7fc206	-0.24976358
9	0x3f01e004	0.50732446
10	0xbf6e5d29	-0.931109
11	0xbf7c6c68	-0.98602915
12	0xbfa93d20	-1.3221779
13	0xbd33caca	-0.043894567
14	0x3f027dbe	0.5097312
15	0xbeba06c9	-0.36333302
16	0x3e565a95	0.20932992
17	0xbf72b2bb	-0.9480397
18	0x3dab9932	0.08378829
19	0x3de57d9e	0.112056
20	0xbf0fe3bf	-0.5620689
21	0x3f2ba221	0.67044264
22	0x3ee7bc8d	0.4526104
23	0x3e1e35dd	0.15450235
24	0xbf12d70e	-0.573594
25	0x3dd5d946	0.10441832
26	0x3fa88c98	1.3167906
27	0xbefc39c9	-0.49262837
28	0xbf1ad6c7	-0.60483974
29	0x3d98c669	0.07459719
30	0xbe3c7f30	-0.18407893
31	0xbf5eeff5	-0.87084895
32	0xbcd6d2aa	-0.0262235
33	0xbcbc3248	-0.022973195
34	0x3d73c313	0.05951221
35	0xbbbb9530	-0.0057245716
36	0xc0098a05	-2.149049
37	0x3edc3db1	0.43015817
38	0x3e4691e5	0.19391592
39	0x3e49409e	0.19653556
40	0x3ea95872	0.3307529
41	0xc03cd331	-2.95039
42	0xbf02bd7b	-0.51070374
43	0xbe82998a	-0.25507766
44	0x3ebecc41	0.37265208
45	0x3e481342	0.19538596
46	0x3f07859f	0.52938265
47	0x3ddfa808	0.10920721
48	0x3d10cd38	0.03535196
49	0x3d99fe90	0.07519257
50	0x3dad48c7	0.08461147
51	0xbc8ed1a1	-0.017433943
52	0x3e7981bc	0.24365896
53	0xbfc1cfb5	-1.5141512
54	0x3eef95a1	0.46793845
55	0x3da93a05	0.082630195
56	0x3e3935ad	0.18086882
57	0xc04eee51	-3.2332957
58	0x3f437ae3	0.76359385
59	0xbe85443e	-0.26028627
60	0x3eb57ea5	0.35448185
61	0xbfc11f92	-1.508776
62	0x3d1e3860	0.038627982
63	0x3e746649	0.23867144
64	0xbe91c7f6	-0.2847287
65	0xbec72b5c	-0.38900268
66	0xbf65811e	-0.8965014
67	0x3e384b62	0.17997506
68	0x3ea4d1bf	0.32191274
69	0xbe947850	-0.2899804
70	0x3d8ff1a6	0.07028513
71	0x3eb453a3	0.3522006
72	0xbe4ca6d0	-0.19985509
73	0x3ebc2206	0.36744708
74	0xbf324810	-0.6964121
75	0xbfa95d8e	-1.3231676
76	0xbf80fa77	-1.0076436
77	0xbe7cc793	-0.24685507
78	0x3ec2a64b	0.38017496
79	0xbf1eb4c4	-0.61994576
80	0x3e0edc1b	0.13951151
81	0xbf2242e5	-0.6338332
82	0x3e9700fd	0.29492941
83	0xbf845944	-1.0339742
84	0xbf4e88a2	-0.80677235
85	0x3e0026ca	0.12514797
86	0x3db92211	0.09039701
87	0xbe8ce8e6	-0.27521437
88	0xbe878824	-0.26471055
89	0xbf527786	-0.8221363
90	0x3f282b65	0.65691215
91	0xbea39649	-0.31950596
92	0xbfa92f8e	-1.3217638
93	0x3e19b493	0.1501029
94	0xbe37f03d	-0.17962737
95	0xbfb96b4e	-1.4485872
96	0x3d9e1408	0.077186644
97	0xbf8cd117	-1.1001309
98	0xbd001384	-0.03126861
99	0xbddca0ba	-0.10772844
100	0xc02db955	-2.7144368
101	0x3e79cfda	0.24395695
102	0xbdf82279	-0.1211595
103	0xbe336c13	-0.17521696
104	0x3fa7c7fc	1.3107905
105	0xbfdf2b05	-1.7435004
106	0xbf266be0	-0.65008354
107	0x3e37f213	0.17963438
108	0xbe8a7789	-0.27044323
109	0x3ebdf4a0	0.37100697
110	0x3edbae9f	0.42906663
111	0xbfce6080	-1.61232
112	0x3e89e3b1	0.26931527
113	0x3e8893b9	0.26675203
114	0xbf375a3b	-0.71622056
115	0x3da614e2	0.08109452
116	0xbe40823d	-0.18799682
117	0xbf431708	-0.7620702
118	0x3ecca147	0.39966795
119	0xbcd38e61	-0.025824727
120	0xbf12d091	-0.573495
121	0xc0aac1c1	-5.3361516
122	0x3eb7a718	0.3586967
123	0xbc517ec6	-0.012786573
124	0x3e26b8d1	0.1628144
125	0xbf727442	-0.94708645
126	0xbec1e4bb	-0.3786982
127	0x3ec93252	0.39296204
128	0xbf29b0a1	-0.6628514
129	0x3f469dd4	0.77584577
130	0x3f9ac12a	1.2090199
131	0xbfc8fc36	-1.5701969
132	0xc03a7e25	-2.9139493
133	0xbf57acc4	-0.84247994
134	0x3f10a538	0.56502104
135	0xc02cdacd	-2.7008545
136	0xc00ef37f	-2.2336118
137	0xbe900fa4	-0.28136933
138	0xbfb763e8	-1.4327364
139	0xbc15eb22	-0.009150298
140	0xbe005664	-0.12532955
141	0x3e439143	0.19098382
142	0x3ed600e9	0.4179757
143	0xbfbe73e2	-1.4879115
144	0x3fa54059	1.2910262
145	0x3edb1694	0.42790663
146	0xc09eb569	-4.959645
147	0xbea9b1e1	-0.33143523
148	0xc029ea0c	-2.65491
149	0x3f0d86c8	0.55283785
150	0xbfbc38c5	-1.4704825
151	0xbfbbb028	-1.4663134
152	0xbf2a19dd	-0.66445714
153	0xbe0d3614	-0.1379016
154	0x3ec06a39	0.3758104
155	0xc00827a4	-2.1274195
156	0xbfe258c0	-1.7683334
157	0xbf94200f	-1.1572284
158	0x3fa0f39e	1.2574346
159	0xbe05a375	-0.13050635
160	0x3fca5a36	1.580878
161	0xbd8fcb47	-0.07021194
162	0xc01d9fae	-2.462871
163	0xbe721f0d	-0.23644657
164	0xbf940bf9	-1.1566154
165	0x3d2c4877	0.042061295
166	0xc0afcc5e	-5.493697
167	0xbdc56879	-0.09639067
168	0xbf0a0dc4	-0.53927255
169	0x3d8419c4	0.06450227
170	0xbc9a57ad	-0.018840635
171	0xc05c14f1	-3.4387782
172	0x3f358339	0.70903355
173	0x3e7bf01e	0.24603316
174	0xbf3fcc82	-0.7492143
175	0xbf091032	-0.5354034
176	0xbeb46c7e	-0.35239023
177	0x3d6098e7	0.05483332
178	0xbfecf767	-1.8513001
179	0x3f5a0c5d	0.85175115
180	0xbec957c8	-0.39324784
181	0x3faca2f1	1.3487226
182	0xbdefb9d8	-0.11705369
183	0x3e4d088c	0.20022792
184	0x3e4955e5	0.19661672
185	0xbe67b8ab	-0.22629039
186	0xbd168291	-0.03674561
187	0xbe92b6bb	-0.28655037
188	0x3ed45313	0.4146963
189	0xbf68b14a	-0.9089552
190	0xbd047441	-0.03233743
191	0x3efd8956	0.49518842
192	0xbec75cea	-0.38938075
193	0xbf85d9b0	-1.0457058
194	0x3e3c7979	0.18405713
195	0xbdf52134	-0.119692236
196	0xbfd8f21f	-1.694889
197	0xbfa843d1	-1.3145696
198	0xbfd8aa55	-1.6926981
199	0x3f0a07e2	0.5391828
200	0xbea2a15e	-0.31763738
201	0xbf444fa9	-0.7668405
202	0x3f570e57	0.84006256
203	0x3f91e847	1.139901
204	0x3f5b50cf	0.8567018
205	0xbfd7c3bc	-1.6856608
206	0xbe215ba9	-0.15757622
207	0x3f8d14d0	1.1021976
208	0xbdf4e890	-0.1195842
209	0xbda6b80f	-0.08140575
210	0xbe1f3c0a	-0.15550247
211	0xbf6ea8c3	-0.9322626
212	0xbede5eb7	-0.43431637
213	0xbef54de5	-0.4791099
214	0xbf8fe83e	-1.124275
215	0xbd459c8b	-0.048244994
216	0xbd1292d3	-0.035784554
217	0xbf16a524	-0.58845735
218	0x3f8c691a	1.0969574
219	0xbf1ca96b	-0.6119601
220	0x3da44126	0.080202386
221	0x3e8dcf74	0.27697337
222	0xbf0df732	-0.55455315
223	0xbedc96b4	-0.43083727
224	0x3dbefa49	0.09325082
225	0xbfcd668a	-1.6046917
226	0x3f11ccf3	0.5695335
227	0x3f120516	0.5703901
228	0x3f7dc8af	0.99134344
229	0x3fc2862e	1.5197198
230	0xbdc2551b	-0.09488889
231	0xbfb06d36	-1.3783329
232	0x3cc7e6d5	0.024402061
233	0x3e5017ff	0.20321654
234	0xbeb91e21	-0.361558
235	0xbf27ab19	-0.6549545
236	0xbf33b796	-0.70202005
237	0xbf97623d	-1.1826855
238	0x3d5a679d	0.05332147
239	0x3de26f46	0.1105638
240	0xbe088170	-0.13330626
241	0xbe80701c	-0.25085533
242	0xbf950608	-1.1642466
243	0xbea5e48a	-0.32400924
244	0x3f3b935d	0.73271734
245	0xbeb314af	-0.34976718
246	0xbf283a01	-0.65713507
247	0xbffa0e96	-1.9535701
248	0xbecd4152	-0.40088898
249	0xbee6758f	-0.45011565
250	0xbf340aaa	-0.7032877
251	0xbdaaf15d	-0.08346818
252	0xbe883ca8	-0.26608777
253	0xbea65f54	-0.32494605
254	0x3eb637de	0.35589498
255	0xbd046e7c	-0.03233193

actor.2.bias f4 [64]
0	0x3f2ff935	0.68739635
1	0x3ee5fc03	0.44918832
2	0x3ed4dcbb	0.41574654
3	0xc001ddf6	-2.0291724
4	0xbe339b7f	-0.17539786
5	0x3d2db02d	0.042404342
6	0xbffc977d	-1.973373
7	0x3efc4adf	0.49275872
8	0xbf4216bf	-0.7581596
9	0x3f1ebf99	0.62011105
10	0xbef14e5f	-0.47130105
11	0xbf1bf3e0	-0.60919
12	0xbd77d371	-0.06050438
13	0x3e0e2971	0.13882996
14	0xbe3ceb1c	-0.18449062
15	0xbfd6ddcf	-1.6786441
16	0xbdd2f1c1	-0.10300017
17	0xbf365614	-0.71225095
18	0xbefeae42	-0.49742323
19	0xbf9514b7	-1.1646947
20	0x3ee7840d	0.45217934
21	0xbe3bc3b0	-0.18336368
22	0xbefb2af9	-0.49056223
23	0x3e676bdb	0.22599737
24	0xbeb93001	-0.36169437
25	0x3f1c4ec4	0.61057687
26	0xbd7c7b87	-0.061641242
27	0x3ef8271e	0.48467344
28	0xbe1e37df	-0.15451
29	0xbf24d023	-0.6438009
30	0x3cf06a15	0.029347459
31	0x3f1b3d44	0.6064036
32	0xbe1173b1	-0.14204289
33	0x3ea7e3cc	0.32790983
34	0xbfe89d32	-1.8172972
35	0xbf3ce0a2	-0.7378026
36	0xbe2469ec	-0.16056031
37	0x3e8de6c6	0.2771513
38	0xbf1c58b9	-0.6107288
39	0x3d05d540	0.032674074
40	0xbefd5cfc	-0.49485004
41	0x3f5717e0	0.84020805
42	0x3e9b2d11	0.3030782
43	0x3d6ee847	0.058326986
44	0xbddcead9	-0.10786981
45	0xbecd1048	-0.40051484
46	0x3da6eae2	0.08150269
47	0xbfce4880	-1.6115875
48	0xbe3437cb	-0.17599408
49	0x3ed86668	0.4226563
50	0x3e895a41	0.2682667
51	0xbd4e671e	-0.05039131
52	0xbdcd1814	-0.10014358
53	0xbdf4b82d	-0.11949191
54	0x3f281383	0.6565477
55	0xbe8a22be	-0.2697963
56	0x3f2111b8	0.6291766
57	0x3eb31c53	0.34982547
58	0xbd4a27c2	-0.049354322
59	0xbdac8eab	-0.08425649
60	0xbf6c3bd3	-0.92278785
61	0xbf390b3f	-0.72282785
62	0x3f04f44d	0.51935273
63	0xbd49f314	-0.049304083

actor.4.weight f4 [1, 64]
0	0xbed1031a	-0.4082268
1	0xbe819466	-0.25308532
2	0x409c7695	4.8894753
3	0x3ffb3513	1.9625572
4	0xbc3be2e8	-0.011467673
5	0x3faa8f87	1.3325051
6	0x3f26d2f1	0.6516562
7	0xbd998e37	-0.074978285
8	0xc0260d8e	-2.5945773
9	0x3e3a0d64	0.1816917
10	0xc09c8d1a	-4.8922243
11	0x4089e34e	4.308997
12	0xbdb11845	-0.08647207
13	0x3fa94a02	1.322571
14	0x3e10079b	0.14065401
15	0x3fd39ddc	1.653255
16	0xbf1fbce4	-0.623976
17	0xbe6f3962	-0.23361734
18	0x4091e7c6	4.5595427
19	0x4025f575	2.5931065
20	0xbe49f7cd	-0.19723435
21	0xbca949f9	-0.020665156
22	0x40384621	2.8792803
23	0xc06dc121	-3.7149127
24	0xbfc83124	-1.5639997
25	0xbf2891b1	-0.6584731
26	0xbc7e4a78	-0.015520684
27	0x3ecb8bfd	0.3975524
28	0xc004f179	-2.0772383
29	0x3eb0978b	0.34490618
30	0xbc869c76	-0.016432028
31	0x3f393f2e	0.7236203
32	0xbca1fd3d	-0.019774074
33	0x3fd3dc41	1.6551591
34	0xc054fc69	-3.327906
35	0xbfcde69d	-1.6086003
36	0xbc9d8bb2	-0.019231651
37	0xbeaa28d5	-0.33234277
38	0xbf176f2c	-0.5915401
39	0x3fe4d2b4	1.7876801
40	0xc0921579	-4.565121
41	0x3f1cdb57	0.61272186
42	0xbed2841e	-0.41116422
43	0xbd2070d8	-0.039170116
44	0x3ba72fc3	0.005102129
45	0xc01e84d8	-2.4768581
46	0x3eaa8361	0.3330336
47	0x3f4a6221	0.7905598
48	0xbb4ffb88	-0.0031735618
49	0x3ea1f8ae	0.3163504
50	0x3f20da1b	0.628328
51	0x3e9127cd	0.28350678
52	0xbb4ce88d	-0.003126654
53	0x3f3af057	0.7302298
54	0x3f213b5e	0.6298121
55	0x409abd77	4.835628
56	0x3f82ebb2	1.0228179
57	0xbe4d8996	-0.20072016
58	0xbf4b3a3a	-0.7938572
59	0x3c4bbb51	0.012434796
60	0xbbd2bbb3	-0.006431067
61	0x403bd223	2.9347007
62	0xbf4372ad	-0.76346856
63	0x3ce84de9	0.028357463
