Pre-trained/HAC_MountainCarContinuous-h-v1_level_0_crtic.pth (torch, 21626 bytes, 5 tensors)

critic.0.weight f4 [64, 5]
-0.12328961 2.6708863 -0.022705808 0.16854537 -0.66039854 -0.3317219 -0.7124965 0.009018701
0.78644496 2.6655755 -0.13528915 4.34863 0.006958884 -0.23748496 0.79056585 1.1260468
-3.7620072 0.0048713665 -0.05263645 -3.71441 -0.3968221 2.982757 -0.024045534 0.7830286
0.28719395 -0.17218643 2.2544656 0.014619106 0.015420238 3.600603 -0.7341697 -1.0367033
0.00038267288 0.5407311 -1.6655062 -0.42269564 -1.5262891 -0.010912016 -0.57056457 1.4804727
-0.4825226 0.7408606 0.00063612656 0.54812115 5.2207446 -0.06723376 6.1099195 0.0095195845
-0.12796916 -1.5124726 0.7795651 -3.4342108 -0.0016497008 0.22042893 2.0919838 0.29417104
-0.97568697 0.00058250374 0.80601645 -4.29745 -0.8525546 0.19654131 -0.009643876 0.78446835
-2.922463 0.25677902 -1.3246914 0.0015240397 0.2627681 2.931848 0.0045816908 3.9470484
0.003298381 0.13412553 0.70977056 -1.1270925 0.09915303 0.01119548 0.8585228 -1.8218579
-0.005309301 4.5422935 0.005648878 -0.17902228 -1.6556402 -0.87424755 1.4370373 -0.0071256836
0.36940128 -3.5509646 -0.067584656 3.0288167 -0.006277397 -0.31688595 1.0942504 0.5314811
4.8021927 0.006008001 0.1267157 1.7160016 0.14040409 -0.3761734 -0.0026801818 -0.22067583
3.3409524 -0.9271248 -2.5774002 0.0059155375 0.32344118 1.2285866 -0.4759526 5.1415663
0.014105982 0.28922194 -4.2256045 0.30936387 4.544986 0.0059426595 0.31645042 0.946644
-0.22589521 -2.7500308 -0.012304417 -0.39264432 -2.7894182 0.30462068 -6.763087 -0.0069732717
-0.15188627 -2.388363 -1.183978 2.9250493 0.005800347 0.39933893 -0.4840252 -0.0658824
-0.5612847 -0.09403298 0.09911291 -0.17165191 -0.5929307 1.3476759 -0.0019538293 -0.4408507
-1.6863718 -0.43278477 -4.568193 -0.014932162 0.30124488 2.8069139 -0.15834162 -1.2310237
-0.052580807 0.19732061 -1.3821049 -0.3622991 0.6002117 -0.0050438116 0.7751489 -1.9324394
-0.5086675 -0.19969724 -0.077861086 0.36187953 1.3009487 -0.8465352 2.9818194 0.00969796
0.6156971 1.2531322 -0.28640276 0.98949105 0.009411242 0.40971634 2.613695 0.07772837
5.265651 0.0016762018 -0.18366355 2.4652617 0.32528424 -0.11427911 0.05425016 0.19787635
-0.2702727 -0.17065223 -1.3729872 -0.019674424 0.4747184 -0.06022742 -0.9955114 -1.8443174
-0.001556935 1.0062513 0.7882565 -0.8235083 1.1843343 -0.020732418 0.5531393 -4.925653
-0.120034866 -0.76810044 -0.01861095 0.30430755 3.2089152 1.0372661 2.8945732 0.017166948
0.23208326 2.237867 0.6077475 -0.494132 0.0037868076 -0.036013603 -1.405654 0.6757928
0.6531279 -0.008257382 0.18778238 2.1950443 -0.040885355 -1.5216632 -0.017100919 0.20527343
0.6633281 -0.048456717 -4.8223066 -0.015655342 0.20107892 -0.5855237 -0.94996774 -1.8640236
0.000688787 0.45623353 -0.09041497 -0.4978904 4.998963 -0.00025510864 -0.12193833 -2.1861012
0.3028862 -4.1739526 0.0029255203 0.40048456 0.0024287605 0.05854344 -4.0052547 -0.0071255066
-0.051724695 3.9266555 -0.14433113 0.9116907 0.003358435 0.8519168 0.7838091 -0.16402698
00000000: 437f fcbd cdef 2a40 8801 babc 2897 2c3e
00000010: e10f 29bf 74d7 a9be 2c66 36bf 2cc3 133c
00000020: 7554 493f ca98 2a40 3d89 0abe fa27 8b40
00000030: 5a07 e43b 422f 73be 8662 4a3f 4d22 903f
00000040: bac4 70c0 fc9f 9f3b 5199 57bd e5b8 6dc0
00000050: 442c cbbe 7ee5 3e40 24fb c4bc 9074 483f
00000060: 160b 933e a451 30be 2a49 1040 fa84 6f3c
00000070: 2aa5 7c3c 4870 6640 8cf2 3bbf b2b2 84bf
00000080: 7ca1 c839 5a6d 0a3f 4f2f d5bf 906b d8be
00000090: 715d c3bf 50c8 32bc 8510 12bf 2180 bd3f
000000a0: 340d f7be 0aa9 3d3f bbc1 263a ab51 0c3f
000000b0: 5710 a740 dbb1 89bd 7684 c340 08f8 1b3c
000000c0: 590a 03be b498 c1bf 9491 473f 1cca 5bc0
000000d0: c63a d8ba 1fb8 613e 10e3 0540 969d 963e
000000e0: 9fc6 79bf 2ab3 183a 1857 4e3f b684 89c0
000000f0: 0541 5abf 2042 493e 5901 1ebc ebd2 483f
00000100: a209 3bc0 8a78 833e 7d8f a9bf 49c2 c73a
00000110: 8a89 863e 66a3 3b40 0222 963b 719c 7c40
00000120: a729 583b 3458 093e 86b3 353f 9144 90bf
00000130: be10 cb3d 3f6d 373c 26c8 5b3f a432 e9bf
00000140: a5f9 adbb 785a 9140 391a b93b 9e51 37be
00000150: 05ec d3bf b0ce 5fbf d7f0 b73f 917e e9bb
00000160: 2a22 bd3e 0143 63c0 d369 8abd 22d8 4140
00000170: 9fb2 cdbb e03e a2be 6610 8c3f 250f 083f
00000180: 90ab 9940 c4de c43b c3c1 013e f1a5 db3f
00000190: 17c6 0f3e cd99 c0be fda5 2fbb d8f8 61be
000001a0: 2ad2 5540 0d58 6dbf 20f4 24c0 20d7 c13b
000001b0: 159a a53e 5342 9d3f 0fb0 f3be b687 a440
000001c0: c71c 673c e614 943e 2738 87c0 f164 9e3e
000001d0: 8670 9140 a4ba c23b ca05 a23e 4357 723f
000001e0: 1351 67be 8100 30c0 7798 49bc ad08 c9be
000001f0: d485 32c0 3ef7 9b3e 356b d8c0 0b80 e4bb
00000200: 1388 1bbe f0da 18c0 978c 97bf 0234 3b40
00000210: d610 be3b 2776 cc3e 27d2 f7be 5aed 86bd
00000220: 5bb0 0fbf 5d94 c0bd b6fb ca3d 85c5 2fbe
00000230: 4eca 17bf a580 ac3f d10b 00bb 2fb7 e1be
00000240: 08db d7bf f795 ddbe a32e 92c0 07a6 74bc
00000250: c53c 9a3e 7aa4 3340 4e24 22be 2f92 9dbf
00000260: f95e 57bd 6a0e 4a3e d0e8 b0bf 457f b9be
00000270: 79a7 193f 8f46 a5bb 2970 463f 2d5a f7bf
00000280: 0938 02bf 6f7d 4cbe a275 9fbd 4648 b93e
00000290: 7d85 a63f 88b6 58bf 21d6 3e40 31e4 1e3c
000002a0: 539e 1d3f a366 a03f 62a3 92be 494f 7d3f
000002b0: 9c31 1a3c 57c6 d13e c746 2740 0d30 9f3d
000002c0: 3780 a840 00b4 db3a 4c12 3cbe d9c6 1d40
000002d0: a88b a63e 2b0b eabd 6a35 5e3d 19a0 4a3e
000002e0: 2f61 8abe 75bf 2ebe 0bbe afbf 422c a1bc
000002f0: 4a0e f33e 07b1 76bd d6d9 7ebf 9812 ecbf
00000300: 1212 ccba d8cc 803f 2ecb 493f 71d1 52bf
00000310: 4498 973f 08d7 a9bc 8a9a 0d3f f39e 9dc0
00000320: d7d4 f5bd 3ba2 44bf fe75 98bc 33ce 9b3e
00000330: de5e 4d40 23c5 843f b040 3940 b3a1 8c3c
00000340: 3ca7 6d3e 3739 0f40 5795 1b3f dffe fcbe
00000350: 172c 783b 0083 13bd 78ec b3bf c200 2d3f
00000360: 6433 273f f849 07bc 064a 403e 9b7b 0c40
00000370: 6777 27bd dcc5 c2bf 3a17 8cbc 3333 523e
00000380: dfcf 293f 8d7a 46bd 5650 9ac0 a23f 80bc
00000390: a2e7 4d3e e2e4 15bf 1631 73bf 5398 eebf
000003a0: b78f 343a 7197 e93e 7c2b b9bd 7eeb febe
000003b0: 81f7 9f40 1ac0 85b9 ceba f9bd 15e9 0bc0
000003c0: e613 9b3e 0591 85c0 16ba 3f3b 500c cd3e
000003d0: d72b 1f3b 3fcb 6f3d 0c2b 80c0 157d e9bb
000003e0: 46dd 53bd 534e 7b40 8acb 13be 9064 693f
000003f0: 3019 5c3b 3817 5a3f b7a7 483f b0f6 27be

critic.0.bias f4 [64]
-0.40374663 0.26825273 -0.21518749 0.20388286 -0.95055413 -0.10236283 0.077326894 -0.018500458
0.037314977 -0.19479164 0.38262436 -0.04237383 0.18394782 0.31103268 0.08287412 -0.35595146
-0.2990916 -0.5563386 -0.19877174 0.21280767 -0.031778462 -0.7784041 -0.14085825 -0.027369
-0.42577672 0.090803735 -0.39627886 -0.27389637 -0.416163 -0.053304456 -0.39413232 0.35264587
-0.78202146 -0.12652433 -0.7393012 -0.112477094 -0.3347907 -0.5261531 0.00012282481 -0.63812095
0.12925532 0.18220685 0.6460986 0.11256219 -0.26551235 -0.025442211 -0.36811888 -0.34668624
0.14200217 0.0095863715 0.3095128 -0.17711857 -0.16437148 0.293751 -0.30380404 0.41511536
-0.43251663 -0.008987321 0.12922218 -0.29529795 -0.45873582 0.16920346 0.077094644 0.29938427
00000000: e1b7 cebe 6c58 893e 1c5a 5cbe abc6 503e
00000010: 8457 73bf 9aa3 d1bd 905d 9e3d 468e 97bc
00000020: 97d7 183d 7677 47be 57e7 c33e 2e90 2dbd
00000030: d15c 3c3e ad3f 9f3e e8b9 a93d 453f b6be
00000040: 8922 99be 356c 0ebf d28a 4bbe 41ea 593e
00000050: 222a 02bd 7e45 47bf 253d 10be f434 e0bc
00000060: 68ff d9be 4ff7 b93d 10e5 cabe 253c 8cbe
00000070: 5113 d5be c655 5abd b6cb c9be 008e b43e
00000080: 8f32 48bf 988f 01be d842 3dbf 645a e6bd
00000090: b069 abbe f8b1 06bf 89ca 0039 e55b 23bf
000000a0: 825b 043e 6f94 3a3e b866 253f 0187 e63d
000000b0: 3cf1 87be 2f6c d0bc 147a bcbe dc80 b1be
000000c0: 0469 113e 2810 1d3c 7678 9e3e 925e 35be
000000d0: ff50 28be 8866 963e 348c 9bbe 008a d43e
000000e0: d272 ddbe 8e3f 13bc d252 043e 4b31 97be
000000f0: 6cdf eabe ac43 2d3e cce3 9d3d e548 993e

critic.2.weight f4 [64, 64]
-0.12062465 -0.06294694 -0.24963751 -0.16567613 0.13261972 -0.37792116 -0.13192064 0.02216414
0.15278712 -0.41496822 -0.10115079 -0.34325725 0.0091405185 -0.39360428 0.05139336 0.02669685
-0.66535515 -0.0051561603 0.0035901158 -0.26904798 -0.36820337 -0.039754428 -0.05605603 -0.111178786
0.12794092 -0.116360545 -0.12825978 0.17751272 -0.034649562 -0.055992603 0.049911987 -0.0015067675
-0.099101394 -0.020486774 0.06842985 -0.27370498 -0.07010548 -0.4997773 0.20074126 -0.11293552
-0.048258368 -0.08300143 0.07326641 0.05834939 -0.07231156 -0.04446653 0.03133475 -0.19454904
-0.3272448 -0.39676052 -0.004648088 -0.033958353 -0.29010352 -0.096956804 -0.3067096 -0.1789864
0.11331782 0.010531407 -0.21025024 -0.027720543 -0.20316833 -0.07382875 -0.06890141 0.07320933
-1.2373985 0.2777123 0.90662354 0.5397606 0.7256374 0.5460201 0.60873985 -2.3579166
1.4008158 -0.10878471 -0.18828627 1.4896986 0.12287584 0.8693011 -0.15597434 -0.96258646
-1.1294521 0.5608219 -0.014657275 0.2153302 0.129219 -2.4803784 0.07903785 0.15252207
0.8856696 1.1238424 -2.1429598 0.12743488 0.24271436 0.9667298 -0.13227245 0.11255701
-3.3128421 0.45318726 -1.1561663 0.9971304 -0.038983308 1.2473942 6.0770497 -0.53424275
-0.16780043 0.08733295 0.0045043654 -0.611894 -0.13685837 -0.17191352 1.4938414 -1.3191704
0.62686163 0.6033514 -0.018768968 -3.3205898 -0.082667455 0.37179172 -0.8355076 -1.8227597
-0.005218427 0.73436856 0.45741972 -0.5454654 1.0479643 0.31728494 -1.1979584 0.78207093
-0.036637597 -0.23436818 -1.1037905 0.27204573 -1.8802365 -0.08695224 -0.63504773 -0.10972621
-0.81683785 -1.3676707 0.17436655 -3.901474 -0.34571242 0.5369224 -0.027606359 -0.8967904
2.3137202 0.532842 0.048591893 -0.2781481 0.3129857 0.32375893 -0.17776439 -0.24119397
-0.42493865 -0.3475617 0.34032202 -0.06685414 -0.17108767 -0.9899734 -0.24967086 0.07070429
-0.02218727 -0.21731417 -0.20820576 -2.1101224 0.026246918 0.7655125 0.89348435 -0.30948555
0.028754339 -0.31210217 -0.13651215 0.1243609 -0.40606835 0.14578623 0.11372888 0.5595098
0.44352213 -0.34307793 0.45371243 0.58214474 0.67415136 -1.7790769 0.62414885 -1.2144228
-0.0125679225 -0.50513375 -0.08141374 0.08570256 0.22807284 0.79043454 -0.38368145 0.2133328
0.14221615 -1.0987769 -0.26515514 0.4163162 -0.8466405 1.0202051 0.50702786 0.624776
-0.79836065 -1.5742456 0.019148527 -1.874757 -0.15486702 1.1298779 -0.18618782 -0.98032457
0.68144375 0.14288923 0.53625584 -0.029774493 0.13811335 -1.6807729 0.56621003 -0.62252927
0.2891103 0.20147774 -0.33935443 -0.0012174844 0.23000817 -0.28052425 -0.08454138 -0.07693191
0.014082586 -1.2560159 0.9105734 -1.5785924 0.006771356 0.2526252 1.4211583 -3.1297817
-0.3329828 -1.2207611 -0.21481432 0.23562682 0.06153947 0.2701146 -0.34401563 0.08975482
-0.058116462 0.37062976 0.0580289 0.4707513 0.76121664 -0.36721006 0.5509653 -0.34811726
0.018053785 -0.6572802 -0.22614299 0.30251613 0.054157063 -0.6798412 -0.058853146 -0.5842245
00000000: 0e0a f7bd 53ea 80bd faa0 7fbe 01a7 29be
00000010: 77cd 073e e27e c1be 3416 07be 9291 b53c
00000020: 3a74 1c3e b776 d4be 2528 cfbd 6abf afbe
00000030: 1dc2 153c 8086 c9be d881 523d 5ab3 da3c
00000040: b754 2abf 02f5 a8bb 2648 6b3b a8c0 89be
00000050: 2785 bcbe 8ad5 22bd 029b 65bd b4b1 e3bd
00000060: f202 033e 704e eebd 8856 03be e5c5 353e
00000070: b3ec 0dbd 8058 65bd 8370 4c3d ba7e c5ba
00000080: acf5 cabd e1d3 a7bc f324 8c3d 0f23 8cbe
00000090: 7693 8fbd cfe2 ffbe 1e8f 4d3e bd4a e7bd
000000a0: 91aa 45bd a7fc a9bd b30c 963d c5ff 6e3d
000000b0: 1518 94bd 8922 36bd de58 003d dd37 47be
000000c0: a18c a7be 3224 cbbe fd4e 98bb ea17 0bbd
000000d0: 7388 94be 4a91 c6bd 0a09 9dbe 3648 37be
000000e0: 2c13 e83d ec8b 2c3c d74b 57be 3116 e3bc
000000f0: 5c0b 50be 8733 97bd 2f1c 8dbd c6ee 953d
00000100: 1363 9ebf 4e30 8e3e 7b18 683f c02d 0a3f
00000110: 5fc3 393f f9c7 0b3f 60d6 1b3f 1be8 16c0
00000120: ef4d b33f 85ca debd 1ece 40be 72ae be3f
00000130: 54a6 fb3d 848a 5e3f bdb7 1fbe 116c 76bf
00000140: e391 90bf 0692 0f3f 1125 70bc 857f 5c3e
00000150: fc51 043e 85be 1ec0 99de a13d bf2e 1c3e
00000160: 3ebb 623f 11da 8f3f 4126 09c0 4a7e 023e
00000170: 1d8a 783e 9b7b 773f 6e72 07be 4a84 e63d
00000180: 9b05 54c0 2908 e83e 42fd 93bf f043 7f3f
00000190: f6ac 1fbd 9daa 9f3f 3177 c240 22c4 08bf
000001a0: e0d3 2bbe 9edb b23d 5b99 933b 16a5 1cbf
000001b0: 9a24 0cbe 190a 30be 3236 bf3f 93da a8bf
000001c0: 017a 203f 3d75 1a3f 61c1 99bc 8b84 54c0
000001d0: 8e4d a9bd 7c5b be3e d3e3 55bf 3150 e9bf
000001e0: 57ff aabb 94ff 3b3f eb32 ea3e 9fa3 0bbf
000001f0: b223 863f 2c73 a23e b356 99bf cd35 483f
00000200: 4e11 16bd 36fe 6fbe 0249 8dbf 9449 8b3e
00000210: 97ab f0bf 0414 b2bd 7d92 22bf 23b8 e0bd
00000220: 491c 51bf d50f afbf 258d 323e c0b1 79c0
00000230: 3801 b1be bf73 093f bb26 e2bc 0e94 65bf
00000240: fe13 1440 5568 083f 4b08 473d 6e69 8ebe
00000250: a93f a03e bbc3 a53e de07 36be 8dfb 76be
00000260: 8f91 d9be 9bf3 b1be b03e ae3e d3ea 88bd
00000270: 9b31 2fbe e66e 7dbf b8a9 7fbe 69cd 903d
00000280: 14c2 b5bc 9b87 5ebe e433 55be 3f0c 07c0
00000290: c703 d73c a1f8 433f 64bb 643f e474 9ebe
000002a0: 388e eb3c dbcb 9fbe d7c9 0bbe edb0 fe3d
000002b0: 31e8 cfbe fc48 153e b0ea e83d 093c 0f3f
000002c0: 5515 e33e e9a7 afbe ff4c e83e 7007 153f
000002d0: 2f95 2c3f cbb8 e3bf 38c8 1f3f 3572 9bbf
000002e0: b0e9 4dbc 7250 01bf 3fbc a6bd d384 af3d
000002f0: ed8b 693e eb59 4a3f e571 c4be ea73 5a3e
00000300: 1ca1 113e b9a4 8cbf 6ac2 87be 6627 d53e
00000310: 6fbd 58bf 1596 823f 94cc 013f 52f1 1f3f
00000320: 5d61 4cbf e180 c9bf 5fdd 9c3c 0af8 efbf
00000330: 7695 1ebe d79f 903f 05a8 3ebe 8df6 7abf
00000340: 1973 2e3f 8e51 123e 1048 093f a3e9 f3bc
00000350: 966d 0d3e 9123 d7bf 24f3 103f 145e 1fbf
00000360: 4406 943e 2e50 4e3e ddbf adbe ff93 9fba
00000370: 4387 6b3e e0a0 8fbe 0824 adbd 7a8e 9dbd
00000380: a6ba 663c 21c5 a0bf 571b 693f 510f cabf
00000390: 40e2 dd3b 1758 813e 84e8 b53f 584e 48c0
000003a0: b97c aabe e641 9cbf 49f8 5bbe 2848 713e
000003b0: d010 7c3d 764c 8a3e d122 b0be 60d1 b73d
000003c0: 870b 6ebd 2fc3 bd3e b6af 6d3d 5006 f13e
000003d0: 18df 423f f502 bcbe 100c 0d3f 6d3c b2be
000003e0: 88e5 933c 8443 28bf 0792 67be 65e3 9a3e
000003f0: ccd3 5d3d 130a 2ebf ff0f 71bd bd8f 15bf

critic.2.bias f4 [64]
0.014034293 -0.24449974 -0.16345465 0.16782461 -0.062756106 -0.13738157 -0.18451531 -0.07728784
-0.39320946 -0.2343811 -0.005505073 0.39513475 -0.14370318 0.12094728 -0.08036402 -0.03542939
-0.1171044 0.42463484 0.64034224 -0.15893915 0.4164227 0.021790054 -0.17389065 -0.047849067
0.0454844 0.30620256 0.06105346 0.18040964 -0.36322436 -0.043616157 -0.049269237 -0.032924388
-0.25035152 -0.040015668 -0.5678489 0.06691072 -0.08997131 0.39412463 -0.01325565 0.050457068
0.20992473 0.05951951 -0.060154382 -0.2017506 -0.13759363 0.09877922 -0.2609066 -0.15119207
0.08035571 0.60756475 -0.005229158 -0.0067884163 0.22916536 -0.14155827 -0.12533332 0.22432509
-0.17623636 -0.010638408 -0.16994254 0.5236427 -0.06857993 -0.063201584 -0.26811165 0.034358595
00000000: 17f0 653c 245e 7abe a860 27be 37da 2b3e
00000010: 4686 80bd c1ad 0cbe 95f1 3cbe 1649 9ebd
00000020: c052 c9be 9901 70be e663 b4bb 1a4f ca3e
00000030: ed26 13be 35b3 f73d e495 a4bd 681e 11bd
00000040: 6fd4 efbd bd69 d93e 78ed 233f f2c0 22be
00000050: 5b35 d53e 0e81 b23c 6410 32be 62fd 43bd
00000060: da4d 3a3d 95c6 9c3e 3113 7a3d 4ebd 383e
00000070: 8bf8 b9be dba6 32bd 8ace 49bd b9db 06bd
00000080: 132e 80be 78e7 23bd 8c5e 11bf 7d08 893d
00000090: e142 b8bd b4ca c93e 3a2e 59bc 12ac 4e3d
000000a0: 82f6 563e bbca 733d 7164 76bd b697 4ebe
000000b0: 58e5 0cbe c24c ca3d 8d95 85be 18d2 1abe
000000c0: 8991 a43d 5d89 1b3f 5b59 abbb 5d71 debb
000000d0: 53aa 6a3e a7f4 10be 6157 00be 7ab5 653e
000000e0: 4e77 34be b84c 2ebc 6b05 2ebe 730d 063f
000000f0: a273 8cbd d56f 81bd ee45 89be 99bb 0c3d

critic.4.weight f4 [1, 64]
-0.028717415 0.41561908 1.4281489 0.769811 -0.054842915 -0.02102713 -0.098859444 0.007422652
-0.5699635 3.399997 -1.3335016 3.5930936 -1.2417536 -0.83057225 -0.06518848 -0.24676755
0.018340815 0.49274123 0.90599203 -0.056372058 0.32609794 -0.7009278 0.13263564 -1.2326403
1.0881065 0.7623715 2.7077987 3.6867971 1.3248345 -0.043137833 0.016552106 -3.1406658
-0.16540219 -0.38429326 -0.6397651 -0.018711785 -0.00572114 0.719527 1.2764676 -0.96966773
-1.4103231 1.1596001 -0.056336526 0.08383685 -0.03398425 1.2136894 -0.3888199 -0.046730842
-0.5560646 0.46764177 -0.4433899 -0.15580146 2.7844458 0.18565749 -0.03322862 -1.480124
1.4127114 -3.1320438 -0.02238003 0.5149145 -0.9659076 -0.053663872 -0.9324373 -1.0446602
00000000: c940 ebbc 06cc d43e 95cd b63f 5512 453f
00000010: f7a2 60bd 1641 acbc d276 cabd b839 f33b
00000020: 21e9 11bf 8d99 5940 2eb0 aabf 3ff5 6540
00000030: c8f1 9ebf 62a0 54bf 8a81 85bd a2b0 7cbe
00000040: 7a3f 963c 9448 fc3e 18ef 673f 63e6 66bd
00000050: 4ff6 a63e 0170 33bf a3d1 073e 28c7 9dbf
00000060: 1347 8b3f c72a 433f 934c 2d40 7cf4 6b40
00000070: 2d94 a93f 4cb1 30bd 4898 873c ab00 49c0
00000080: 315f 29be 16c2 c4be a5c7 23bf 7549 99bc
00000090: 6778 bbbb ec32 383f 4a63 a33f 253c 78bf
000000a0: 7885 b4bf c76d 943f 21c1 66bd a8b2 ab3d
000000b0: 1233 0bbd 2d5a 9b3f 6713 c7be d768 3fbd
000000c0: 405a 0ebf be6e ef3e 0004 e3be 6b8a 1fbe
000000d0: 5c34 3240 ff1c 3e3e bc1a 08bd b474 bdbf
000000e0: bad3 b43f 6873 48c0 5356 b7bc 70d1 033f
000000f0: b845 77bf a6ce 5bbd 36b4 6ebf 6db7 85bf
