Pre-trained/HAC_MountainCarContinuous-h-v1_level_1_crtic.pth (torch, 21882 bytes, 5 tensors)

critic.0.weight f4 [64, 6]
00000000: 0ac8 1c3e e12f e53f 04b4 433f 48b6 1ec0
00000010: 0904 a3bd b137 083f a5fa 2ebf a6b6 f0bf
00000020: 7758 3e3f d10d a1bf b8dd dc3e c310 633d
00000030: 4f17 be3e 7580 9ac0 7f49 683e d4ee 5540
00000040: 6f6f d23e d987 eebe cfc6 813f a77b d73f
00000050: 5262 043f 3e6d 57c0 1452 04be 597b 53bf
00000060: 0969 d43e 75f9 06c0 593f b53e 9fa5 1e3f
00000070: 8be3 613e 313c 75be 9b9d 393f 54ff 93c0
00000080: d0de c03e aafa 1140 6858 0f3f d983 29bf
00000090: 417e 82bd 749f eb3f 395a f2bd d420 62c0
000000a0: 9684 ea3e 4863 123e d5f1 5b3f c301 2940
000000b0: d586 f83e 5826 b2bf 0b05 62be 3032 61bf
000000c0: 0ed8 423e f271 c5c0 5df9 fbbb ecee 39c0
000000d0: 86aa 4c3e 7e13 3ebe baeb 093e c8a9 4dbe
000000e0: 4c86 3c3c 337a 8e3e f4ad 0dbe 42c2 a83e
000000f0: 8ad4 52be ac40 96c0 e894 3cbf 2a97 14c0
00000100: 6d26 e9bd 3aee c7be efd6 97bd 0077 56c0
00000110: 1123 e0be af0a 02c0 2461 7ebe eb75 10bf
00000120: 3cdc d93e cb8b 2240 f632 d13e 1cca 2abe
00000130: 3456 1dbe 5a77 e23f a813 863c 83bb 74c0
00000140: 57dd 6c3e da4f 5340 d632 f13d 5aaa 5abf
00000150: 8730 093f 0f28 2b40 0bfd 863e 2489 17bf
00000160: 3afa d2bd 7db6 9c3f c129 b7be d768 a1c0
00000170: a994 05bf 4398 cc3f 400c 2bbf 75df 733f
00000180: bb66 a6be 26ef 3140 2494 2c3f 7828 debe
00000190: 7c50 8ebe be43 703f 1767 333f 10ca 913f
000001a0: 8ced 033e 731f 32c0 832c 5c3d 1932 87be
000001b0: 1b0e 5d3e 5328 603f 8251 793f ede1 5ebf
000001c0: 128e 35be 797f b63e d19f 8ebe 1e5f b7bf
000001d0: 7e1d 8f3e e5f4 0140 707d 6e3f b484 153f
000001e0: 8a0c 8e3e b6d4 5340 621e fd3e 5fa1 54c0
000001f0: 0921 083f 8358 583e ba25 08be f248 8bc0
00000200: 9832 5a3f 198b de3e 8952 4d3e 8e09 f83e
00000210: 1e45 2c3f 9905 5c3f 7ffd 4cbf 4eab aabf
00000220: fd1b 72be e99a 27bf fc75 103e 893f 3e40
00000230: 70e9 25bf 388d ec3f f8b2 0a3f c93b 1dbd
00000240: 6ab5 ba3e b3a8 73c0 0e0e b1be 1e47 84c0
00000250: dd55 21be 6d56 86be 4b1c 57bd 8f89 b43e
00000260: 3a63 883e a27f b2be 10fe 193e f663 57be
00000270: 4ad8 43bf 7eb9 683f 0259 10be d59b 2fc0
00000280: 0f04 d0be 43ab afbe 8dc1 8c3e 8b08 0640
00000290: cb35 5bbe cafd 4840 eb25 893e 77f3 a4be
000002a0: 3a91 013f 7e82 7abf d8e5 0c3f 6c0a 103e
000002b0: f999 b3bf 3f91 7ebe e36d 6bbd e923 3940
000002c0: 0fb5 fc3e 7ddf 12be 2e62 31bf d556 e73d
000002d0: bb2a 913d 1d65 65c0 bbc8 d93d 18de 0f40
000002e0: 496c 823e 36b6 afbf 6a69 dd3d fe25 7dc0
000002f0: a360 623e 8968 d6bf fbca ff3d cd83 843f
00000300: 83e5 edbe b563 a7bf 7d64 ca3e de6c 80c0
00000310: a9dc 923e a5f4 17bf 8033 82bd 3805 62c0
00000320: a5a6 cfbd d817 02c0 f0f4 5b3e 86b6 1d3d
00000330: 7d2b 283e f26a fa3f ab64 c6bd ab97 823e
00000340: 2f97 433f 12ef afbe 3263 5a3f f80e 58c0
00000350: 4f09 5abe 018a 1240 9eeb 523e d7a8 953f
00000360: 32a9 a9be 9a51 7fc0 2228 b13e 0899 73c0
00000370: 2767 853e 3259 59be e678 febe e4ab 883f
00000380: 4075 f43e d430 23bf 4c28 36be b05c b6bc
00000390: f53d 9b3e 5839 6b40 fa23 9a3e cbb6 97be
000003a0: ebda 06bd 88cf 52bd 2fe6 ccbe db83 3ac0
000003b0: 64c0 013f d045 4d40 3f99 023f fb21 42be
000003c0: 69e4 db3d 5d72 00c0 5728 39be 365c 39c0
000003d0: 303c af3e c7ce f03d 5d13 8abe 1705 56bf
000003e0: 3344 503d e0e2 6440 abb9 06bf cef9 783f
000003f0: c2b7 8d3f 43cc 1c3f 0089 59be 17e7 74be
0.15310684 1.7905236 0.7644656 -2.4798756 -0.07959754 0.5320998 -0.68351203 -1.880574
0.74353737 -1.2582341 0.43137908 0.055435907 0.37127158 -4.828181 0.22684287 3.342702
0.41100642 -0.4658802 1.0138797 1.6834611 0.51712525 -3.3660426 -0.12921935 -0.8261009
0.41486385 -2.1089756 0.35399893 0.6197147 0.22059457 -0.23948742 0.7250611 -4.624918
0.37669992 2.2809243 0.5599427 -0.6621681 -0.06371737 1.8408036 -0.11833615 -3.5332537
0.4580428 0.14295685 0.8591588 2.6407325 0.4854037 -1.3917952 -0.22072236 -0.87967205
0.19027731 -6.1701593 -0.0076896385 -2.9052076 0.19986925 -0.18562123 0.13468829 -0.20084298
0.011506628 0.27827606 -0.13835889 0.32960707 -0.2058889 -4.6953945 -0.7366471 -2.3217263
-0.11384282 -0.3904894 -0.07414042 -3.3510132 -0.43776754 -2.031902 -0.24841744 -0.5642993
0.42550838 2.5397823 0.40859193 -0.16678661 -0.15364915 1.7692673 0.016366795 -3.8239448
0.2313131 3.3017488 0.11777274 -0.85416186 0.5358967 2.67432 0.2636493 -0.59193635
-0.10301633 1.2243191 -0.35774043 -5.044048 -0.5217996 1.5983967 -0.66815567 0.95262843
-0.32500252 2.7802215 0.67413545 -0.4339025 -0.2779578 0.93853366 0.7007918 1.138979
0.12883586 -2.7831695 0.053753387 -0.2640541 0.21587412 0.8756153 0.97389996 -0.87063485
-0.17729977 0.3564413 -0.27856305 -1.4325902 0.27952188 2.0305722 0.9316015 0.58405614
0.27743942 3.3098578 0.49437243 -3.3223493 0.5317541 0.21127515 -0.13295642 -4.3526545
0.8523345 0.43465498 0.20051016 0.4844479 0.67292964 0.8594604 -0.80074304 -1.3333528
-0.23643489 -0.6547075 0.14107507 2.9726279 -0.6480932 1.8480597 0.54179335 -0.038387094
0.36466533 -3.8071716 -0.34581035 -4.1336813 -0.1575541 -0.26237813 -0.052517217 0.352612
0.26638204 -0.34863 0.15038323 -0.21034226 -0.76501906 0.9090804 -0.14096454 -2.7438862
-0.40628096 -0.3431035 0.27491418 2.0942714 -0.21407239 3.14049 0.26786742 -0.32217
0.50612223 -0.97855365 0.55038214 0.14066476 -1.4031364 -0.24860094 -0.057477843 2.8928168
0.49356887 -0.14343067 -0.69290435 0.11295859 0.07088228 -3.5842965 0.106339894 2.2479305
0.2547324 -1.3727481 0.10811122 -3.9554439 0.22107176 -1.6750652 0.12489887 1.0352722
-0.46464166 -1.3077303 0.3952979 -4.0132895 0.28683975 -0.5935767 -0.06357479 -3.5315685
-0.10139207 -2.0327053 0.21480155 0.038504146 0.1642284 1.9563887 -0.0968717 0.25506338
0.7640256 -0.34362084 0.8530761 -3.3759136 -0.21292613 2.289673 0.20597693 1.1692151
-0.33136898 -3.9893556 0.3460093 -3.8062153 0.26055261 -0.21225432 -0.49701613 1.0677457
0.47745705 -0.6374638 -0.1778881 -0.022260994 0.30320707 3.675375 0.30105573 -0.29631647
-0.03292362 -0.05146745 -0.40019366 -2.9142978 0.5068419 3.207386 0.51015085 -0.18958275
0.10736925 -2.0069802 -0.18081795 -2.896253 0.34225607 0.1175819 -0.26967898 -0.83601516
0.05084629 3.5763474 -0.52627057 0.9725617 1.1071703 0.6124918 -0.21243668 -0.23916279

critic.0.bias f4 [64]
00000000: 7f82 12be 4b95 45be 07d1 2c3e 58b8 353d
00000010: ac3a ac3e 20ea a93e 8194 16bd 90f6 943d
00000020: c68b b23c 15f4 7abe 8007 86be 7737 48be
00000030: 2363 083e 5752 983e db00 3f3d 059d b7be
00000040: f29a f83d f2d6 813e 2ddb 8abe 8952 7ebe
00000050: abe4 d1bd 8944 363d c019 9cbe fe7a f8be
00000060: ba99 bc3d f4cc 97be 6064 19be fae0 9cbd
00000070: 99ce b13e b729 bf3e 26a3 063d a93d fd3d
00000080: 3b7e 31be cca8 943d d18a 85be eb77 3ebe
00000090: b66e afbd 3857 cd3d efb7 7b3e 0697 b8be
000000a0: 5f6d cc3d 6888 9a3e 8f5b a03e 7c13 913e
000000b0: 47db 96bd df98 a4bd 255b 50be 1ef0 113e
000000c0: 04a5 44be 6aaa 33bd 9f0c 0e3f e8f6 173e
000000d0: 8552 59bd 4d87 76be 5ecd 04be 8646 dcbd
000000e0: 51ca 8abd ab89 c9be 35b8 d0be fbec 05be
000000f0: ee0b 383b f737 b7be cd6e 92be 9f36 90be
-0.14307593 -0.19295232 0.16876613 0.044365257 0.33638513 0.33186436 -0.036762718 0.072735906
0.021795165 -0.24507172 -0.26177597 -0.19552408 0.13319068 0.2975032 0.046631675 -0.35861984
0.121389285 0.25359303 -0.27120343 -0.24836172 -0.10248693 0.044498954 -0.30488396 -0.48531336
0.092090085 -0.29648554 -0.14979696 -0.076600984 0.34727934 0.37336513 0.032870434 0.12365276
-0.1733331 0.07258758 -0.2608247 -0.18600433 -0.08566038 0.10026401 0.24581884 -0.36052722
0.099817984 0.30182195 0.31319854 0.28335178 -0.073660426 -0.0803697 -0.20347269 0.14251754
-0.19203573 -0.04386369 0.5548801 0.14840281 -0.053057212 -0.2407505 -0.12968966 -0.10755639
-0.0677687 -0.39362845 -0.4076554 -0.13078682 0.0028083283 -0.35784885 -0.2860016 -0.28166673

critic.2.weight f4 [64, 64]
00000000: 8021 7c3f aa22 483f dbc8 2bc0 f7f4 9c3f
00000010: 794c 50be 4bcb adbf c93a 9b3e a82b 6a3f
00000020: d03a 8abf 70b7 5dbd d53f b7be e2af dbbd
00000030: 7aa4 c03e dc83 bcbf 1fb4 3b3f 17cb b03e
00000040: 5d6d c3be d6f8 9f3e 353b ee3e 9f1c f5bf
00000050: a03c 333f ae43 b53d 47a3 593f 3d51 713f
00000060: 198b e9be 4068 28bc 765f 013f 90ae 8dbf
00000070: 30a2 72c0 ecfd 08bf de16 edbf 2622 c0be
00000080: c1cb 13bf 0316 103e 4357 a03e c579 3b3f
00000090: ee39 3cc0 f850 663e 3445 533f f5dc 2bbf
000000a0: 92fa 963d d0cf 83be 4c11 c73d 4511 713e
000000b0: 247a debe 8d01 723e 7c14 f63e c7a2 5abe
000000c0: dde8 60c0 9029 d53e 594d 883e 397f 033e
000000d0: fc6b 693f 7a2d 1c3f ac88 923e e08e 203f
000000e0: e39d dbc0 ac9e 4cbd b06d a1be dd6a 683f
000000f0: dfaf 313f c016 403c e0e3 35bd 4a93 0dc0
00000100: d49e 4a3e 9ad6 9bbe 4abe 463d 616a a3bd
00000110: f9db 3f3d c024 5b3e 30f8 163e 26a0 5fbe
00000120: a987 9b3d 883a 27bd b181 80be 9daf 92bd
00000130: c817 163d 9681 2e3e 88fb 53be 0862 94be
00000140: 3c09 46be 0637 cbbc 86c1 f6be 909d b9bc
00000150: 61e0 01be 6bf1 0f3f 0ec5 1a3d c53f f7bd
00000160: 82a8 cdbe aacb 983d 144b 243d 3c48 d4bf
00000170: 267b 35bf 67aa 16be 2159 793e 9a82 0c3f
00000180: d1d3 243f ee16 9b3e ab73 013e 16e7 a73e
00000190: 087a 05be 45fe 36be 2afd b5be 155c bd3d
000001a0: b49a 703e ae8d c93c 430d 6dbe 40d3 12be
000001b0: 6d24 633e 16cc 7d3d ba5c c13e d6f0 ecbe
000001c0: f255 f8bf 264f 043f 1d1d d0bd 7d50 113e
000001d0: af13 b03e ca3a 0f3f 2df2 093e ecbf 333e
000001e0: 176f 47c1 741d 9a3d eca4 3fbd 4938 01bf
000001f0: 6836 5c3e e4f2 0c3d ae8e c83d a74f 27bf
00000200: 255e 313e ff2e 9a3e b305 53be e87c 923d
00000210: 3a6a 603e 686a 633e b126 9bbe 960d a73d
00000220: 84c5 f5be 2e6a af3d 9ec5 b4be ab3c 8fbf
00000230: da65 4dbc 872e 1dbe 6302 6ebe e0ff b03f
00000240: 860f da3e 9782 4bbd 7975 ac3e 9e40 03bf
00000250: 6f95 513d 603f 9f3e 805b 983f 8707 2b3f
00000260: f7fa 7dbf d083 b83c c50d 75bc 95c2 3fbf
00000270: 8dbc 963e 759c 823d 7947 a9bc 6c79 593e
00000280: 49db 9b3f 269f 1ec0 a795 46be b330 c23e
00000290: f261 debe 1db4 743e 72cd be3d 5573 a83e
000002a0: 4018 3d3d ec1c 3a3d a177 99be 7191 203e
000002b0: de2c ad3e 1629 1a3f 78f8 49c0 16ed 0f3f
000002c0: e141 8bbf c978 abbd 63d1 e7be 62ac 8a3d
000002d0: ca90 473e 5ffd df3f 6706 ecbf 3bf3 973d
000002e0: 1692 40c1 4ac4 b93d 4fdb 25bd 1027 15be
000002f0: 69bd 963e 5cdf 993d 64ef 443d eac2 83bf
00000300: 79b4 743f 79ec 1b3f 8f02 00be d259 ad3e
00000310: 3c2e 49be 9b0f 07be 2dd4 053f 1c1f 413f
00000320: f76c 20bc 88a4 5cbd 0f8a 62be eba0 38be
00000330: 6d88 1d3e 9bbb cdbe 23c6 e73e 06f9 5bbf
00000340: ffce c7be 5120 1f3e 306c ce3f 1268 b03e
00000350: d30b 1e3f 2915 3fbf c0dd 98be 4895 a63e
00000360: 667e 34be 1d94 84bd c2fe 343f f10e 433f
00000370: bb45 a0bf e8c4 47bf 022f 85be 745a 24be
00000380: 8455 6b3f 560b 063e bc3c 8f3e fbc8 ea3e
00000390: 012f 0140 c212 e8be 8222 9d3e 0c2f 8cbe
000003a0: b530 743e 8272 95be 520a 373d c90f aebe
000003b0: 6275 b33d 6b60 c23e 3bb8 7c3f 134f 8a3f
000003c0: 3e9d 003f 89a8 263e 9a1b 8dbe bc7e 11be
000003d0: 2352 2abe 34bf 023f 40ce 4f3d 54f1 663e
000003e0: 77fc ee40 80de 653d 99c3 42bd b293 333f
000003f0: 0b30 43bd 1298 c23d 70d5 88bd bb9a c1bd
0.98488617 0.78177893 -2.6841342 1.2262257 -0.20341672 -1.3577665 0.30318287 0.91472864
-1.0799198 -0.054130018 -0.35790887 -0.10726906 0.37625486 -1.472774 0.7332172 0.34529945
-0.38169375 0.31244534 0.46529546 -1.914936 0.7001438 0.088507995 0.85014766 0.94264585
-0.45613936 -0.010278761 0.50536287 -1.1068897 -3.7911491 -0.53512454 -1.8522604 -0.37526053
-0.5773278 0.14070897 0.31316575 0.7323268 -2.9410357 0.22491825 0.8252747 -0.6713403
0.07372011 -0.25744486 0.09720096 0.23541744 -0.4345256 0.23633404 0.48062503 -0.21351157
-3.5142128 0.41633272 0.26621512 0.128415 0.91180396 0.6100689 0.28619897 0.6271801
-6.8630233 -0.04995601 -0.31528997 0.9078806 0.69408983 0.011724174 -0.04440677 -2.2121148
0.1978715 -0.30437165 0.048521318 -0.079792745 0.04684064 0.21400738 0.14743114 -0.21838436
0.075942345 -0.040827304 -0.25098947 -0.07162402 0.036643773 0.1704162 -0.2070142 -0.28981042
-0.1933946 -0.02480651 -0.48194522 -0.02265814 -0.1268325 0.5622775 0.037785582 -0.1207271
-0.40167624 0.07460721 0.040110663 -1.6584544 -0.70891035 -0.14713441 0.24350406 0.5488678
0.64385706 0.3029093 0.1264178 0.32793492 -0.13034832 -0.17870434 -0.3554471 0.09246079
0.23496515 0.024603691 -0.2314959 -0.14338398 0.22181864 0.06196221 0.37766057 -0.46277493
-1.9401228 0.5168327 -0.10161803 0.1419086 0.34390017 0.5594908 0.13471289 0.17553681
-12.464622 0.07525149 -0.04678814 -0.5047651 0.2150513 0.034411326 0.09792839 -0.65355915
0.1732107 0.3011398 -0.20607643 0.0715273 0.21915522 0.2220856 -0.30302957 0.08156888
-0.48002255 0.08565174 -0.3530702 -1.1190389 -0.01253649 -0.1534978 -0.23243098 1.3828087
0.42589968 -0.049685087 0.33683375 -0.51270473 0.0511679 0.3110304 1.1902924 0.6680836
-0.99211067 0.02252379 -0.014956896 -0.74906284 0.29440728 0.06377498 -0.020663964 0.21237725
1.2176296 -2.4784636 -0.19393025 0.3792778 -0.434341 0.23896833 0.09316529 0.3290049
0.046165705 0.04543774 -0.29974082 0.15680481 0.33823293 0.6021894 -3.1557903 0.5622114
-1.087948 -0.08372647 -0.45276937 0.06771161 0.19488826 1.7499198 -1.8439454 0.074194394
-12.0356655 0.09070642 -0.040492352 -0.14565682 0.29441383 0.075133055 0.048079863 -1.0293858
0.9558788 0.60907704 -0.12500976 0.3385759 -0.19646543 -0.13189547 0.5227688 0.75438094
-0.009791604 -0.053867847 -0.22122978 -0.18030135 0.15384074 -0.40182194 0.45268354 -0.85926855
-0.39025113 0.15539671 1.6126766 0.344544 0.6173679 -0.7464166 -0.29856682 0.32535768
-0.17626342 -0.06473563 0.7070123 0.76194674 -1.252128 -0.7803483 -0.26012427 -0.1605013
0.9192736 0.13090262 0.27976024 0.4585646 2.018494 -0.4532681 0.3069039 -0.27379644
0.23846705 -0.29188925 0.044687577 -0.33996418 0.08762623 0.37964186 0.98718613 1.0805382
0.5023993 0.16275229 -0.2756012 -0.14208502 -0.16632895 0.51073 0.050733805 0.22552997
7.4683185 0.056120396 -0.047549818 0.7014724 -0.04765324 0.09501661 -0.06681335 -0.094533406

critic.2.bias f4 [64]
00000000: 14ca 763e 5aab e43e 56bc 7dbd 075a 60be
00000010: 4a52 043f a699 09bd ad6b 7cbd a514 c1bd
00000020: 1411 50be a3a2 82bd 9d71 ea3e 12aa ccbe
00000030: c947 b53c 4a1d f6bd 4d65 843e 0aa8 523d
00000040: e144 a1be b67a 0a3c 6979 bebe 1acc 11be
00000050: ee61 5e3e 2b8e c3be 487f ecbd 1c31 b53e
00000060: 8307 253c beb2 cf3d fc60 09be 5bbd 96be
00000070: 966a 94bd a0ce 01bc 35f1 4c3e 6e91 ab3e
00000080: e96a 74bd 56d8 16be 1281 89be 80ee 3ebe
00000090: 9d1f 25bf 73ac f7be 3516 edbe 2395 dcbd
000000a0: 682c 21be 9c1f 103f 6690 10bf 0150 713e
000000b0: e9a0 a7be 9de5 20bb eda7 943e ada9 21bd
000000c0: 7cb5 05be b3eb f4bd fa82 12bd 387f 9dbe
000000d0: fba8 82be ce92 f3be 6edf a23e 25cd 0cbe
000000e0: b927 ccbd 75ea 073d fb07 1dbe 1f34 05be
000000f0: d4fe ecbe 1355 17bf 0034 c53e a765 1abe
0.24100524 0.4466198 -0.06194719 -0.21909343 0.51688063 -0.033593796 -0.061626125 -0.09427766
-0.20319015 -0.06378677 0.45789805 -0.39973503 0.022128956 -0.12017305 0.25858536 0.051429786
-0.31497863 0.008452108 -0.37202004 -0.14238015 0.21717045 -0.38194403 -0.115477145 0.3538903
0.010072592 0.10141514 -0.13415903 -0.29441342 -0.07246892 -0.007922798 0.20013888 0.33509392
-0.05967227 -0.14730963 -0.26856285 -0.18645668 -0.64501363 -0.48373756 -0.46306005 -0.10770633
-0.15739596 0.5629823 -0.56470335 0.23565675 -0.32739952 -0.0024550923 0.29034367 -0.039468456
-0.13057512 -0.119590186 -0.03576944 -0.30761123 -0.25519547 -0.4757294 0.31811088 -0.13750131
-0.09968514 0.03318258 -0.15335076 -0.13008164 -0.46288168 -0.5911419 0.38516235 -0.1507784

critic.4.weight f4 [1, 64]
00000000: 1e2a 66c0 ef7f b1be 6a15 83bf 0f3c 5c3e
00000010: 8d8b 06bf d2ee d540 39a4 89c0 733a 4240
00000020: efc8 42c0 8857 9bbb 41ca bbbf 03cf c23f
00000030: 88b3 b2bd e201 8cc0 8d01 e5be 3d92 33bd
00000040: 6373 1540 5216 0040 a1b6 0e41 d1fd 95bd
00000050: 001f 05c0 a40a 203f cc66 743d 4c35 8abf
00000060: fa25 843d 8d34 dcbf 1211 b0bd 60b8 cb3e
00000070: cf99 a2bd 1572 7a3f bd53 a6bf 5764 1ebf
00000080: 6f66 f3bb 0d83 2bc0 62a7 a83f 6285 26c0
00000090: 3fe5 c73f 6245 943f 1233 b63c 2971 6e3c
000000a0: b89f ce3a 5866 81be a372 5dc0 6f51 56bf
000000b0: f162 1f40 0696 edbf ec04 67bf b133 eb3d
000000c0: 7933 9141 5c84 9abd b4d0 6bbd 44ef f140
000000d0: 05aa 033f f27e ee3e 1dfd 9fbe cca9 ca3f
000000e0: a90f f0bd 04a6 a53e ed9c cbbc 191b 9ebb
000000f0: 642f 31bf 5b1c 7540 eaaf 90be 27d5 3fc0
-3.5963206 -0.34667918 -1.024091 0.21507286 -0.5255669 6.685403 -4.3012967 3.0348175
-3.043514 -0.004740659 -1.4671098 1.5219425 -0.08725649 -4.37523 -0.44727746 -0.043840636
2.3351676 2.0013623 8.919587 -0.07323802 -2.080017 0.62516236 0.059668347 -1.0797515
0.06452556 -1.7203537 -0.08597006 0.39789104 -0.07939493 0.97830325 -1.2994305 -0.61871856
-0.0074279825 -2.6798737 1.3176081 -2.601891 1.5616835 1.1583674 0.02224115 0.014553347
0.0015764153 -0.25273395 -3.4601219 -0.8371801 2.490414 -1.8561409 -0.90241885 0.11484469
18.150133 -0.07544777 -0.05757208 7.560457 0.51431304 0.46581227 -0.31247798 1.5833068
-0.11721737 0.32353222 -0.024855101 -0.0048250076 -0.6921294 3.8298557 -0.28259212 -2.9973848
