Pre-trained/HAC_MountainCarContinuous-h-v1_level_0_actor.pth (torch, 21370 bytes, 5 tensors)

actor.0.weight f4 [64, 4]
0	0x3fca796b	1.5818304
1	0x403f79ac	2.9918013
2	0xbe033a7e	-0.12815282
3	0x3f8dfc1e	1.1092565
4	0xbe452250	-0.1925137
5	0x3f983240	1.1890335
6	0xbe5e39bc	-0.21701711
7	0xbecb38e6	-0.39691848
8	0x3fa79bc7	1.3094414
9	0xbf0e2b1f	-0.5553455
10	0x3ea2641e	0.31717008
11	0x3fe2b67c	1.771194
12	0x3f0b7542	0.54475796
13	0x407f491a	3.9888368
14	0xbeec43bf	-0.46145436
15	0x3fec72a5	1.8472487
16	0x3f6f03c4	0.9336512
17	0xc0148fa2	-2.3212667
18	0x3b78eb8a	0.003798219
19	0xc00c8404	-2.1955576
20	0xbe8c01a2	-0.27344996
21	0x3ec6139f	0.38686845
22	0xbdead0ca	-0.114656046
23	0xbf1214d5	-0.5706304
24	0xbf332e62	-0.6999265
25	0x40263292	2.5968366
26	0x3f868622	1.0509684
27	0xc0325e6a	-2.7870126
28	0xbf55f928	-0.8358331
29	0xc06d7891	-3.7104838
30	0x3f8a79cf	1.0818423
31	0xbf8100d9	-1.0078384
32	0x3faf1e44	1.3681111
33	0x40682592	3.627293
34	0xbf079aac	-0.52970386
35	0x3ff40787	1.9064797
36	0xbe55d8ee	-0.20883533
37	0x40e1c090	7.054756
38	0x3daf696f	0.08565032
39	0xbf793a01	-0.9735413
40	0x3f46ac3b	0.7760655
41	0x3e13bff5	0.14428695
42	0x3f7dbe12	0.9911815
43	0x3f169616	0.5882276
44	0xbecda533	-0.401651
45	0xbfd74b64	-1.6819882
46	0x3f303e2b	0.6884486
47	0x3faac088	1.3340006
48	0x3f212ea1	0.62961775
49	0x3fdaa979	1.7082969
50	0xbf369796	-0.7132505
51	0xbf4769cd	-0.77895814
52	0xbea99894	-0.3312422
53	0x3ed23770	0.4105792
54	0x3dcea3ce	0.10089837
55	0x3e528fba	0.2056264
56	0xbee2fa73	-0.44331703
57	0xbf908fe3	-1.1293911
58	0x3f3d3165	0.73903495
59	0xc0196572	-2.3968167
60	0x3d00f320	0.031481862
61	0xbeaebaf4	-0.3412701
62	0x3e1de050	0.154176
63	0xbe3052e0	-0.17219114
64	0xbeba0484	-0.3633157
65	0xc010e047	-2.2636888
66	0x3f2127ba	0.6295124
67	0xc056fd20	-3.3591995
68	0xbefc2a82	-0.4925118
69	0xc08dc897	-4.430736
70	0x3f371c0a	0.7152716
71	0x40222406	2.5334487
72	0x3fa657d8	1.2995558
73	0x3f2f67d7	0.6851782
74	0xbf3ce7cb	-0.7379119
75	0xc028223a	-2.627089
76	0xbf34146f	-0.7034368
77	0x400f8ce9	2.2429755
78	0x3f3c07a3	0.7344915
79	0x410848f1	8.517808
80	0xbf81ef9e	-1.015125
81	0xbea60ffb	-0.32434067
82	0x3f92c8cf	1.1467532
83	0x407374a3	3.803994
84	0xbdc411be	-0.095736966
85	0xc01524c8	-2.33037
86	0x3f7410d1	0.9533816
87	0x3eee2ad4	0.4651705
88	0x3f21e7e3	0.63244456
89	0xc0016812	-2.021977
90	0x3e8efa59	0.27925375
91	0x4085f0dd	4.1856523
92	0x3eebd318	0.4605949
93	0x3f333781	0.7000657
94	0xbf362539	-0.7115055
95	0x3e9d1bc2	0.3068524
96	0x3f2f7900	0.68544006
97	0xbe416742	-0.18887046
98	0xbee3c17c	-0.44483554
99	0xbffd2618	-1.977725
100	0xbe6bbe99	-0.23021926
101	0x3fc1ce3a	1.514106
102	0xbe16650c	-0.14686984
103	0xc029ac41	-2.6511385
104	0x3ea935ec	0.33048952
105	0xc02c37ec	-2.6909132
106	0xbf20fdbf	-0.62887186
107	0xbf9bece2	-1.2181666
108	0xbf1b0c1f	-0.6056537
109	0xc08e2e9b	-4.443189
110	0x3f78deb4	0.9721482
111	0x4040a918	3.0103207
112	0x3e3f3632	0.18673018
113	0x3e46e394	0.19422752
114	0xbe17c75d	-0.14822145
115	0xbf967815	-1.1755396
116	0x3df26e82	0.11837484
117	0x3d4b255e	0.049596183
118	0xbd76cd87	-0.0602546
119	0xbfa1187e	-1.25856
120	0x3ab59e00	0.0013856292
121	0xbe3e8450	-0.1860516
122	0xbd0deaf0	-0.034647882
123	0xbead7924	-0.33881485
124	0xbea2366b	-0.31682143
125	0x404feefb	3.2489612
126	0x3f3d2299	0.73880917
127	0xc066980d	-3.6030304
128	0x3e80feb7	0.25194332
129	0xbed680a0	-0.41895008
130	0x3f050460	0.519598
131	0x3f89a6e9	1.0754062
132	0xbe67dc67	-0.2264267
133	0x3e115501	0.14192583
134	0x3e02b624	0.12764794
135	0xbf6d1f1c	-0.92625594
136	0xbf101dfc	-0.5629575
137	0xbfa89293	-1.3169731
138	0x3f33bc1d	0.70208913
139	0x40c260ed	6.0743318
140	0x3f964989	1.1741191
141	0xbe684fc9	-0.22686686
142	0x3f1c1732	0.60972893
143	0xbf35dc5c	-0.71039367
144	0xbdb0d148	-0.08633667
145	0x3dd5e1f0	0.10443485
146	0x3e842914	0.2581259
147	0x3eceabe4	0.40365517
148	0x3ee934a0	0.45547962
149	0xbecafcf2	-0.39646107
150	0x3e00da88	0.12583363
151	0xbe5c3978	-0.21506298
152	0xbd236195	-0.039887983
153	0xc0950bc3	-4.6576858
154	0x3f949b9a	1.1609986
155	0x3fedd055	1.8579203
156	0x3e88d1cc	0.26722562
157	0x3e33efe4	0.1757198
158	0x3e2660a0	0.16247797
159	0xbe8a67ca	-0.2703231
160	0x3ee8b10c	0.45447576
161	0x3de10640	0.1098752
162	0x3d83ba38	0.06432003
163	0xbee199ea	-0.4406274
164	0x3ecf6396	0.40505666
165	0xbd286daa	-0.04112021
166	0xbf15eaef	-0.58561605
167	0x40997f7c	4.796812
168	0x3ed53322	0.41640574
169	0x3f0e43ba	0.5557209
170	0xbf0ce893	-0.5504238
171	0xbf3d7997	-0.74013656
172	0x3eed4eb2	0.46349102
173	0x3fa0f005	1.2573248
174	0xbf0d2434	-0.55133367
175	0xbf10b83e	-0.5653113
176	0xbf2883f9	-0.65826374
177	0xc0118832	-2.2739377
178	0x3f50be99	0.8154083
179	0x3f55780a	0.8338629
180	0xbdc4407c	-0.09582612
181	0x40e4168a	7.1277514
182	0xbd14edc3	-0.03635956
183	0xbe2b347c	-0.1671924
184	0x3f734ebc	0.95042014
185	0x3fb7d28a	1.4361126
186	0x3e8bb20a	0.2728427
187	0xc048a3b0	-3.1349907
188	0xbde82b5d	-0.11336396
189	0x3d318e14	0.043348387
190	0xbd90c4fe	-0.07068823
191	0xbe432706	-0.19057855
192	0x3ea3a310	0.31960344
193	0x3edc019c	0.42969978
194	0xbd4abf20	-0.049498677
195	0xbde54538	-0.11194843
196	0x3dddf009	0.10836799
197	0xc09827bd	-4.754851
198	0x3d44c237	0.04803678
199	0xc00db551	-2.2141917
200	0xbf0588f3	-0.5216209
201	0xc085b723	-4.1786056
202	0x3f8c7a3c	1.0974803
203	0x40614105	3.5195935
204	0x3e9bdb50	0.3044076
205	0x40c8c344	6.273836
206	0xbeebb3a8	-0.46035504
207	0xc04f8879	-3.2427046
208	0xbf46de9e	-0.77683437
209	0xbf13b0b4	-0.576915
210	0x3f54e9ed	0.8316944
211	0xbf8ba5df	-1.0909995
212	0xbdfd0060	-0.12353587
213	0xbfcc645c	-1.5968127
214	0x3eafb27c	0.3431586
215	0x40ea1eb9	7.3162503
216	0x3f84299f	1.0325202
217	0xbf9d4e1d	-1.2289463
218	0x3dbbcd05	0.09169964
219	0x40779ec3	3.869065
220	0xbd1606a8	-0.03662744
221	0x40b6f6b2	5.717614
222	0xbaf3a958	-0.0018589897
223	0xc06f2834	-3.7368288
224	0xbf661e75	-0.89890224
225	0xbe799f8a	-0.24377266
226	0x3f36dcf7	0.71430916
227	0x4044fb14	3.0778246
228	0xbd812de9	-0.06307585
229	0x3ed1c57c	0.4097098
230	0xbd0cd1d6	-0.034379803
231	0xbf126631	-0.5718718
232	0x3faa8a6d	1.3323494
233	0x3f86fd71	1.0546094
234	0x3c3e5bfe	0.011618612
235	0x405da79b	3.4633548
236	0x3f322612	0.6958934
237	0x407183dc	3.773673
238	0xbed17de7	-0.40916368
239	0xc08c0ebd	-4.376799
240	0x3ef47e91	0.47752813
241	0x40778e06	3.8680434
242	0xbd036618	-0.032079786
243	0xc07a2cec	-3.9089918
244	0x3ed07368	0.40713048
245	0xc03a1078	-2.9072552
246	0xbf213513	-0.6297161
247	0x3fdc09fd	1.7190548
248	0xbe331630	-0.17488933
249	0x409f90eb	4.98644
250	0xbed1d728	-0.40984464
251	0xc065e292	-3.5919538
252	0x3e0e82f7	0.13917147
253	0x40ccd201	6.4006352
254	0xbeb3df06	-0.3513109
255	0xc053ae69	-3.3075202

actor.0.bias f4 [64]
0	0xbdb336e9	-0.08750708
1	0xbf16336d	-0.5867222
2	0x3e0e23f4	0.13880903
3	0xbd5129c1	-0.05106521
4	0xbe0fb021	-0.14032032
5	0xbf079dd9	-0.5297523
6	0x3cc2baf3	0.023770785
7	0x3e6adb06	0.22935113
8	0x3e57336b	0.21015708
9	0xbd767218	-0.060167402
10	0x3da801d4	0.08203474
11	0xbe2b15ad	-0.16707487
12	0xbddf2851	-0.108963616
13	0xbeef4590	-0.4673276
14	0x3e5f7a4b	0.21823995
15	0xbefe22c2	-0.49635893
16	0x3e87c232	0.26515347
17	0x3eb9d911	0.3629842
18	0x3eb7d1ce	0.35902256
19	0x3d594194	0.053041056
20	0x3e1a22e6	0.15052375
21	0x3df4bac2	0.11949684
22	0xbe0ba335	-0.13636477
23	0xbe74839d	-0.23878331
24	0x3e8931ad	0.26795712
25	0xbf2295e0	-0.6350994
26	0xbe48c796	-0.19607386
27	0xbe72a409	-0.23695387
28	0xbea2255d	-0.3166913
29	0xbe81fa5e	-0.25386328
30	0xbef34720	-0.47515202
31	0x3d3f1248	0.046648294
32	0x3eda70ba	0.4266413
33	0xbe9a4c41	-0.30136302
34	0x3e244ff5	0.16046126
35	0x3dee4a4e	0.11635266
36	0xbee72f20	-0.4515314
37	0xbef91ffe	-0.4865722
38	0x3e3a54ba	0.18196383
39	0xbe8c8e4a	-0.27452308
40	0xbea49396	-0.3214385
41	0xbe7215ea	-0.23641172
42	0xbe194969	-0.1496941
43	0xbdecb2a3	-0.1155751
44	0xbe500817	-0.20315586
45	0xbd13f36a	-0.03612081
46	0x3f1aa1f3	0.60403365
47	0xbe846833	-0.25860748
48	0xbed056fe	-0.4069137
49	0x3e9e913d	0.30970183
50	0x3e02b529	0.1276442
51	0xbddce4c6	-0.107858226
52	0xbc84963e	-0.016184922
53	0x3d95f2f8	0.07321733
54	0xbdc13e17	-0.09435671
55	0xbe87eb7c	-0.26546848
56	0xbe01bcc5	-0.12669666
57	0xbe6a3e86	-0.22875413
58	0xbdb263a0	-0.08710408
59	0x3e0a3608	0.13497174
60	0x3c925896	0.017864507
61	0xbe3d1df0	-0.18468451
62	0xbec0a5e0	-0.37626553
63	0xbe05f99d	-0.13083501

actor.2.weight f4 [64, 64]
0	0xbf7e6edc	-0.9938791
1	0xbd3973fb	-0.045276623
2	0xbd38a71b	-0.04508124
3	0xbfb0ac21	-1.380253
4	0xbee852b3	-0.45375594
5	0x3e4808e1	0.19534637
6	0xbfe860e0	-1.8154564
7	0xbeb4977b	-0.3527182
8	0xbfa0c1e6	-1.2559173
9	0xbf672a26	-0.9029869
10	0x3e9603b7	0.2929971
11	0xbe0a5234	-0.1350792
12	0xbe790185	-0.24316986
13	0xbdd7f024	-0.1054385
14	0x3eb9f8ca	0.36322623
15	0xbdbe6c62	-0.09298016
16	0x3e8f9562	0.28043658
17	0x3db53513	0.08848014
18	0x3eb8b4ed	0.36075535
19	0xc059e4f5	-3.4045994
20	0xc06ef033	-3.7334106
21	0x3df1a12a	0.11798318
22	0xbf8f3808	-1.1188974
23	0xbd926cf4	-0.071496874
24	0x3eab2e78	0.3343389
25	0x3ecf0350	0.40432215
26	0x3f07c35d	0.53032476
27	0xbf3c5a0c	-0.735749
28	0xbd03eb03	-0.032206547
29	0x3d8d8755	0.06910578
30	0x3d0d1ccc	0.03445129
31	0xbf903d52	-1.1268713
32	0x3e2bd8c7	0.16781913
33	0x3d9541c0	0.072879314
34	0xbf9d22da	-1.2276261
35	0x3dbb3094	0.09140125
36	0x3d9b12a2	0.07571913
37	0xbc3d4990	-0.011553183
38	0xbd0fa1b4	-0.03506632
39	0x3df40e14	0.11916748
40	0xbd3f8094	-0.04675348
41	0xbe8de0d2	-0.27710587
42	0xbe026b72	-0.127363
43	0x3d36a699	0.044592474
44	0xbef3c025	-0.47607532
45	0xbe331785	-0.1748944
46	0x3f24fcc9	0.6444822
47	0xbdc4c4d5	-0.09607855
48	0xbdef133c	-0.116735905
49	0x3f10049e	0.56257045
50	0xbf3f7ba1	-0.7479802
51	0xbe70bd0d	-0.23509617
52	0xbf164408	-0.5869756
53	0xc00ebcc6	-2.2302718
54	0xbf7a15d5	-0.97689563
55	0xbea6b8f3	-0.3256298
56	0xbecdc053	-0.40185794
57	0x3e10b58c	0.14131755
58	0xbf6e4506	-0.9307407
59	0x3ead86a3	0.33891782
60	0xbc2e837c	-0.0106514655
61	0x3e064bf6	0.13114914
62	0xbdf02250	-0.117252946
63	0xbe9c291b	-0.3050011
64	0xbd1ccdbe	-0.03828215
65	0x3de954f8	0.1139316
66	0xbd7a9b5b	-0.061183315
67	0xbd5c10c1	-0.053726915
68	0x3d28145d	0.041035045
69	0xbcde8574	-0.027163245
70	0xbd8c221d	-0.06842444
71	0xbdd1586f	-0.102219455
72	0x3d36146b	0.044453066
73	0xbba11b40	-0.0049165785
74	0xbc92bd94	-0.017912664
75	0xbd6749d9	-0.05646691
76	0xbe098a7b	-0.13431732
77	0x3c5d8350	0.013520077
78	0xbd2387a4	-0.03992428
79	0xbd6c6580	-0.057713985
80	0xbdd90f66	-0.1059864
81	0x3d242054	0.040069893
82	0xbd33f4f8	-0.043934792
83	0xbd115b72	-0.0354876
84	0xbd9353cd	-0.07193718
85	0xbdc4c766	-0.09608345
86	0xbe170d98	-0.1475128
87	0xbd74be64	-0.059751883
88	0xbd95caf0	-0.07314098
89	0x3ddbdc81	0.10735417
90	0xbd55db11	-0.05221087
91	0xbdb038bb	-0.086045705
92	0x3e1c4061	0.15258934
93	0x3d80aea3	0.06283309
94	0x3db680c4	0.08911279
95	0xbdd3f390	-0.1034919
96	0xbddc5ac7	-0.10759502
97	0x3d08be1e	0.033384435
98	0xbdbe6165	-0.0929592
99	0xbe1a0034	-0.1503914
100	0xbbc5d5e0	-0.006037459
101	0xbd3b44fc	-0.045720086
102	0xbe1247d2	-0.1428521
103	0x3d97d944	0.07414487
104	0x3dcddd9e	0.10052036
105	0x3c019d75	0.007911076
106	0x3b50c03b	0.003185286
107	0xbd314bc1	-0.043285135
108	0xbd733ecf	-0.05938607
109	0x3dad86b5	0.08472959
110	0x3ddb9a8c	0.10722837
111	0xbc817398	-0.01580219
112	0xbd4a6bb0	-0.049419105
113	0x3c010072	0.007873641
114	0xbe1c8417	-0.15284763
115	0x3d01367a	0.031546094
116	0xbd466b19	-0.04844198
117	0xbc215970	-0.009847984
118	0xbd8b1189	-0.06790454
119	0xbcd97ac9	-0.026547806
120	0x3cc47a47	0.023984088
121	0x3da04d85	0.07827286
122	0xbd4de852	-0.050270386
123	0x3d59e82c	0.053199932
124	0x3d57ca1c	0.05268298
125	0xbdb3d6a0	-0.08781171
126	0xbe05fea2	-0.13085416
127	0x3d577ca5	0.052609105
128	0xbede40f3	-0.43408927
129	0x3e813ee3	0.2524329
130	0xbeed29e3	-0.4632102
131	0xbe33b26a	-0.17548528
132	0x3ecff8ef	0.4061961
133	0x3e54edd9	0.20793857
134	0x3fd2361d	1.6422764
135	0x3fccf9d5	1.6013743
136	0xbebf0b0a	-0.3731311
137	0xbf2eb7d3	-0.68249243
138	0xbec93f29	-0.39306
139	0x3e93e596	0.28886098
140	0xbf925dc0	-1.143486
141	0x3cf61e39	0.030043708
142	0x3ecdc0ba	0.401861
143	0xbdb50340	-0.088385105
144	0x3e99213f	0.29908177
145	0x3f2443bc	0.64165854
146	0xbf75fd00	-0.9608917
147	0x3f062dd2	0.52413666
148	0x40235cf9	2.5525496
149	0x3ef2653a	0.47342855
150	0x3ec51a3f	0.38496587
151	0xbe8ed5fd	-0.27897635
152	0xbecf2a38	-0.40461898
153	0xbeded14e	-0.43519062
154	0xbd950187	-0.07275682
155	0x3fc16418	1.5108671
156	0xbd1071aa	-0.03526465
157	0xbde1ec2c	-0.11031374
158	0xbd237fc0	-0.039916754
159	0x3f85c87a	1.0451806
160	0xbda6b8b9	-0.08140702
161	0xbb90586d	-0.0044050724
162	0x3ea30b20	0.31844425
163	0xbf2033f1	-0.62579256
164	0xbd96e518	-0.07367915
165	0xbda6abf6	-0.08138268
166	0x3f295c7a	0.66156733
167	0xbcac0428	-0.020998076
168	0x3de9edd0	0.11422312
169	0xbdc298ea	-0.09501822
170	0xbee6a08d	-0.45044366
171	0xbf002c19	-0.5006729
172	0x3f972108	1.1806955
173	0xbf019f12	-0.5063335
174	0xbefaff70	-0.49023008
175	0x3ae12f00	0.0017180145
176	0x3d3f3188	0.046678096
177	0x3efd7628	0.4950421
178	0x3fbf2c03	1.4935306
179	0xc00eb6ff	-2.2299192
180	0x3f90f3ee	1.1324441
181	0x3d2a27ec	0.04154198
182	0x3e8ffae6	0.28121108
183	0xbfcf67e6	-1.6203582
184	0x3f46b7a8	0.7762399
185	0x3e234431	0.15943982
186	0xbe03e1c3	-0.1287909
187	0xbf96f223	-1.1792644
188	0xbf408c4a	-0.75214064
189	0xbde4d20f	-0.11172878
190	0xbf814e6f	-1.0102061
191	0xc0171fd2	-2.3613172
192	0x3f73b479	0.95197254
193	0x3f299e50	0.6625719
194	0x3e51e029	0.20495667
195	0x3fe13f78	1.7597494
196	0x3f6d9b52	0.92815125
197	0x3e5071fa	0.20355979
198	0x3ff60087	1.9218911
199	0x3ef0cf2d	0.47033063
200	0x3f8cf845	1.1013266
201	0x3e85b61d	0.26115504
202	0x3ef4aaae	0.47786468
203	0x3db2c91c	0.08729765
204	0x3f953f65	1.1659971
205	0xbdde4304	-0.10852626
206	0x3f21b85e	0.63171947
207	0x3cc14f48	0.023597375
208	0x3ef6a74e	0.48174518
209	0x3e56ef8b	0.20989816
210	0x3e5b6c0e	0.21427938
211	0x3e979d64	0.29612267
212	0x4003bfb9	2.0585768
213	0x3e18cbfc	0.14921564
214	0x3f72383a	0.94617045
215	0x3e7081b3	0.23486976
216	0xbec88068	-0.39160466
217	0xbeb627e6	-0.35577315
218	0x3ea01406	0.31265277
219	0x3f84da6f	1.0379161
220	0x3f1641b8	0.5869403
221	0x3ee3abd8	0.44467044
222	0xbce344f0	-0.027742833
223	0x3fe72d7f	1.8060759
224	0x3ee2dc5f	0.44308755
225	0x3dea0dc2	0.11428405
226	0x3e3b3ed2	0.18285683
227	0x3f2572bb	0.6462819
228	0x3dceabf2	0.1009139
229	0xbd30d1e8	-0.043168932
230	0xbe0739d7	-0.13205658
231	0x3d76c08c	0.06024222
232	0xbd0bb550	-0.03410846
233	0x3e6783d2	0.22608879
234	0x3f68ae5d	0.9089106
235	0x3f3bca96	0.73355997
236	0x3fa9b162	1.3257258
237	0x3f15c3f0	0.585021
238	0x3eef096c	0.46686876
239	0x3dfe551a	0.124185756
240	0x3daec796	0.08534162
241	0x3e167bd8	0.1469568
242	0x3f8f5d12	1.1200278
243	0xbe1cfdc9	-0.15331186
244	0x3faf7f47	1.3710717
245	0x3d240aff	0.04004955
246	0x3f591828	0.84802485
247	0xbf0ae9be	-0.5426291
248	0x3c22c16e	0.009933813
249	0x3d93ed74	0.07223025
250	0x3f6c8d4e	0.92403114
251	0xbe5aa188	-0.21350682
252	0xbe3938fc	-0.18088144
253	0x3dcd56c8	0.10026318
254	0x3ec7e58a	0.39042312
255	0xbe5455b3	-0.20735817

actor.2.bias f4 [64]
0	0x3ed2f14f	0.4119973
1	0xbe456445	-0.19276531
2	0x3e2146b1	0.15749623
3	0x3d00af66	0.031417273
4	0xbdf8b4ae	-0.12143837
5	0xbe9a3b7f	-0.30123517
6	0x3e16d544	0.14729792
7	0x3e818e65	0.2530395
8	0x3eb61fbf	0.35571095
9	0xbdac43fc	-0.084114045
10	0x3ea06b17	0.31331703
11	0xbea228f4	-0.3167187
12	0x3e8f64cb	0.28006586
13	0xbe073144	-0.13202387
14	0xbe8d5273	-0.27601966
15	0xbe9f1927	-0.31073877
16	0xbdb8f024	-0.09030178
17	0x3eb7f310	0.3592763
18	0xbed50628	-0.4160626
19	0xbd8103f1	-0.0629958
20	0x3e70fabe	0.2353315
21	0xbe133def	-0.14379095
22	0xbe026b5a	-0.12736264
23	0x3decf955	0.11570994
24	0x3e9d9b6f	0.3078265
25	0xbca8bf63	-0.020599073
26	0xbd333cec	-0.04375927
27	0xbda3cc50	-0.07997954
28	0x3ed1aa13	0.4095007
29	0x3e3c8093	0.18408422
30	0x3edf164a	0.43571693
31	0xbdc3fa80	-0.095692635
32	0xbdebc337	-0.11511844
33	0xbd25167b	-0.040304642
34	0x3e380cbe	0.17973611
35	0x3e8a4824	0.27008164
36	0x3be61706	0.0070217876
37	0x3e7f3a2d	0.24924536
38	0xbe2a5067	-0.16632234
39	0x3e0f3aaf	0.1398723
40	0xbe73cbb5	-0.23808177
41	0x3e8bf418	0.27334666
42	0x3ec31471	0.38101533
43	0x3e112efb	0.14178078
44	0x3ebc0367	0.36721346
45	0x3ea9794d	0.33100358
46	0x3dba6199	0.091006465
47	0xbd58a756	-0.05289396
48	0xbdd0bcba	-0.10192247
49	0xbcaa9b52	-0.020826016
50	0xbec57ad9	-0.38570288
51	0xbde1b4b6	-0.11020796
52	0xbccee054	-0.025253452
53	0xbdeface3	-0.117028974
54	0xbe02ab13	-0.12760572
55	0xbdb65356	-0.08902614
56	0x3e26134f	0.16218303
57	0xbe05e821	-0.13076831
58	0x3ed48a7f	0.41511914
59	0x3e2d95b0	0.16951632
60	0xbe613429	-0.21992554
61	0xbe2f9ceb	-0.17149703
62	0x3db28aed	0.08717904
63	0x3e900e70	0.28136015

actor.4.weight f4 [1, 64]
0	0xbfe34b67	-1.7757386
1	0xbd9c3491	-0.07627214
2	0x3fec8ac1	1.8479844
3	0x3f277562	0.65413487
4	0xbd9a57bc	-0.07536265
5	0x3fa4a304	1.2862248
6	0x3f95da05	1.1707159
7	0xc02e281f	-2.7211988
8	0xbffd6dcd	-1.9799134
9	0x3cf51f3a	0.029922117
10	0x3fce6535	1.6124636
11	0x3f9c1ab9	1.2195655
12	0xbfc44252	-1.5332739
13	0x3be1745c	0.006880326
14	0x3fb3d1ef	1.4048442
15	0xbf2f90ec	-0.6858051
16	0xbc5b267f	-0.013375877
17	0xbfea0d86	-1.8285377
18	0xbef094b4	-0.4698845
19	0x3c3d5334	0.011555482
20	0xbffe4742	-1.9865496
21	0x3bfd5b53	0.007731834
22	0x3fc1f5be	1.515312
23	0xc00c48af	-2.1919363
24	0xbfd636eb	-1.673551
25	0xbc80c142	-0.015717153
26	0xbce03814	-0.02737049
27	0x3cf5077a	0.029910792
28	0xbff2b069	-1.8960086
29	0x3f362cbc	0.7116201
30	0xbfffd4d8	-1.998683
31	0xbfa5c579	-1.2950889
32	0xbb3dead2	-0.0028979075
33	0x3ef1665a	0.471484
34	0xc010384c	-2.253436
35	0xc046577b	-3.0990894
36	0xc01317b7	-2.2983224
37	0xbf8c5c02	-1.0965579
38	0xbeb737c2	-0.35784727
39	0x3fd22fa2	1.6420786
40	0xbfce7077	-1.6128072
41	0xbf8e0722	-1.1095927
42	0xbfe16d96	-1.7611568
43	0xbf018227	-0.5058922
44	0xbfb2fb96	-1.3983028
45	0xbfced2d8	-1.6158094
46	0xbf3e8f5c	-0.744375
47	0x3c02cbd1	0.007983164
48	0x3b0dc8f1	0.0021634663
49	0xba8f8cd2	-0.0010952002
50	0x3f807821	1.003666
51	0x3ddfe2dc	0.10931942
52	0x3fac3e9b	1.3456606
53	0x3ea1ebad	0.3162512
54	0x3ea84ea7	0.32872507
55	0x3d74c2c8	0.05975607
56	0x3fa3ccbe	1.2796857
57	0xbd983bb1	-0.0743326
58	0xbfc288a8	-1.5197954
59	0x3fb5c264	1.4199948
60	0x3fae5171	1.3618604
61	0x3dc4c122	0.0960715
62	0xbfe0354d	-1.7516266
63	0xbfb80b9e	-1.4378545
