Pre-trained/HAC_Pendulum-h-v1_level_1_actor.pth (torch, 21496 bytes, 6 tensors)

actor.0.weight f4 [64, 4]
000000 50 2a f5 3e cf 18 74 3e 20 3c e6 3f c0 f5 39 bf
       0.47883844 0.23837589 1.7987099 -0.7264061
000010 4a 53 ed 3d 22 30 c9 3d c6 28 88 bf 3c d9 8f 3e
       0.11588152 0.09823634 -1.0637443 0.28095424
000020 e1 48 11 3d 77 38 92 3d 14 42 da 3e fe 64 80 bb
       0.035469893 0.07139676 0.4262854 -0.003918289
000030 4b 8f 88 3c 44 a2 88 3e 6b 33 a4 bd 84 c3 70 be
       0.01666989 0.266863 -0.0801762 -0.23512083
000040 58 89 34 bf 4e be 3e be 2e 19 0e bf a0 75 b2 3e
       -0.7052207 -0.18627283 -0.5550717 0.34855366
000050 cf 3d cc be 42 a0 58 3d 4d ec 5c 3f ed 1a 55 bf
       -0.39890906 0.05288721 0.86298066 -0.8324421
000060 ad 5a 93 bf 82 b4 a7 be 99 ed ac be 5a 4a 6c 3f
       -1.1512047 -0.32754904 -0.33775023 0.9230095
000070 2e d4 19 3f d8 95 fe 3d 66 21 01 be ed 38 00 bf
       0.60089386 0.12430924 -0.12610397 -0.5008686
000080 c3 19 28 be 83 49 12 3e 39 cd 40 3f e4 21 45 3e
       -0.16416077 0.14285855 0.75313145 0.1925121
000090 53 9e 49 be 1d 5e c3 3a e7 8d 17 3f 27 fa 1d 3e
       -0.19689302 0.0014905367 0.592009 0.15427457
0000a0 c7 1a 42 3e ad c1 10 3e 1c 1f 17 3e 0c c3 b4 3f
       0.18955527 0.14136381 0.14757961 1.4122024
0000b0 cf cf 3b 3e 2e 66 a1 3e 6a 36 74 3f 8b e2 2a 3e
       0.18340991 0.3152327 0.9539553 0.16687982
0000c0 c3 76 07 3e ae e6 84 3e 85 07 24 c0 5f b1 ff 3e
       0.13228898 0.25957245 -2.562959 0.4994001
0000d0 1b 55 b4 be 4e 80 0a 3d b5 1b 08 be cb 80 1c 3f
       -0.3522118 0.033813767 -0.1329182 0.6113402
0000e0 6c dc c2 3d ad 3f 8e bd d0 a2 be bf 39 c9 b1 3e
       0.095146984 -0.06945739 -1.4893436 0.34723833
0000f0 b5 83 32 bf c5 96 47 be 53 05 53 40 7b a9 e4 bf
       -0.6973222 -0.19491108 3.2972 -1.7864221
000100 df 33 0b be d9 0b 28 3d 56 11 f0 bf 53 b7 e1 3e
       -0.13594006 0.041026924 -1.875529 0.44085178
000110 51 39 78 3d 36 e4 99 3c fb ec 46 3f 63 3e 5a 3c
       0.060601536 0.018785577 0.77705353 0.013320538
000120 da c5 18 3f 73 bd c0 3c 4b f2 59 3f 95 48 c6 bf
       0.596769 0.023527836 0.85135335 -1.54909
000130 3f 8a c4 be 7e ab c9 3c 75 41 a3 bf d6 07 34 3f
       -0.38386723 0.024617907 -1.2754351 0.70324457
000140 16 15 96 3b 6c fd d9 bc c3 cb 27 3d 1f f7 f0 be
       0.0045801504 -0.026610099 0.040965807 -0.47063538
000150 07 f3 4a 3e 6f c6 d6 3d d2 ab b4 3d 59 69 4b 3f
       0.1981927 0.10487067 0.088218346 0.7945762
000160 c7 08 58 be bc b6 28 be 6b f6 3a bf d1 02 79 3e
       -0.21097098 -0.16475958 -0.73032254 0.2431748
000170 f6 d3 3d 3e b8 ff 8a 3d d0 bd ac 3e f5 9c 4e 3f
       0.18537888 0.06787056 0.33738565 0.8070825
000180 a0 a3 23 3e 09 da 05 be 8e 29 c1 3e a8 f6 14 bf
       0.15980387 -0.13071455 0.37727016 -0.5818887
000190 16 13 97 bf 3a 0c 8e be 90 7b e0 3e 59 0f a4 bd
       -1.18027 -0.27743703 0.4384427 -0.0801074
0001a0 eb 68 51 3e 2e d9 97 3e ce 24 9f 3f cd 83 92 be
       0.2045018 0.29657882 1.2433107 -0.2861618
0001b0 5c 7f 10 bc ad 69 22 3d da 53 74 3d bd 52 ee 3e
       -0.008819427 0.03965156 0.05965028 0.465475
0001c0 21 0b fc be b6 22 a0 bc 6e f3 09 bf 91 52 39 bf
       -0.4922724 -0.019547801 -0.5388707 -0.7239161
0001d0 b0 23 2e bd ea 8b a4 bc fd 6a b8 40 09 53 42 40
       -0.042514503 -0.020086247 5.76306 3.036318
0001e0 0e 4f 75 3e 4d 3f 7f 3e 97 08 8e be 79 f8 78 bf
       0.23955938 0.24926491 -0.2774093 -0.9725414
0001f0 ec c4 1b bf f0 7d d4 bd 1d 26 0e 3e f9 6c 83 3d
       -0.60847354 -0.10375583 0.13881727 0.06417269
000200 f3 a3 c7 be e5 44 d9 3c b3 6e 93 3f ef 6a cf 3e
       -0.3899227 0.02652211 1.1518158 0.4051127
000210 f8 46 8d bd ed aa 8d bd fe fe af 3c a2 3c eb bf
       -0.06898302 -0.06917367 0.021483894 -1.8377879
000220 db 77 a0 3d 2d 1b ee 3c c6 74 85 c0 77 ed fd 3e
       0.078353606 0.029065693 -4.1705046 0.49595234
000230 3c ce 48 3d 14 f9 02 3e 57 29 ab be 82 87 e8 bf
       0.049024805 0.12790328 -0.33429977 -1.8166354
000240 11 9a 65 bd 9a ab d9 3d 56 ad 2f bf eb 4e a5 bf
       -0.056055132 0.106284335 -0.68623865 -1.2914709
000250 da ee bd be f8 49 28 ba 31 c5 c4 3d 46 54 7e 3f
       -0.37096292 -0.00064197136 0.09607924 0.9934734
000260 10 5e d6 bd f7 68 13 bc d1 f9 59 c0 5b 12 77 3d
       -0.1046716 -0.008997194 -3.4058726 0.06032024
000270 1e ff d4 be 43 bc 66 bd ae f1 77 bf c5 5d d9 bd
       -0.4160089 -0.056331884 -0.9685315 -0.10613588
000280 80 2b b7 be da 73 ba 3d e1 de 27 3f 9d bc 8b bd
       -0.35775375 0.09104128 0.6557446 -0.068230845
000290 87 aa 17 be 66 69 20 be 45 74 6d 3e e4 0e 19 3e
       -0.14811145 -0.15665206 0.23188885 0.14947087
0002a0 b1 38 09 bf ed cb 21 be 61 1c 8e 40 86 bc 96 c0
       -0.5360213 -0.15800448 4.440964 -4.710513
0002b0 ad b4 00 bf 2f d4 f9 bd 2e 20 22 3f 40 0d 43 bf
       -0.5027569 -0.12198674 0.6333035 -0.7619209
0002c0 be 1d 1a be d1 84 55 be 97 31 2e bf a9 60 24 bf
       -0.15050408 -0.20851447 -0.6804442 -0.6420999
0002d0 c2 88 aa bc ed c1 c6 3b 79 a4 e2 3c 05 50 e2 3e
       -0.020817164 0.006065598 0.027666317 0.44201675
0002e0 b2 58 45 be 62 86 27 be 04 78 98 40 db bc 98 be
       -0.19272116 -0.16359857 4.7646503 -0.29831585
0002f0 72 38 a8 be 07 f5 3d bc 60 a6 e7 3f af 78 5a be
       -0.32855564 -0.011594064 1.8097649 -0.213351
000300 6a 0e 38 ba b6 10 98 3a d8 a3 3d c0 66 4a 0b bf
       -0.0007021191 0.001160166 -2.9631252 -0.544104
000310 81 9e 21 bc 12 c9 3a bb 30 bd 0f bf 72 ad 53 bf
       -0.00986445 -0.0028501195 -0.5614805 -0.8268653
000320 f7 49 f7 be 9f d2 e2 3c 15 ac 0f bf 3c 60 5c be
       -0.48298618 0.027688323 -0.5612195 -0.21521086
000330 55 57 62 3e f8 4c e6 3c 42 75 d8 bf 3b 61 cd 3f
       0.22103627 0.028112873 -1.6910784 1.6045297
000340 7d 97 b0 3e e9 c4 1b bd f9 6a 58 40 50 dc 12 c0
       0.34490576 -0.038029585 3.381529 -2.2946968
000350 36 74 b2 3e 30 8e a8 bd 18 c7 7f 3f a9 2c 30 bf
       0.34854287 -0.08230245 0.9991317 -0.68818146
000360 98 4c dc 3c b8 2d ed ba e7 d8 66 3c ef 40 db be
       0.026891991 -0.001809529 0.0140897995 -0.42822978
000370 47 85 d6 bd 31 d8 09 bd 92 ff 80 bf d2 c4 ec 3c
       -0.104746394 -0.03365344 -1.0077994 0.028902445
000380 ac 97 18 3e e0 be b3 3c 56 75 04 3f 63 05 3c 3e
       0.14901608 0.021941602 0.5174154 0.1836143
000390 78 cd d1 be ab 19 62 3d 36 a1 da 3e 94 77 70 be
       -0.40977073 0.05520026 0.4270112 -0.23483115
0003a0 58 29 0c 3f 19 58 17 3e 7a b6 79 40 b4 91 b7 bf
       0.54750586 0.147797 3.9017625 -1.434134
0003b0 32 af d1 3c 1e 91 ca bc 9a ec 4f c0 27 e6 07 bf
       0.025596235 -0.0247274 -3.248816 -0.5308556
0003c0 18 f5 f9 3e a4 92 00 3f f5 05 c3 3f f9 68 9c bf
       0.48819804 0.50223756 1.5236193 -1.2219535
0003d0 98 72 22 be b0 7d 25 bd 7d 56 93 40 2a a3 a7 be
       -0.15864027 -0.040403068 4.6043077 -0.32741672
0003e0 de 3c e9 3e 0a ae d3 3d 04 51 bf 3e ea 28 d8 be
       0.4555425 0.1033593 0.37366498 -0.42218715
0003f0 6d 63 8c bd ad 74 66 3b c9 5a 4f 40 d0 da 01 bf
       -0.068549015 0.003516476 3.239916 -0.50724506

actor.0.bias f4 [64]
000000 e1 21 86 bf ed 21 0b bf cd a4 a9 3b 32 fe 66 bf
       -1.0479089 -0.5434864 0.0051771165 -0.9023162
000010 1f b2 53 be 79 89 28 bf 64 22 c5 3e 21 22 f2 be
       -0.20673417 -0.65834767 0.385028 -0.47291663
000020 60 d9 43 bf d6 c6 30 bf 5c 9e 4d be ea ea 62 bf
       -0.7650356 -0.690534 -0.2007994 -0.886397
000030 0a 6d 42 bf ea 1a 49 bf d1 e8 9b ba 6e 99 62 3d
       -0.7594763 -0.7855669 -0.0011894946 0.055322103
000040 8d 6c 75 3e e5 13 b6 bf 18 a9 90 bf 90 3a 8a bf
       0.2396719 -1.4224821 -1.1301603 -1.0799122
000050 2c c7 08 c0 01 b8 f5 be 9b 9d 99 bf 7b 48 16 3e
       -2.1371565 -0.47991946 -1.2001222 0.14676087
000060 67 67 3f bd 66 c2 0c bf a6 e9 3a bf a6 f5 03 c0
       -0.04672947 -0.5498413 -0.7301277 -2.0618682
000070 e1 72 83 bd f5 1a 2d 3b 9b 07 dd bf 11 43 18 bf
       -0.06418396 0.0026413773 -1.7267946 -0.59477335
000080 5a 1f a7 bf e8 a6 58 bd 5b ad ad bc 7a c4 2d bf
       -1.3056443 -0.05289355 -0.021200826 -0.67877924
000090 28 73 64 bf a3 51 a3 3c 6c a2 45 bd 52 1c 98 bf
       -0.89238214 0.019936388 -0.0482506 -1.1883643
0000a0 ba 14 77 bf a6 be f2 be c5 00 a8 be ab 17 7d bf
       -0.96516 -0.47411078 -0.32813087 -0.9886424
0000b0 e2 82 6f bf 95 3a 35 c0 00 a3 98 bf 78 3a f0 be
       -0.93559086 -2.8317006 -1.1924744 -0.46919608
0000c0 bf 39 c1 bc b2 1b 8b bd a5 cf 49 bf 75 a9 59 3d
       -0.023587106 -0.06792392 -0.78832465 0.053140122
0000d0 cc b3 3a 3f 86 c0 6d bf 6d 4f 38 c0 a0 4f 11 c0
       0.729306 -0.9287189 -2.8798478 -2.270485
0000e0 a3 94 04 3e 1f cd 97 bf 89 e8 48 be 9b 33 95 be
       0.12947325 -1.1859473 -0.19619955 -0.29140934
0000f0 06 72 81 bf cb 0f 4d bd ef 92 93 bf 92 30 85 3d
       -1.0112922 -0.05006389 -1.1529216 0.06503405

actor.2.weight f4 [64, 64]
000000 01 52 d2 bd d6 df 56 bd 0a 7c a8 3d bc f5 d6 bc
       -0.10269547 -0.05245956 0.082267836 -0.026240222
000010 2c 9a cc bd 96 d9 0f be 98 d1 2c 3c 4b 1d 4f be
       -0.099903435 -0.14047846 0.010548018 -0.20226018
000020 b0 f2 20 be 44 21 83 3d fa 14 1a be 08 a7 17 3d
       -0.15717578 0.06402829 -0.15047064 0.037024528
000030 c0 72 84 bd 0e 3b da bd c3 90 4f bd c2 36 a3 bd
       -0.06467199 -0.10655795 -0.050675165 -0.079694286
000040 fa af a0 bd c9 5d 08 be 9f b3 6f bd 55 0f 36 be
       -0.07846065 -0.13317026 -0.05852091 -0.17779286
000050 72 26 90 3d 74 ac 1f 3d a3 9a e1 bd 74 c5 d2 bb
       0.07038583 0.038982823 -0.11015823 -0.0064322297
000060 5e 24 f4 bd e6 32 96 3d fc 7f 8e bc 94 7d 03 be
       -0.11920999 0.07333927 -0.017395012 -0.12840873
000070 95 a8 9c bd c3 02 d3 bc ec d4 fb 3d af 18 0f 3b
       -0.07649342 -0.025758153 0.12296471 0.002183478
000080 ed a1 c3 bd ac 69 59 bd 2e 96 ec bd 47 62 32 3c
       -0.09552369 -0.053079292 -0.11552082 0.010887689
000090 71 42 36 ba f5 bd 20 3c 65 84 d6 bd b3 e1 10 be
       -0.00069526496 0.009810914 -0.10474471 -0.14148597
0000a0 2d 7a a9 bd 50 c0 91 3d 84 f5 ea 3d 3d 57 ff 3b
       -0.08275256 0.07116759 0.1147261 0.007792382
0000b0 33 e5 2b be 31 3d 46 3d dd ab 81 3d 0e 68 f2 bd
       -0.16786651 0.0483982 0.063316084 -0.11836253
0000c0 8c 77 b3 bd 82 00 b7 bd 02 cf a9 bd a7 8d 95 bd
       -0.08763036 -0.08935644 -0.08291437 -0.07302409
0000d0 ba 55 d6 bd 05 cb 21 be 09 67 f0 bb 70 eb ab bc
       -0.1046557 -0.15800102 -0.0073365015 -0.020986289
0000e0 23 f7 96 bd d0 31 0d be 7b 44 88 bd be ee 44 bb
       -0.07371356 -0.13788533 -0.066536866 -0.0030049528
0000f0 15 82 f9 3b 38 c3 13 be db f9 ba 3d c1 53 87 bc
       0.007614384 -0.14429939 0.091296874 -0.01651943
000100 30 8b 01 bc 25 77 92 3d 64 17 2a 3d 78 7f 8c bd
       -0.00790672 0.07151631 0.041526213 -0.0686025
000110 84 67 e8 bd e8 b8 e5 bd 32 92 26 be b7 0c 72 bd
       -0.11347869 -0.11216909 -0.16266707 -0.059094157
000120 4d 6c 21 bc 21 c1 a3 bb ff d2 84 bd 90 d2 2d bd
       -0.009852481 -0.004997388 -0.06485557 -0.042437136
000130 bb 25 4b 3d bb da 02 bd 6f bd eb bd 5f 1a ef 3c
       0.04959653 -0.03194688 -0.11510741 0.02918738
000140 12 12 15 3c 5c 2f 7d ba b3 c5 11 3d 6e a1 28 be
       0.009098547 -0.0009658241 0.03558893 -0.1646783
000150 6d de 7a 3d 9c bc 8b 3c 72 43 e3 bc 8c 9e f2 bd
       0.061247278 0.01705771 -0.027742121 -0.11846647
000160 e9 1f 8f 3d e7 04 4d bd 93 9f d5 bd 0b 37 26 3d
       0.06988508 -0.050053503 -0.10430827 0.040579837
000170 26 a3 94 bd 54 bc 2e bd 94 16 99 3d b1 17 c2 3d
       -0.072576806 -0.042660072 0.074750096 0.09477175
000180 bd 13 87 bc 59 38 df bd 36 4b 83 bd 31 8a f3 bd
       -0.016488904 -0.10899419 -0.0641083 -0.11891592
000190 f6 62 28 3d 7f 57 42 3d 5e 67 14 be f4 34 21 3d
       0.04111 0.047446724 -0.14492556 0.03935714
0001a0 e1 70 a0 bc 7c dc 53 bd b7 a7 87 bd c7 22 06 be
       -0.019585075 -0.051723942 -0.06623786 -0.13099204
0001b0 93 70 f7 bd 4f ad 9e 3d 8a ec 0f bd 5a a7 d3 bd
       -0.12082019 0.077479 -0.03513769 -0.10334654
0001c0 c4 c7 0c be 12 2e c2 bc 58 94 f5 bd 7a aa 32 3c
       -0.1374808 -0.023703609 -0.11991185 0.010904903
0001d0 d6 80 19 be f7 08 48 bb 05 8e fd bd 2b 85 cb bd
       -0.14990553 -0.0030522922 -0.12380604 -0.09937509
0001e0 5a 09 a6 39 d6 20 8b bd a3 29 35 bd 8b 83 47 3d
       0.00031668955 -0.06793372 -0.04422916 0.048709434
0001f0 75 e7 00 bd 79 9e 23 bd 01 79 f3 3c c1 19 87 bd
       -0.031470735 -0.039946053 0.029720785 -0.06596709
000200 ed e2 f3 be 1e 91 95 bf 88 d2 2e 3e 20 91 8b 3e
       -0.47634068 -1.1684911 0.17072499 0.2725916
000210 87 07 b3 3d df 44 b5 be 8a a2 16 3d b1 b5 30 bf
       0.0874167 -0.35404107 0.036776103 -0.6902724
000220 72 28 03 3f 9e cc 11 be 56 f1 74 3d a5 f6 8f 3e
       0.5123359 -0.14238212 0.05980047 0.28117862
000230 d2 96 ad 3d e2 67 71 3e 00 85 d3 bd 94 2c 4f be
       0.08476032 0.23574784 -0.10328102 -0.20231849
000240 0c c7 e6 be 55 e9 99 3e 0c b2 6d 3d ab 73 a6 3e
       -0.45073736 0.3006083 0.058031127 0.32510123
000250 78 61 05 40 ec 26 33 bf 4f 25 0d bf 0b ed a2 3c
       2.084074 -0.69981265 -0.55135053 0.019888422
000260 f7 ec fc bc 66 31 84 3d c8 7b 0a 3e 77 0f 9d 3f
       -0.030874712 0.064547345 0.13523781 1.2270344
000270 f2 9b e0 be 69 96 b6 3e 88 f1 79 be eb 8a 98 be
       -0.43868977 0.3566163 -0.24408543 -0.29793486
000280 16 be 48 be 05 d8 4a bd 1a b0 35 3f fe 6d 10 3e
       -0.19603762 -0.04952242 0.70971835 0.14104459
000290 ec 6f 07 be 49 65 4e bf bf c9 d2 3d 6f ad 8e 3e
       -0.13226289 -0.806233 0.10292386 0.27866694
0002a0 76 e1 e9 be 63 40 64 3e 8c 82 81 bc f3 ce 92 3e
       -0.45679826 0.22290187 -0.01580932 0.28673515
0002b0 c8 b2 f3 3d b5 d6 98 40 d5 01 60 3e dc db b2 3d
       0.11899334 4.7762094 0.21875699 0.08733341
0002c0 8f d6 8a 3c e9 74 8f be 4f f4 b7 bf 53 bd 1e be
       0.016948013 -0.28018883 -1.4371432 -0.15501909
0002d0 b8 3e 9b bd 4b f7 39 3e b8 69 c4 bf 45 91 98 40
       -0.07580322 0.18160741 -1.5344763 4.767733
0002e0 b4 ef 91 3e d4 6c 9b 3e 74 cb 37 bb e6 c1 eb be
       0.2850319 0.30356467 -0.0028044851 -0.4604637
0002f0 53 82 83 3e 9d 3b fc 3e 56 42 8d bc 21 60 7c be
       0.25685367 0.4926423 -0.017243546 -0.24646045
000300 cc d3 09 be 75 ee 18 be 7a d6 81 be fb 84 c9 bd
       -0.134597 -0.14934714 -0.25358945 -0.09839817
000310 c6 5a 1c bd 91 de b5 be 08 2b 87 3d db 8f fd bd
       -0.038172506 -0.35521367 0.066000044 -0.12380954
000320 e6 47 2e 3d 6d f5 fc 3d 04 fa 31 be 55 ba 33 be
       0.042549036 0.12351499 -0.1738053 -0.17551549
000330 5d 68 86 be 79 fa 8b be fa 3f 53 be 3f 53 6f bd
       -0.26251498 -0.27339533 -0.20629874 -0.058429
000340 3d e0 00 bf c2 36 ea bd 9c ad 14 be a7 aa bc be
       -0.5034216 -0.114362255 -0.14519352 -0.36848947
000350 7f c1 a1 be 62 54 1b bd d5 6c ba 3d e1 1a a8 be
       -0.31592938 -0.03792227 0.09102789 -0.32833007
000360 f7 e8 7e 3d 7a d9 0a bb e3 ac 4a be 73 ad 37 bd
       0.06223389 -0.0021186755 -0.19792514 -0.04484315
000370 d8 28 70 be 4a c3 ac be e0 9d ae bd 99 7b 41 be
       -0.2345308 -0.33742744 -0.08526206 -0.18894805
000380 09 0d a5 bd a7 1e ef be f7 41 0f be 61 ea 56 be
       -0.08059127 -0.46703073 -0.13990007 -0.20987846
000390 4b 26 99 be 02 95 1d bf d5 79 c9 be 9f 25 06 bb
       -0.29912028 -0.6155549 -0.39350763 -0.0020469201
0003a0 13 c2 e8 bd e8 60 84 bc c5 1f 0c be 6e 4c 0a 3e
       -0.11365142 -0.01615949 -0.13683994 0.13505718
0003b0 e6 66 c0 be d8 03 78 be 1c d1 84 be 00 f6 22 be
       -0.37578505 -0.24220216 -0.25940788 -0.15914154
0003c0 b2 d9 0e 3e 55 df ba 3d de 2f 2d 3e 4d 7f ea be
       0.13950232 0.091246285 0.16912791 -0.45800248
0003d0 8a a1 4d be f7 d4 b1 be bc 6b b6 be 87 d8 90 be
       -0.20081154 -0.34732792 -0.3562907 -0.28290197
0003e0 72 a3 bf 3d 97 fe 03 bb b0 ee 04 be 76 10 72 be
       0.093573466 -0.002014076 -0.12981677 -0.23639092
0003f0 9d e7 88 bd 5b b4 d4 bd 50 13 5a 3d 56 82 26 3e
       -0.06684802 -0.103859626 0.053241074 0.16260657

actor.2.bias f4 [64]
000000 53 f6 7d bd fd 27 0f be 97 3e 0e 3e 58 40 56 3e
       -0.06200249 -0.13980098 0.13891064 0.20922983
000010 ad 85 26 be ea 23 f8 3d d9 68 ca 3d 68 57 1d be
       -0.16261931 0.12116225 0.09883279 -0.15365374
000020 48 1d 56 bc bf 50 8f 3d 4c c5 4b bf b8 d8 2c be
       -0.013068505 0.06997823 -0.79597926 -0.16879547
000030 7e c5 bc bd f4 77 3e 3d 21 c2 27 be 01 a3 e3 3a
       -0.09217356 0.046501115 -0.16382648 0.0017367305
000040 45 7b 18 c0 9b 34 fc bd 12 6d b7 bc 9b 5e b5 bd
       -2.3825238 -0.12314721 -0.022390876 -0.08855935
000050 ad 2f 80 be 27 b8 c5 bd 1d 9e 04 be dc 0b cd bd
       -0.25036374 -0.09654265 -0.1295094 -0.100120276
000060 0a 08 8e 3c 31 a3 25 be 91 20 0c be e6 96 10 3e
       0.017337818 -0.16175534 -0.13684298 0.14120063
000070 05 93 f2 3c 04 51 ae bd 7c d3 e3 bc 90 ef cc be
       0.02961112 -0.08511546 -0.027810805 -0.40026522
000080 3e d4 3d be 22 8b 9a bc 80 4e 17 3d dd 21 05 bf
       -0.18537995 -0.018865172 0.036940098 -0.52004796
000090 33 bd 5e be 26 af 1d be 6c de a6 3c fe 2a 94 3c
       -0.21751861 -0.15398845 0.02036973 0.018086907
0000a0 62 f5 58 3e a7 b6 82 bd e5 4f 20 be a0 88 18 bd
       0.21187356 -0.063824944 -0.15655477 -0.03723967
0000b0 5b 59 13 be 7f fa 0d 3e b6 a4 5c 3d 5a 3d 79 3d
       -0.14389555 0.13865088 0.053868018 0.060849525
0000c0 2b 95 03 be b4 2f 41 3e 80 d7 46 3d bb 08 8e bd
       -0.12849872 0.18865854 0.04854536 -0.06935259
0000d0 7b 0c a2 be 36 86 8d 3e 02 29 80 bd b0 bc 81 3e
       -0.31650147 0.27641457 -0.062578216 0.2533927
0000e0 6c 92 8c 3d d0 0a 08 be e5 44 45 be 97 77 03 be
       0.06863865 -0.13285375 -0.19264562 -0.12838589
0000f0 84 b7 1e bd 9e c6 11 be 3b c9 9e bd 0f c5 15 be
       -0.038749233 -0.14235923 -0.077532254 -0.14625953

actor.4.weight f4 [2, 64]
000000 de c0 be bd 49 70 05 3d 73 30 7a bd 7f 38 04 3f
       -0.0931413 0.032577787 -0.06108136 0.51648706
000010 be dd b3 bd ff 61 af bd 4d 3a 8d bf b0 b6 75 3e
       -0.08782528 -0.08563613 -1.1033417 0.23995471
000020 e0 ef 1c be 09 1b 2c c0 eb 31 b9 40 50 30 d6 bd
       -0.1532588 -2.68915 5.7873435 -0.10458434
000030 84 66 13 be 9b 06 f0 3c f2 d3 01 be b2 21 59 be
       -0.14394575 0.029300025 -0.12678507 -0.2120426
000040 99 b2 66 3e 4a 26 a3 3e c3 34 e7 3d 2d c6 85 3c
       0.22529067 0.3186515 0.112893604 0.01632985
000050 63 ce 28 3c 62 f6 9d 3e 8e 4c 4b bc cf 4a b4 3e
       0.010303113 0.30852038 -0.012408389 0.35213324
000060 ce e3 39 3f 74 41 fa bc 4e db 2f 3d 53 19 03 be
       0.7261323 -0.030548789 0.042933755 -0.12802629
000070 39 ee 7b bc 69 57 03 be 7c fe 8a 3d 0f 10 33 3f
       -0.015376621 -0.12826313 0.0678682 0.6994638
000080 de c3 2d be be f8 0f bc 09 b7 8c 3d f7 d4 6b bf
       -0.16969249 -0.008787332 0.06870849 -0.92121834
000090 e5 26 5e be 57 f3 53 3f 3d c7 20 3e 4d ac a1 be
       -0.21694525 0.8279318 0.15701003 -0.31576768
0000a0 7f f0 62 be b8 01 94 3d 02 ff f3 3c ba 79 be 3d
       -0.22162054 0.0722689 0.029784683 0.09300561
0000b0 46 51 63 3d 88 66 f1 3c d1 9e c7 bc 10 2e 4a be
       0.05549743 0.029467836 -0.024367722 -0.19744134
0000c0 11 27 09 3e bd 4f 1c 3e e9 6c ed bd 00 1d f4 bd
       0.13393809 0.15264793 -0.115930386 -0.11919594
0000d0 f5 95 31 3e aa 4f 92 3f 66 22 87 bf ba 51 ba 3e
       0.1734236 1.1430562 -1.0557373 0.36390477
0000e0 34 9d b2 3d 53 3c 10 3e a1 2d de 3c 26 f7 2a bd
       0.0872139 0.14085512 0.027121367 -0.041739605
0000f0 b6 63 08 3e e1 d0 04 3e b4 7e 29 bd ba 31 62 3d
       0.13319287 0.12970306 -0.0413806 0.055223204
000100 86 17 9a 3b 0d 0e 84 3d e2 58 3b 3d 30 59 49 3b
       0.0047025112 0.064479925 0.045739062 0.0030723326
000110 6d fc ef bc a3 dd 10 3e 47 f1 fa 3f b7 70 c4 c0
       -0.02929517 0.14147048 1.9604882 -6.138759
000120 86 95 91 bc 12 2a 8a 40 df 99 10 41 00 14 15 bd
       -0.017771494 4.3176355 9.037566 -0.036396027
000130 14 be 3a 3d 9d 47 fb bd 83 09 9c 3c b5 3e 90 bd
       0.04559143 -0.122695185 0.019047504 -0.070432104
000140 56 c0 e7 3b 4e 0d 33 3f 79 a1 61 3e ea 0e e5 bd
       0.007072489 0.69942176 0.22034253 -0.11184485
000150 ef a8 8b bb 66 98 2b 40 7b d1 35 bd 09 7e cf bc
       -0.004262082 2.6811767 -0.04438923 -0.025328653
000160 92 0c 91 3f 8e 7f 1b bd 0e da e4 bc 6b 39 57 bb
       1.1331961 -0.037963443 -0.027936008 -0.003284062
000170 d1 45 1e 3e 86 2d da 3b f3 fd 42 bd dc 99 1a 40
       0.1545632 0.006658259 -0.047605466 2.4156408
000180 9c 5c 2d bd 91 fc dc bd bb 9d 06 be b8 7c 89 bf
       -0.042324647 -0.10790361 -0.13146107 -1.0741186
000190 74 5c 8a 3c 19 cb 5c 3d 4e ea 63 3e d9 09 e9 3e
       0.016889788 0.053904627 0.22257349 0.45515326
0001a0 b6 7a ab 3e 05 5a af 3e 3e ee 1b 3c d1 3e 94 bb
       0.3349206 0.34248367 0.009517251 -0.00452409
0001b0 a1 3e 96 3b cc e0 b5 bd e1 d4 05 3e 77 14 15 bd
       0.0045851027 -0.08880767 0.13069488 -0.03639647
0001c0 c9 c1 55 bc dd 99 1d bf 1a 59 c5 3c 90 73 07 3f
       -0.01304669 -0.615629 0.024090338 0.5291071
0001d0 0f c0 1e bd ca 8e 22 be c1 f8 40 bf 0c 1d 17 bf
       -0.03875738 -0.15874782 -0.7537957 -0.59028697
0001e0 b4 ee 5f 3d d3 c5 ba be 98 db 46 bd 17 f6 4d 3b
       0.054671004 -0.36479053 -0.048549265 0.0031427199
0001f0 a4 f1 14 3e 89 d6 06 3c 86 44 6f be 9b 58 a8 bc
       0.14545304 0.00822986 -0.23365983 -0.020550063

actor.4.bias f4 [2]
000000 34 8c 2a 3d 0e c0 17 bc
       0.041637614 -0.009262098
