Pre-trained/HAC_MountainCarContinuous-h-v1_solved_level_1_actor.pth (torch, 21696 bytes, 6 tensors)

actor.0.weight f4 [64, 4]
00000000: 580c 393e cc4c a13e 4ece ff3e 7ece 853e
00000010: 8492 4cbf 6a53 bf3e b11f 3ebf c3c5 80bd
00000020: 91fe ae3e 6b4d fe3f 836a 9bbe ebb3 703e
00000030: b0e7 0ebf b86d b4c0 0c08 16bf 5b4d f33f
00000040: 28f5 6bbe 281d 90c0 125b aa3e cbb1 4d3f
00000050: 00f3 14bd b047 563e 0239 ea3e d00a d0be
00000060: ef1c ebbc e236 e03f 60d8 27be a273 38c0
00000070: 9252 c03e 89cd 7ac0 744f a3be b9fc 383e
00000080: 7255 d73e 88b1 423e 786d 8cbd 94fc c43e
00000090: f77a 66be 786f 97c0 d7ac 0c3f 44bd e7be
000000a0: e0c2 4ebd aa6d eb3e 74ce 863e ec6e 7a3e
000000b0: aa1b 0e3f cb59 8440 4c4b 353f ee06 9bbe
000000c0: f008 413d fea2 c83e ae91 893e 60ca 7bbe
000000d0: a626 933c af72 5b40 4fd1 93bd 9a34 3b3d
000000e0: 97a9 2340 2f1b f53e d5b1 233f 7116 38bf
000000f0: 36b2 753d a2f4 d83f 3bbf 05be 4033 32bf
00000100: f6b3 663d 4713 d9c0 189e ba3e 26a3 15bf
00000110: b0ff f63e e276 89be 20f9 21bd b0c0 2abd
00000120: 17f7 c23e 5d07 e43e 278c cb3d bfcc ddbe
00000130: e5be dbbe b4f3 cd3f d65b 1bbf c0e1 6fbf
00000140: e17b a0be d2a8 683e 4d34 96bc 64a4 d7be
00000150: 9847 a73e f4f7 e2be 6036 48bd 127c f63e
00000160: 5a4e 923e c330 8fc0 b895 f93e bdb6 d0bc
00000170: ae49 023f 37c1 9cc0 b711 2a3f 0a9c a33d
00000180: e76b f23e fb8a bfc0 c3b5 153f 426e 9e3e
00000190: e188 42bf af14 ac40 7bbb 92be 6bf2 963f
000001a0: 13df 953f 3412 5f3e 9f5d ad3e c28a 3ebf
000001b0: 7b0e 463f e9a9 7f3f 4c2a b2be 0ee1 7a3e
000001c0: 35e6 833c 19a4 7640 fc33 af3c 5a51 9ebe
000001d0: 9ea5 683e 0f43 8240 5c9d 00bf b686 df3e
000001e0: 704b 563d 68e2 38be 3032 06bd a033 613d
000001f0: 94ab 893f a422 36bf 7be1 d3be 20f7 67be
00000200: 512a a1be 2af8 a3c0 b524 113e 74db 533f
00000210: 20ee 583e c066 763d 0020 1cbc c8ea e7be
00000220: a443 d43e e54f e73e 3ba0 0dbd 0cc5 713d
00000230: a08f 423f b1fc 11be 43f9 9e3e 9924 76be
00000240: b399 cebe cc70 f33f 3791 d03e 0db4 99be
00000250: 3991 8a3f de26 be3f d150 7a3e b98f f7bd
00000260: 385c 073d 34dc aabf defe 3dbf ce3a d53e
00000270: 5873 8fbe 24d5 5bc0 4b93 2abf 6051 4cbf
00000280: 80ee aa3c 40ff a73e 78ea 86bd 7cd4 b73e
00000290: 599f 073e e367 84c0 2171 043f 88b7 433e
000002a0: 9270 963f e8e7 e03f aaae 5c3f e417 f0be
000002b0: a1df 55bf 975d 15c0 5047 90be dcf4 0740
000002c0: 980b d43d a452 dcbe 7a2b f73e c444 f03e
000002d0: cc81 7c3e e6c5 fabe 7c03 8f3e bc15 123e
000002e0: 4030 7dbd 8875 d6be 3ce3 d83e 880e 19be
000002f0: 7e1e 17bd 7de9 dfc0 7dd7 303e 9e23 363e
00000300: dc7f 793e 553d 9840 aafd 2dbe dcdc 6abd
00000310: 3793 9e3f ff8f 7d3f d291 f9be 69ac ffbf
00000320: 23f9 05be 6e29 ba3e 66f7 f43d 1454 403f
00000330: 3897 1d3e aa1b b540 f374 f2be b10e 11bf
00000340: c103 a03c aeb5 8c40 c7af febe 3f81 923f
00000350: 60aa 11be c23e bb3e e07a f03c 64a8 72be
00000360: 1f3c 8a3e b66e 01c0 41d4 673e da05 ae3e
00000370: 74f3 783e 34e2 1bbe 4034 2ebe 306c 553e
00000380: 908d 533e 5c33 4f40 fd2d a83d 3645 abbd
00000390: 7afd 93be 041d d8bf 2f9f 43bf 8947 603f
000003a0: 39a2 273e 55bc 84c0 c719 be3e 2087 f9be
000003b0: 41c2 65be 4f55 bcbf 5ef6 9cbe 2d1a 34bf
000003c0: dce7 1f3f cc73 613f 770d 00bf c04a 9cbe
000003d0: 3160 e13d 8516 4b40 514a 273e d709 15be
000003e0: a0f9 8f3e 80ac c63c 9ae7 873e 0096 0f3c
000003f0: 5a8f 033f 0e74 c740 509d e2be 7770 dcbe
0.18071115 0.31503904 0.49962085 0.26134104 -0.79911065 0.37368327 -0.7426711 -0.0628772
0.34178594 1.9867376 -0.303547 0.23506133 -0.5582228 -5.6383934 -0.5860603 1.9007982
-0.23042738 -4.503559 0.33272606 0.80349416 -0.036364555 0.20925784 0.45746619 -0.4063325
-0.02870032 1.7516749 -0.16391134 -2.8820577 0.37562996 -3.9187949 -0.31896555 0.18065156
0.42057377 0.19013035 -0.06856817 0.38473952 -0.22507845 -4.732357 0.5495123 -0.45261586
-0.050478816 0.45982105 0.26329386 0.24456376 0.5551096 4.135961 0.7081802 -0.30278724
0.047127664 0.39186853 0.26868957 -0.24588919 0.017962765 3.4288747 -0.07217657 0.04570446
2.557226 0.47872302 0.63943225 -0.7190924 0.05998441 1.6949656 -0.1306123 -0.6960945
0.056323968 -6.783603 0.3644874 -0.5845207 0.4824195 -0.26848513 -0.039544225 -0.041687667
0.3807914 0.44536868 0.09938841 -0.4332027 -0.42919078 1.6089997 -0.60687006 -0.9370384
-0.31344512 0.2272065 -0.018335486 -0.42117608 0.3267181 -0.44329798 -0.04887998 0.48141533
0.28575402 -4.4747024 0.4874704 -0.025477761 0.50893676 -4.898586 0.6643328 0.079887465
0.47347948 -5.9857154 0.5848047 0.30943495 -0.7599011 5.377525 -0.2865866 1.179273
1.1708702 0.21784288 0.3386049 -0.7443048 0.77365845 0.9986864 -0.34797895 0.24499914
0.016100982 3.8537657 0.021387093 -0.3092144 0.22719428 4.070686 -0.5024011 0.43657464
0.052318037 -0.18055117 -0.032762706 0.054980874 1.0755486 -0.7114661 -0.41382965 -0.22652864
-0.31477597 -5.1240435 0.14174159 0.82756734 0.21184587 0.060156584 -0.009529114 -0.4529631
0.41457856 0.45178142 -0.034576636 0.05902581 0.76000404 -0.1425655 0.31049547 -0.24037398
-0.40351638 1.9018798 0.4073579 -0.3002018 1.0825568 1.4855611 0.24444892 -0.1208796
0.03304693 -1.3348451 -0.7421702 0.41646427 -0.28017688 -3.434884 -0.66631 -0.7981167
0.020865679 0.32811928 -0.0658769 0.359043 0.1324438 -4.1376815 0.5173512 0.1911298
1.1753104 1.7570772 0.86204016 -0.46893227 -0.83544356 -2.3338373 -0.28179407 2.12432
0.10353774 -0.430318 0.48275357 0.46927464 0.24658889 -0.4897911 0.27932346 0.14266104
-0.061813593 -0.41886544 0.42360866 -0.1494695 -0.036894314 -6.997252 0.17269702 0.17787024
0.2436518 4.757487 -0.16991296 -0.057339534 1.2388676 0.99047846 -0.48744065 -1.997449
-0.1308332 0.36359733 0.1196125 0.75128293 0.15389717 5.659627 -0.4735485 -0.5666304
0.01953304 4.3971777 -0.49743482 1.1445693 -0.14225149 0.36571318 0.029355466 -0.23697048
0.26998994 -2.0223823 0.22639562 0.3398884 0.2431162 -0.15223008 -0.1701212 0.20842052
0.2065947 3.2375097 0.082118966 -0.0836281 -0.28904325 -1.6883855 -0.7641477 0.87609154
0.16370477 -4.1479897 0.37129042 -0.48735905 -0.22437383 -1.4713534 -0.30656713 -0.7035244
0.62463164 0.88067317 -0.50020546 -0.3052578 0.11004675 3.1732495 0.16336943 -0.14554535
0.28120136 0.024252176 0.26543885 0.00876379 0.5139061 6.232917 -0.44260645 -0.43054554

actor.0.bias f4 [64]
00000000: 586b d6be d3f7 c03c b977 98be 07f8 cbbe
00000010: b3a8 70be 3824 bbbe 2fb7 c1bd bae1 7f3d
00000020: 0e6b d7be 95ab c8bd 4096 79be 1ef6 18be
00000030: c08b 7abe 9ee5 d9bd 6701 4d3e 4591 213e
00000040: 2ab7 7dbe f40d 56be 574c 6cbe 5bea 80be
00000050: bdc3 d8be 46b9 dcbe 26ce 07bc d15b 503d
00000060: cae1 803d 4a64 acbe 3a79 8ebd df75 753e
00000070: a045 30be 107c c83d c4e7 33be 1a44 053c
00000080: e75b b0be b826 c5be 97aa 7bbe 69b9 72bd
00000090: c075 13bd fc18 a73d 503f efbe 6c67 663e
000000a0: f03d e2be cea7 6cbe d807 2e3d 395b 0dbf
000000b0: 8209 efbe 5642 edbe d645 f2be 57af 77be
000000c0: ab3a cf3d ec8f e53e 680e 88be e528 32be
000000d0: 7ad8 3dbc 8066 47be 93c2 06be 742d efbe
000000e0: 6965 673e 2807 f0be 22ac 70be b65d 16be
000000f0: 19aa 973e 4b2f 803d faa5 a7be 379f bf3d
-0.41878772 0.023555672 -0.2977884 -0.39837667 -0.23501854 -0.3655107 -0.094587676 0.06247113
-0.42073864 -0.09798352 -0.24373722 -0.14937636 -0.24467373 -0.10639499 0.20020066 0.15778072
-0.24776903 -0.2090376 -0.23075996 -0.251788 -0.42336836 -0.43110102 -0.008288896 0.050868813
0.06293066 -0.33670264 -0.06956716 0.23970746 -0.1721406 0.09789288 -0.1756888 0.008133912
-0.34445116 -0.38506103 -0.24576794 -0.059258852 -0.036000967 0.08159062 -0.4672799 0.2250039
-0.4418788 -0.23110887 0.04248795 -0.5521732 -0.4668694 -0.46339673 -0.47318906 -0.2418798
0.10118612 0.44836366 -0.2657349 -0.17398413 -0.011587257 -0.19472694 -0.13160162 -0.46714365
0.22597279 -0.4688046 -0.23503163 -0.14684185 0.29621962 0.062590204 -0.32743818 0.0935654

actor.2.weight f4 [64, 64]
00000000: bcce 4bbd 748e 153f a276 193c 2130 333f
00000010: 9ea3 f2bd c0ae f7bd 7b3d e03d 2793 91be
00000020: 60ee 3dbd 6016 2bbf 3a1e c7bd a08e 833e
00000030: 50e4 463c 768d d2bf 51dc 3bbf b32f 84bf
00000040: 923e 2cc0 1ed1 ddbd 25ec 913d 4688 bf3f
00000050: 1b0a ad3d e0f4 d33d 6dca 863f 75df 9bc0
00000060: 7287 a1c0 c21a 3a3f 3731 5e3e 3355 8dbf
00000070: 188e 433e 6241 f13e 4c82 e63d c996 0ebe
00000080: 1db6 f63c 40cf 023d c089 f63b 2fa3 70bc
00000090: df66 15be 44e6 253c 55fe 383d db7e 8bbe
000000a0: 0eea a3bd 5c8c 4cc0 34f8 a43e f931 283f
000000b0: 7cb1 b6bd 8c10 bb3d dc63 543d d12b b43e
000000c0: 5858 193f d39c fdbe 6e47 9a3e 9787 32c0
000000d0: 1f43 14bf 1c48 38bd 8081 a83d 86a8 e33d
000000e0: 06e2 cfbe bdc7 c63b 7454 68bf 0415 e63d
000000f0: 4925 0c3f 6cf7 b4be 2897 a93d e4aa 023f
00000100: 308b 01bc db67 be3e 8435 07bd f790 403f
00000110: c18b bdbe aec5 87bd 7c0d 243f a138 5ebf
00000120: c8aa 053d 5075 d43e 04ce 12bd 9644 26bf
00000130: ae2f b13d d7ab 4bc0 7657 793e d0bc 3d3e
00000140: b161 203e 50eb 6b3c e9c5 3d3d c5b5 9c3e
00000150: 2e24 963d f82b f93c 26d7 2f3f 5749 763e
00000160: 80a7 023f e71f 0dbf cc64 bbbe c93a 993e
00000170: 5a98 58bb 90f9 823e c4c4 b43d f76a 4cbf
00000180: 6f29 85be 9030 53bd 93c3 b4bd e18f 38bf
00000190: 11b5 123e e5e5 35bf ac14 1a3d aa26 5f3e
000001a0: 0035 a33b e00f 693e a6a1 7d3e d2ec 463e
000001b0: c493 dbbd 3ab9 bb3d 88bc a7bc 7c19 12bf
000001c0: 2f14 02c0 a6aa 183e 4fa0 aabe 089c ebbd
000001d0: 6a08 31bf 609d 463c 0901 21be 64f6 b5bd
000001e0: be0b 6abe 8c85 033f c1c4 28c0 872b 203e
000001f0: 9a18 513c 9ae8 a0be 487e 513d 3fa7 9bbe
00000200: aac0 e2bd cce1 0cbf 3495 283e a34a a43d
00000210: 9bd0 54bd 00f7 e13d 3d0a dabd bd97 fe3d
00000220: 2091 98bc 3d0b 2f3e 48cf dc3d e894 f4be
00000230: 9005 c23c f795 283e a1e3 853d 2bb7 c4bd
00000240: ca38 d5bc 7830 ad3c 85e7 d1bd 884e 9b3d
00000250: ae76 533d a821 e13c 9a64 c13d 30bd bc3c
00000260: fd3b 95bd c31f ed39 9a7a 95be 76a9 18bf
00000270: b5b3 4c3d 90b0 e13b 54f1 823d 572e ae3e
00000280: 72a5 013e d075 813c 50ef fbbc 8d5a 003e
00000290: 2178 34bf cc13 b2bd bc92 773e e9cd 793c
000002a0: 9cae f33d b31d 1c3e f88f babe d670 9e3d
000002b0: 0ca7 423d 6656 adbd 982d c0bc c337 48bd
000002c0: 7885 113e 4e82 e5bc 0775 d93d b220 65ba
000002d0: 5654 683f c4a6 6f3d 40f8 79bc 0076 87bb
000002e0: 1854 1cbd 5033 213d a031 613e b0c0 9ebd
000002f0: 5816 2cbf c1c6 24be b40a 79bd 3291 633d
00000300: 6a83 c13d b92c e43e 5d9f 06be 4182 5dbf
00000310: 3ec4 43be 5c0e ebbd 0983 19be 6d88 d4bf
00000320: 5870 b83d 220d 6abe d4d5 9dbd f4f2 02bd
00000330: ced4 b7bd 9bd7 3840 5ff3 0a3d c23a 46be
00000340: 222d 04bf cc7f 8ebd 0491 6dbd 7197 4d3f
00000350: 64c8 eebd ba7b cebd f56a 35bf cce3 18bf
00000360: 1de6 2ebf ee6a d23e 82d3 1b3f 4f75 9a3d
00000370: 3487 203f 5ed5 8c3f a09c 23bc 3014 01bf
00000380: 5e88 d7bd 62d9 d4bd 484b 49bd 80db 63be
00000390: bc68 7a3e b3da 0b3e 7060 92be c62c 93be
000003a0: 6432 503d 20f3 f6be 551c cdbd b1d9 e33e
000003b0: 5411 b0bd c8ec c4bd f8ee f2bc 95cd 4ebe
000003c0: a446 1d3f ebe7 713b e536 1d3e ee1a 22bf
000003d0: 0a54 9e3e 702c 72bc c1c1 9cbf 889b 38bd
000003e0: 82be 50be e232 5d3f a8f5 92be e835 e3bc
000003f0: 2ca3 ac3e f2bc cbbd cc9b 44bd 0d74 793e
-0.049757704 0.5842049 0.009366663 0.69995314 -0.11847614 -0.12093878 0.109492265 -0.2843258
-0.04636991 -0.66831017 -0.09722562 0.25694752 0.012139395 -1.644942 -0.7338305 -1.0327057
-2.691319 -0.108309016 0.07125119 1.4963462 0.08449193 0.103494406 1.0530525 -4.8710275
-5.047784 0.7269708 0.21698461 -1.1041626 0.19097173 0.47120196 0.11255321 -0.13924707
0.030116135 0.03193593 0.0075237453 -0.0146873435 -0.14590023 0.0101257 0.045164425 -0.2724522
-0.08003627 -3.1960669 0.32220614 0.6570125 -0.08920571 0.091340154 0.051853046 0.3518968
0.59900427 -0.4953371 0.30132622 -2.7895257 -0.5791492 -0.044990644 0.08227825 0.11116128
-0.4060213 0.006066291 -0.90753865 0.11234477 0.5474439 -0.35345018 0.08280784 0.5104201
-0.00790672 0.3718861 -0.03301002 0.752212 -0.37020686 -0.06629501 0.64083076 -0.8680516
0.032633573 0.41495752 -0.035841003 -0.64948404 0.08651672 -3.1823633 0.2434977 0.18529058
0.15662266 0.014399365 0.04633132 0.3060743 0.073311195 0.030416474 0.68687665 0.24051414
0.51036835 -0.55126804 -0.3660034 0.29927662 -0.0033049793 0.25581026 0.088265926 -0.79850715
-0.26008174 -0.051559985 -0.08826365 -0.7209454 0.14326884 -0.71053916 0.03761737 0.21792093
0.0049806833 0.22759962 0.24768695 0.19426277 -0.107215434 0.091661885 -0.02047564 -0.57070136
-2.032482 0.14908847 -0.3332543 -0.1150437 -0.69153464 0.012122482 -0.15723051 -0.08884886
-0.22856042 0.5137565 -2.637009 0.15641604 0.012762213 -0.3142746 0.05114582 -0.30401036
-0.11071904 -0.5503204 0.16463166 0.08022048 -0.051956754 0.1103344 -0.10646484 0.124312855
-0.018623888 0.17094131 0.10781723 -0.47769856 0.023684293 0.16463457 0.065375574 -0.09605249
-0.026028056 0.021141276 -0.10249237 0.07583338 0.051626854 0.027481869 0.09443016 0.02303943
-0.072868325 0.00045227827 -0.291951 -0.59633577 0.04997607 0.006887503 0.06393686 0.3401973
0.12660769 0.015803248 -0.030753762 0.12534542 -0.704958 -0.08695182 0.24177068 0.015246847
0.118985385 0.15245704 -0.36437964 0.077363655 0.04752259 -0.08463745 -0.02345924 -0.048881304
0.1421107 -0.028016236 0.10618024 -0.0008740529 0.90753686 0.05850865 -0.015256941 -0.0041339397
-0.038166136 0.039355576 0.21991587 -0.07751596 -0.67221594 -0.16091444 -0.060801223 0.05555839
0.09448893 0.4456537 -0.1314673 -0.86526877 -0.19117829 -0.11477348 -0.14991392 -1.6604134
0.09005803 -0.22856572 -0.077068 -0.03196998 -0.08976136 2.8881595 0.033923503 -0.19358352
-0.5163137 -0.06957969 -0.057999626 0.80309206 -0.11659315 -0.10082193 -0.7086633 -0.5972259
-0.68319875 0.41097206 0.6086961 0.07541906 0.62706304 1.1002614 -0.009986073 -0.5042143
-0.10524057 -0.10393025 -0.04914406 -0.22251701 0.24454015 0.13657646 -0.285892 -0.28745097
0.050829306 -0.48232365 -0.100151695 0.44502023 -0.08597055 -0.09615475 -0.029654965 -0.20195611
0.61435914 0.0036911916 0.15352972 -0.6332234 0.30923492 -0.014781103 -1.2246629 -0.0450702
-0.20385173 0.86405766 -0.28703046 -0.027735665 0.3371824 -0.09948148 -0.048000142 0.24360676

actor.2.bias f4 [64]
00000000: 7b00 c4be 2f27 8cbe 22b8 2bbe a8ca e4be
00000010: 5e1a 6cbe 1e21 04be bf5d b33d 9b22 29bd
00000020: a6c4 dcbc 4ce5 b4bd 8c60 603d 0a0e c5bd
00000030: b5a8 1abd 4955 393e d8f5 1cbe 997b 633e
00000040: f1c6 dfbd 5f0b 66bd 29d3 883e 76ce 7d3d
00000050: f7ac 04be 0c75 e2bd c30d 24be e3ee 8fbe
00000060: f125 71be ed97 04be be88 103e 50ce 2fbe
00000070: 2f2d 7dbd a792 fdbd 92b8 d33d 7425 d2bd
00000080: 79f5 4ebe 176a c8be 154e 20be 794d d5bd
00000090: cec1 803c e59b 6fbe a07e debd f648 ef3c
000000a0: 1300 fc3d 77c9 65bd 5531 123e f8a4 47be
000000b0: e59e 0ebe 10f2 44be 1e37 69be dcde cebe
000000c0: b2da 6e3a 6258 0a3d 4c58 72be 908e fcbd
000000d0: 9bce 96bd 0f6d e93d 5eb6 3cbe 611a e6bd
000000e0: d277 c9bd 1e4e e23c 1ab8 943c fec6 8dbd
000000f0: 40ac 6bbe 0081 fcbd b8f2 68bc e0c2 0bbe
-0.38281617 -0.27373645 -0.1676946 -0.44685864 -0.23056933 -0.12903258 0.08758115 -0.041292768
-0.026949238 -0.088327974 0.054779574 -0.09621818 -0.037758548 0.1809894 -0.15328157 0.22215118
-0.10926617 -0.056163188 0.26723602 0.061964475 -0.12956606 -0.11057481 -0.16020875 -0.28111944
-0.2354963 -0.1294858 0.14114663 -0.17168546 -0.06181067 -0.12381487 0.10337938 -0.1026105
-0.20210828 -0.3914344 -0.15654786 -0.10415167 0.015717413 -0.23399313 -0.108639956 0.029209595
0.12304702 -0.056100335 0.14276631 -0.19496524 -0.13927801 -0.19232965 -0.22774932 -0.40404403
0.00091115676 0.033775695 -0.23666495 -0.12331879 -0.073636256 0.113977544 -0.18428943 -0.112355
-0.09837307 0.02762514 0.018154193 -0.069227204 -0.23014927 -0.12329292 -0.014218025 -0.13648558

actor.4.weight f4 [2, 64]
00000000: 77c2 06be 435f af3d 8249 38be cac3 03bd
00000010: f9e3 153f 2721 1abf 6ecb 27be b062 5f3d
00000020: 2fef 1cbe 7398 1dbf 1ca7 683d 4c9f 4cbd
00000030: 83f4 a83c 972d 8abf 966f 89bd 7167 913f
00000040: 6517 b13c 85c2 533e 2c68 8dbd 8be7 26ba
00000050: 99be 8a3d 471c 633d 40af a7be a940 60bf
00000060: fda0 133e f36b cfbd 04b7 3dbe 2217 553a
00000070: 0e24 673f e6e6 adbb 93e2 893d 6c03 c63c
00000080: 236b 9dbe 9527 14bd c935 b8bb 46d2 b4be
00000090: e4d7 78bd 343e a43d e003 59bd 5a6e 93be
000000a0: d236 9bbe f3cc 083d 5456 793e c0c8 473e
000000b0: 0c84 093d 4ed5 adbd e9ad 0dc0 9cc2 6cc0
000000c0: 65c0 3a3e cc94 aabe 9185 0640 a5e5 3b3d
000000d0: 78ea 763d d5b4 1a3f cd8f c93c 1354 91be
000000e0: 1c16 16bd 2ff2 23bf 2efa bdbe 2894 32bd
000000f0: 7c1b 433e 783b d83d 3762 63bf 30e1 fe3c
00000100: 0243 2f3f 6f3b 943e 85bb 03be e679 5a3f
00000110: b886 debd 9c38 283e 4364 de3c 28a4 c13c
00000120: dc0c 9ebe 3e82 03bf 2e96 fd3d 2edc 0b3c
00000130: eeff 673d cab5 8fbf 2f66 793d 6ce5 8e3f
00000140: 1ae0 b7ba 20ae 953e 24e1 c1bd 5d82 0a3e
00000150: bd54 d0bc ccbf 7f3d 9afa 72be 0b78 253f
00000160: aec7 2bbc 0177 923c 1b1b 3c3d 8439 7f3e
00000170: 940e 453e 1424 063e ea53 b2bd 7c2d 083f
00000180: 5ce8 25be dbe2 02c0 78bd 513c 388e 3fbe
00000190: 3fc7 a53d 98d3 aabc 27a5 763e d172 b73b
000001a0: bc44 2cbf b159 11bb e9d4 49bf 61a1 0f3f
000001b0: 43a3 aebd 16cd 3f3d 5cb2 8b3f a6d3 91bf
000001c0: 8a2e eb3e f8c2 05bd b4e4 f73e 8394 303c
000001d0: 7a3b e7bc f051 de3e 2448 4a3d 8ab5 763d
000001e0: 257c 323e 04f7 babe 1356 273e 1c9a 6cbd
000001f0: 84f7 03c0 9066 013d 173f f5bd 6143 023d
-0.1316012 0.085630916 -0.17996791 -0.03216914 0.58550984 -0.60206836 -0.16386196 0.054537475
-0.15325616 -0.61560744 0.056799993 -0.049956605 0.020624405 -1.0795163 -0.067107365 1.1359693
0.0216176 0.20679672 -0.06904635 -0.00063669 0.06774635 0.05544689 -0.32750893 -0.87598664
0.14416881 -0.101280116 -0.18526846 0.0008128752 0.9028939 -0.0053070663 0.06732669 0.024171554
-0.307458 -0.03617056 -0.005621646 -0.35316676 -0.060752764 0.08019677 -0.05298221 -0.2879513
-0.30315262 0.03339858 0.24349338 0.19510174 0.033573195 -0.0848795 -2.2137396 -3.699378
0.18237455 -0.33316648 2.1019022 0.045873303 0.0602822 0.6043218 0.024604702 -0.28384456
-0.03664218 -0.6404142 -0.37104934 -0.043598324 0.19053453 0.10558218 -0.8882174 0.031113237
0.6846162 0.28951594 -0.12864502 0.8534225 -0.10865539 0.16427845 0.027147418 0.023637846
-0.30869186 -0.5137061 0.1238216 0.008536382 0.056640558 -1.1227353 0.060888465 1.1163764
-0.001402858 0.2923441 -0.0946677 0.13526292 -0.025431031 0.06243877 -0.2372841 0.64636296
-0.010484619 0.017879011 0.045924287 0.24924284 0.19243842 0.130997 -0.087074116 0.53194404
-0.1620192 -2.0450962 0.0128015205 -0.18706596 0.08094644 -0.020852849 0.24086438 0.005598404
-0.6729238 -0.0022178704 -0.788405 0.5610562 -0.085272335 0.046826445 1.0913806 -1.1392715
0.45933944 -0.03265664 0.48416674 0.010777595 -0.028226603 0.43421888 0.049385205 0.060231723
0.1743017 -0.36516583 0.16341428 -0.057764158 -2.0619822 0.03159195 -0.11974924 0.03180254

actor.4.bias f4 [2]
00000000: 71d2 b6bd 68fe 66bd
-0.08926857 -0.056394964
