Pre-trained/HAC_Pendulum-h-v1_solved_level_0_crtic.pth (torch, 21566 bytes, 5 tensors)

critic.0.weight f4 [64, 5]
0	0x3f10504b	0.5637252
1	0x3dbd87c9	0.092544146
2	0x3d86e7c2	0.06587173
3	0x3eb52ccd	0.35385743
4	0x3cb0afe8	0.021568254
5	0x3e0b687b	0.13614075
6	0xbea5748d	-0.32315484
7	0xbd783ab5	-0.060602862
8	0xbead1f7b	-0.3381308
9	0xbcdac5c0	-0.026705623
10	0x3fa30c37	1.2738103
11	0xbdb1ba08	-0.08678061
12	0xbb9353bc	-0.004496066
13	0xbfa56ba9	-1.292348
14	0xbdf30fb6	-0.11868231
15	0xbe9ca854	-0.30597174
16	0xbe104daa	-0.14092126
17	0xbb7b71bb	-0.003836735
18	0xbf754e21	-0.9582234
19	0x3e7357bc	0.23763937
20	0x3ef4ac37	0.4778764
21	0x3e3c2b33	0.18375854
22	0x3d580917	0.052743044
23	0x3ec08b70	0.37606382
24	0x3da34627	0.07972365
25	0x3fa97c37	1.3241032
26	0x3cddf15e	0.027092632
27	0x3ba50c53	0.0050368696
28	0xbfa88ad3	-1.3167366
29	0x3d1bb055	0.03800996
30	0xbe61fe89	-0.22069754
31	0xbdf07d21	-0.117426164
32	0xbc82e866	-0.015979957
33	0xbf65072c	-0.8946407
34	0xbc8eede8	-0.017447427
35	0x3e264757	0.16238151
36	0x3d029902	0.0318842
37	0x3c500496	0.012696406
38	0xbe3b1151	-0.18268324
39	0x3e7ce587	0.24696933
40	0xbf99e48b	-1.2022871
41	0xbe8c1543	-0.2735997
42	0xbd1ebd11	-0.038754527
43	0x3eaee2ef	0.34157512
44	0xbd70bcc9	-0.05877379
45	0x3ef7edbd	0.48423567
46	0x3e02f9e7	0.12790643
47	0x3d0575fa	0.032583214
48	0xbf07b459	-0.53009564
49	0x3e4f31f3	0.20233898
50	0xbf4970af	-0.78687567
51	0xbe830bfe	-0.25595087
52	0xbd8e53c1	-0.069495685
53	0x3f0d1767	0.55113834
54	0xbe723093	-0.23651342
55	0xbe3260fa	-0.17419806
56	0xbc4661cf	-0.01210828
57	0xbd7edf26	-0.06222453
58	0x3f190d40	0.5978584
59	0xbec3f705	-0.38274398
60	0x3ede7d6b	0.4345506
61	0x3ea29bdc	0.31759536
62	0x3da5e3b0	0.081000686
63	0x3c68fc1a	0.014220262
64	0xbea69310	-0.32534075
65	0xbe3e5e30	-0.18590617
66	0xbf188076	-0.59571016
67	0xbdafe1d1	-0.08587993
68	0x3edf1daf	0.43577334
69	0x3f0f3c98	0.55951834
70	0xbb8d6130	-0.004314564
71	0xbcffe838	-0.03123866
72	0x3cf55de3	0.029951995
73	0xbeddf654	-0.43351996
74	0xbe6cfb89	-0.23142828
75	0x3e19b5aa	0.15010706
76	0x3d4b9ded	0.049711157
77	0xbcf20a7a	-0.029546011
78	0xbda0a1ec	-0.07843384
79	0xbe251a47	-0.16123305
80	0x3f824d41	1.0179826
81	0x3eb888c0	0.36041832
82	0x3d8d51e1	0.06900383
83	0xbf2ac71b	-0.6671006
84	0x3e88a0c3	0.2668515
85	0x3ef6ed17	0.4822776
86	0x3f531fb9	0.8247028
87	0x3df6eaec	0.120565265
88	0x3d485fa1	0.048919324
89	0xbf53d7b5	-0.8275102
90	0x3f89b376	1.0757892
91	0x3e97b363	0.2962905
92	0x3d8e14bd	0.06937549
93	0xbf00033b	-0.5000493
94	0x3e0daf80	0.13836479
95	0x3dcf958b	0.10135945
96	0x3d160752	0.036628075
97	0x3cdb5db0	0.026778072
98	0xbf9a1c58	-1.20399
99	0x3f188770	0.5958166
100	0xbc64bb53	-0.013960677
101	0xbea2e729	-0.31816986
102	0xbd9675ee	-0.07346712
103	0x3f3a719c	0.72829604
104	0xbd7c11b4	-0.06154032
105	0xbdf4eca0	-0.11959195
106	0xbd1776ca	-0.03697852
107	0xbb8050cb	-0.0039158813
108	0x3f9e629e	1.2373846
109	0xbeba026e	-0.3632998
110	0x3de18ba1	0.1101296
111	0x3e8cd360	0.27505016
112	0x3d12a9d8	0.035806507
113	0x3f15a4b6	0.58454454
114	0xbd18da2d	-0.037317444
115	0x3e1c5ed7	0.15270554
116	0xbf00ef4d	-0.50365144
117	0xbdc96ed9	-0.09835596
118	0xbea68411	-0.32522634
119	0x3f0fdd49	0.5619703
120	0x3e604783	0.2190228
121	0x3f49c45a	0.78815234
122	0x3e067948	0.13132203
123	0xbf0c1bdd	-0.54730016
124	0xbf44b1c6	-0.7683376
125	0xbf4c4ffa	-0.79809535
126	0x3d856ff0	0.06515491
127	0x3cad6d3b	0.02117025
128	0xbe2f88c7	-0.1714202
129	0x3d373faf	0.044738468
130	0x3f77c4e0	0.9678478
131	0x3ec2b343	0.3802739
132	0x3d915666	0.07096557
133	0xbe21f4d7	-0.15816055
134	0x3e0dd99b	0.13852541
135	0x3ea0d69a	0.31413728
136	0x3ee04927	0.4380581
137	0x3d9a6131	0.07538069
138	0xbef2c3c4	-0.47414982
139	0xbe4c756c	-0.19966668
140	0x3e0b3638	0.13594902
141	0x3e63a696	0.22231516
142	0x3d6f883c	0.058479533
143	0xbf77ba22	-0.9676839
144	0x3da5c0b4	0.08093396
145	0xbf176e87	-0.59153026
146	0xbe4e79c7	-0.20163642
147	0xbd049dc3	-0.032377016
148	0xbeddd5c8	-0.43327165
149	0x3e1cf9e5	0.15329702
150	0xbeaa2ffb	-0.3323973
151	0xbe2c91c7	-0.16852485
152	0xbd991845	-0.07475332
153	0x3f070248	0.52737856
154	0x3ef24c45	0.47323814
155	0x3e3341b7	0.17505537
156	0xbd766e60	-0.060163856
157	0xbce34630	-0.027743429
158	0x3f261974	0.6488259
159	0xbe3e9920	-0.186131
160	0x3d54ce2b	0.05195443
161	0x3e7ea07a	0.24865904
162	0x3cfe2612	0.031024013
163	0x3e46f4b7	0.19429289
164	0xbd78a055	-0.06069978
165	0x3d19cd2f	0.037549194
166	0x3e2910a0	0.16510248
167	0x3d1ebf6f	0.038756784
168	0x3f0d586a	0.55213034
169	0x3e48f014	0.19622833
170	0xbf6016ad	-0.875346
171	0xbea64f11	-0.32482198
172	0xbd986a58	-0.074421585
173	0x3f2386b5	0.6387742
174	0x3e9e02ad	0.30861416
175	0x3f91a00f	1.1376971
176	0x3e650044	0.22363383
177	0x3dad1ebd	0.084531285
178	0xbd84aabc	-0.064778775
179	0xbdb635a1	-0.08896948
180	0x3f3b135f	0.7307643
181	0x3e1d3cff	0.153553
182	0xbc868a60	-0.016423404
183	0x3db7dd72	0.08977784
184	0x3cabfc77	0.020994408
185	0xbfb54e58	-1.4164534
186	0xbe17137b	-0.14753525
187	0xbc95d0b1	-0.018287988
188	0x3fab8a55	1.340159
189	0x3dbcd434	0.09220162
190	0x3ddc92da	0.10770197
191	0x3f4eb517	0.8074507
192	0x3dcd00a2	0.10009886
193	0x3c7d1782	0.015447499
194	0xbf4e75b8	-0.80648375
195	0x3f131d3d	0.5746649
196	0x3eabd9af	0.33564517
197	0x3cbc05cc	0.022951983
198	0xbf18ba77	-0.5965952
199	0xbf077d4f	-0.5292558
200	0xbf444be1	-0.7667828
201	0xbde73d82	-0.112910286
202	0xbc5ef5b4	-0.013608385
203	0x3c15881f	0.009126692
204	0xbd6dce1b	-0.058057886
205	0xbd5bf093	-0.053696226
206	0xbcaa4922	-0.020786826
207	0x3a6d9da8	0.0009064325
208	0x3d874caf	0.06606423
209	0x3ed8aa53	0.42317447
210	0xbe4a3630	-0.19747233
211	0x3d97c896	0.074113056
212	0x3c95b04f	0.018272547
213	0x3e925383	0.2857934
214	0xbf063009	-0.52417046
215	0x3d4eafac	0.050460503
216	0xbd89b9d0	-0.06724894
217	0xbdbee8f0	-0.09321773
218	0xbdfb52bd	-0.122716404
219	0xbd821cb7	-0.06353133
220	0xbf21cc9b	-0.6320283
221	0xbe961d03	-0.2931901
222	0xbd5aff01	-0.053465847
223	0x3ede898b	0.43464312
224	0xbd1cec2a	-0.03831116
225	0xbf07adc9	-0.5299955
226	0xbef34486	-0.47513217
227	0xbd9a808b	-0.07544049
228	0x3f3fc834	0.7491486
229	0x3edfb5a3	0.43693265
230	0xbf561f47	-0.83641475
231	0xbe429d46	-0.19005308
232	0xbd0f105e	-0.03492772
233	0xbf0990e2	-0.537367
234	0xbc99e12e	-0.018784132
235	0x3f05f19c	0.5232179
236	0x3ee0cdd2	0.43907028
237	0x3d85ca71	0.06532753
238	0xbe436846	-0.19082746
239	0xbe807d3f	-0.25095555
240	0x3d92a3ea	0.071601704
241	0x3d43a7c7	0.047767427
242	0x3be34679	0.006935891
243	0x3f9ba9d2	1.21612
244	0xbe9a7f8d	-0.3017544
245	0xbf40109e	-0.75025356
246	0xbe15e088	-0.14636433
247	0xbc13bc95	-0.009017129
248	0x3f568c2d	0.8380764
249	0xbec7ccdb	-0.3902348
250	0xbbd4796d	-0.0064842016
251	0xbcd0ead3	-0.025502598
252	0xbc6ac77b	-0.014329786
253	0xbf94503f	-1.1586989
254	0xbe2ff723	-0.17184119
255	0xbf884c72	-1.0648329

critic.0.bias f4 [64]
0	0xbf9c8af2	-1.2229903
1	0xbfbf5f69	-1.4950992
2	0x3d5c78e4	0.053826228
3	0xbee07d68	-0.43845677
4	0xbdc99a1c	-0.09843847
5	0xbc2cb8fc	-0.010542151
6	0x3eabc053	0.3354517
7	0x3e9057df	0.2819204
8	0xbe8c7e1d	-0.27439967
9	0xbe1e11ed	-0.15436526
10	0xbe7d5122	-0.24737981
11	0xbf980d9d	-1.1879154
12	0xbf1c12a3	-0.6096594
13	0xbf6728e7	-0.9029679
14	0xbfa2fe4b	-1.2733854
15	0x3edda16c	0.43287218
16	0xbdf0992b	-0.117479645
17	0xbcdddd67	-0.027083112
18	0xbecd0a05	-0.40046707
19	0xbf86e47b	-1.0538477
20	0xc008051e	-2.1253123
21	0xbf9e71db	-1.2378496
22	0xbf270b28	-0.652514
23	0xbe3ef025	-0.18646295
24	0xbec1e6d2	-0.37871414
25	0xc024d1f3	-2.5753143
26	0xbe891c1f	-0.26779267
27	0xc03afe19	-2.921759
28	0xbfebaa17	-1.8411282
29	0xbe365e42	-0.17809394
30	0xbeac6af8	-0.3367536
31	0x3ec27345	0.3797857
32	0xbe46c382	-0.19410518
33	0xbfa5eda5	-1.2963148
34	0xbf6191d5	-0.8811315
35	0xbfc45951	-1.5339757
36	0xbfa8ac34	-1.3177552
37	0xbd6f11f4	-0.05836673
38	0xbecc52d5	-0.39906946
39	0x3d33b133	0.043870162
40	0xbdf4d182	-0.11954023
41	0x3e86daca	0.26338798
42	0xbff28bf7	-1.8948964
43	0xbe2c5dad	-0.1683261
44	0x3e34a56f	0.17641233
45	0x3f32ecda	0.69892657
46	0x3f0ed295	0.5579007
47	0x3d9b2b89	0.07576663
48	0xbedcb8ea	-0.43109828
49	0xbdc9bcfd	-0.098505
50	0xbf78f0c9	-0.9724241
51	0xbfc65c3e	-1.54969
52	0xbfd7007f	-1.6797026
53	0xbd5f1dc8	-0.05447176
54	0xbf96d90c	-1.1784987
55	0xbfa1cb0f	-1.2640094
56	0xbfe7caa1	-1.8108712
57	0xbf91c609	-1.138856
58	0x3e30aa49	0.17252459
59	0xbda84993	-0.08217158
60	0xbc89baf6	-0.016812783
61	0x3d92bc21	0.07164789
62	0xbca8227a	-0.020524252
63	0xbdafe68d	-0.08588896

critic.2.weight f4 [64, 64]
0	0x3f136117	0.5757002
1	0x3ef7ab61	0.4837294
2	0xbf3dfcf0	-0.74214077
3	0xbfd08dbd	-1.6293255
4	0xbf1be1df	-0.60891527
5	0xbe400f8f	-0.18755935
6	0xbcc6307d	-0.024193043
7	0x3ed3b380	0.41347885
8	0xc0f6ca0a	-7.712163
9	0xbeeb46a5	-0.45952335
10	0xbf54fe5d	-0.8320063
11	0xbe4f11f1	-0.20221688
12	0xbd4e7b8a	-0.050410785
13	0x3ea660f9	0.3249586
14	0x3f1ad432	0.60480034
15	0x3e3c81ba	0.18408862
16	0xbf3cc11d	-0.7373217
17	0x3f27db33	0.65568846
18	0x3eb03238	0.34413314
19	0xbf192db5	-0.5983537
20	0xbe02e370	-0.12782073
21	0xbf2b4fbe	-0.6691855
22	0xbe9ab2fb	-0.30214676
23	0x3e9f22fa	0.31081372
24	0x3e05d73f	0.13070391
25	0xbe38ba23	-0.18039756
26	0xbf10fb48	-0.56633425
27	0x3e9cf7b5	0.30657735
28	0x3e26b46d	0.16279764
29	0xbeeb00ad	-0.45898953
30	0xbf0d8be5	-0.5529159
31	0x3e614d9c	0.22002262
32	0xbe1867e0	-0.14883375
33	0x3eb3f596	0.35148305
34	0xbf942f4d	-1.1576935
35	0x3f8ad8db	1.0847429
36	0x3fbb190d	1.461702
37	0x3e6ca170	0.23108459
38	0xbd441855	-0.047874767
39	0x3f1fb5bb	0.62386674
40	0xc00449f8	-2.0670147
41	0x3c89c603	0.016818052
42	0x3d52c0e7	0.051453497
43	0xbc019080	-0.007907987
44	0xbe5bd8ca	-0.21469417
45	0x3dc0d924	0.09416416
46	0x3f1e5340	0.6184578
47	0xbd928c9d	-0.07155726
48	0xbf4bb9fb	-0.7958066
49	0xbf9b48c5	-1.2131582
50	0xbf7976cb	-0.9744689
51	0xbe3e6fd7	-0.18597351
52	0xbe9dbbf1	-0.3080745
53	0xbd0c9927	-0.034325745
54	0x3f0e342a	0.55548346
55	0xbefab50f	-0.48966262
56	0xbf9d60eb	-1.2295202
57	0xbd2bb8cb	-0.04192428
58	0xbef42e6e	-0.47691673
59	0xbf689deb	-0.90865964
60	0xbee02544	-0.4377843
61	0xbd900456	-0.07032077
62	0x3dd94828	0.10609466
63	0x3e277918	0.16354787
64	0x3ea0a1fe	0.3137359
65	0xbde91515	-0.11380974
66	0x3e889cca	0.2668212
67	0xbf0bd0b2	-0.5461532
68	0x3c799b2b	0.015234749
69	0x3e677311	0.22602488
70	0xbf9f6ba7	-1.2454728
71	0xbec1e0a0	-0.37866688
72	0x3e2f2773	0.17104892
73	0x3e736d14	0.23772079
74	0xc010751d	-2.257148
75	0xbfa21545	-1.2662741
76	0x3f0ad098	0.5422454
77	0xbf2c072d	-0.6719845
78	0x3f3c11dc	0.7346475
79	0xbef73201	-0.48280337
80	0x3d2bbd38	0.0419285
81	0xbdbd860d	-0.09254084
82	0x3e51b684	0.2047978
83	0xbf0b69ee	-0.5445851
84	0xbfc9fc39	-1.5780097
85	0xbffba681	-1.9660188
86	0xbd0c1130	-0.03419608
87	0x3f7cf46a	0.98810446
88	0xbf2335ef	-0.6375417
89	0x3fafbc61	1.3729364
90	0x3c4ef9ef	0.012632831
91	0xc0232e61	-2.5497057
92	0xbf9f2bde	-1.2435262
93	0xbe78f7e5	-0.24313314
94	0x3e5a0f98	0.21295011
95	0xbee82a3d	-0.45344725
96	0xbe968745	-0.29400077
97	0x3d551413	0.052021097
98	0x3d9fb5ae	0.077983245
99	0x3f8f8d9d	1.1215092
100	0x3f572cd6	0.8405279
101	0x3dbae360	0.091253996
102	0xbeb2b81f	-0.34906098
103	0xbd82c55c	-0.063852996
104	0xbf140661	-0.57822233
105	0x3dec0514	0.11524406
106	0xbf53939e	-0.8264712
107	0xbfcf3237	-1.6187199
108	0xbefc491c	-0.49274528
109	0xbed22e6b	-0.4105104
110	0xbfe2d0cb	-1.7719969
111	0xbf0cef15	-0.5505231
112	0xbedad279	-0.42738703
113	0xbf777a22	-0.96670735
114	0x3eb0dd95	0.34544054
115	0x3f0c9780	0.5491867
116	0x3f095c80	0.5365677
117	0xbe1bf098	-0.15228498
118	0x3c826dfd	0.015921587
119	0x3ec13e8c	0.37743032
120	0x3fe3eb38	1.7806158
121	0x3ee9ca20	0.45662022
122	0x3d2a170a	0.041525878
123	0x3e30613e	0.17224595
124	0x3d288f2c	0.041152164
125	0x3e4d19a3	0.20029311
126	0x3ea645db	0.3247517
127	0x3e9afca2	0.3027087
128	0x3ca5691e	0.020191725
129	0xbd80ab17	-0.06282633
130	0x3f050c2b	0.5197169
131	0x3db05499	0.08609886
132	0xbe330bc3	-0.17484955
133	0xc046d2f8	-3.1066265
134	0xbd3ed89f	-0.046593305
135	0x3dccba4c	0.09996471
136	0xbfd0333a	-1.6265633
137	0x3dc18f17	0.0945112
138	0x3d1c9fd3	0.038238358
139	0x3ebfee23	0.3748637
140	0x3e19b8ca	0.15011898
141	0x3ec6e5c6	0.38847178
142	0xbf7e1485	-0.9925006
143	0x3ca27543	0.019831305
144	0xbe92c4eb	-0.2866586
145	0xbfdc1222	-1.7193034
146	0xbecf6166	-0.40503997
147	0x3de59061	0.11209179
148	0xbe34d984	-0.176611
149	0x3f4a132a	0.7893549
150	0xbee62046	-0.44946498
151	0x3e8008c9	0.25006703
152	0xbf93caa5	-1.1546217
153	0xbf792f43	-0.9733774
154	0xbed6e35a	-0.4197033
155	0xbed98b09	-0.42488888
156	0xbebcce1b	-0.36875996
157	0xbe89eabd	-0.26936904
158	0x3ed8c36b	0.42336592
159	0xbe1dbcad	-0.15404005
160	0xbe888c2d	-0.26669446
161	0x3e33b36b	0.17548911
162	0x3eafb3e2	0.34316927
163	0x3fa41159	1.2817794
164	0x3ea0ce9f	0.3140764
165	0xbff9a9fd	-1.9505001
166	0xc066d89f	-3.6069715
167	0x3e360736	0.17776188
168	0xbecbac9d	-0.3978013
169	0x3e99ba18	0.3002479
170	0xbf0cf5c9	-0.5506254
171	0x3f149d8f	0.58052915
172	0xbf39b093	-0.72535056
173	0xbe7dd9b3	-0.24790077
174	0x3f9729aa	1.180959
175	0xbf276260	-0.65384483
176	0xbd894f9a	-0.06704636
177	0xbe2accfc	-0.16679758
178	0xbff69df3	-1.9266952
179	0xbf641ca1	-0.89106184
180	0xbf2d45c4	-0.6768458
181	0x3f197572	0.5994483
182	0xbf33203c	-0.6997106
183	0xbe995443	-0.299471
184	0x3f5f87dc	0.8731668
185	0x3a26c6fc	0.00063620484
186	0xc02fa597	-2.7444818
187	0xbf5c13b2	-0.8596755
188	0x3e695792	0.22787312
189	0xbf212fa4	-0.6296332
190	0x3d8e49ff	0.069477074
191	0x3ee8eddd	0.45493975
192	0x3ea58c1c	0.32333457
193	0x3eacc0c4	0.33740819
194	0xbbbfa356	-0.0058483286
195	0xbefb9544	-0.49137318
196	0xbea6de13	-0.32591304
197	0xbefca5e7	-0.49345323
198	0x3ee4230b	0.44557986
199	0xbeda424b	-0.42628703
200	0xbfbaa1e7	-1.4580659
201	0x3d8750b6	0.06607191
202	0xbf8431fb	-1.0327753
203	0xbf1c1878	-0.60974836
204	0xbe06a2a2	-0.13147977
205	0x3e7c5f27	0.24645673
206	0x3f7abe47	0.9794659
207	0x3d86932a	0.06571038
208	0xbf78839a	-0.9707581
209	0xbb780d98	-0.00378499
210	0xbc9748da	-0.018467356
211	0xbffef828	-1.9919481
212	0x3f666b87	0.90007824
213	0xbdc786a8	-0.097424805
214	0x3d445dbf	0.047940966
215	0xbe1029d4	-0.14078456
216	0x3ee3cef9	0.44493845
217	0x3e800018	0.25000072
218	0xbfcc697c	-1.5969691
219	0xbf025a2b	-0.50918835
220	0xbf9bbe37	-1.2167424
221	0xc0475992	-3.114842
222	0xbeb0fcc0	-0.34567833
223	0x3d9ed23b	0.07754942
224	0x3ed79563	0.4210616
225	0xbf6c4373	-0.9229042
226	0x3f07820b	0.52932805
227	0x3ff39dfc	1.9032588
228	0x3dfccfeb	0.12344345
229	0xbe04874c	-0.12942237
230	0xbe66b4f7	-0.2252997
231	0xbe82e4fd	-0.2556533
232	0xbfdbe745	-1.7179953
233	0xbed7fd39	-0.4218538
234	0xbe6da9fd	-0.23209377
235	0xbb5697d3	-0.0032744303
236	0x3db3b42d	0.087746
237	0xbe51584a	-0.20443836
238	0x3f03e284	0.5151751
239	0x3e81a2b1	0.25319436
240	0xbdf01880	-0.11723423
241	0xbe53bd5c	-0.20677704
242	0xbdbe5849	-0.09294183
243	0x3fc815a3	1.5631603
244	0xbee0dd4a	-0.4391883
245	0x3f0edff9	0.55810505
246	0xbe6a25e2	-0.22866014
247	0x3dbc9611	0.092083104
248	0x3e99eff5	0.30065885
249	0x3dc45540	0.09586573
250	0x3ea69ada	0.32540017
251	0xbfe4cac3	-1.7874378
252	0x3e0cc54f	0.13747142
253	0x3e971f66	0.29516143
254	0x3c262db0	0.010142729
255	0x3e9ce8bc	0.30646312

critic.2.bias f4 [64]
0	0x3f3e9f82	0.7446214
1	0xbf290344	-0.6602061
2	0xbf13527b	-0.5754773
3	0x3b957314	0.0045608375
4	0x3f578161	0.8418179
5	0x3e114498	0.14186323
6	0x3e0c91a8	0.13727438
7	0xbe3edad1	-0.1863816
8	0x3f1fbb11	0.62394816
9	0x3e7b545e	0.24543902
10	0x3f23b009	0.63940483
11	0xbe1dc8a4	-0.1540857
12	0x3e079fae	0.13244507
13	0xbeb16b98	-0.346524
14	0xbf3191c3	-0.6936304
15	0xbff26260	-1.8936272
16	0xbf9607af	-1.1721095
17	0x3ec1e089	0.3786662
18	0x3ecca84d	0.39972153
19	0xbc756660	-0.014978021
20	0x3e5d27f1	0.21597268
21	0xbf80b5a6	-1.0055435
22	0xbf17835c	-0.59184813
23	0x3ef5a034	0.47973788
24	0xbd1f1425	-0.03883757
25	0x3e14ec4e	0.14543268
26	0x3deea2c1	0.116521366
27	0xbefd4cf6	-0.4947278
28	0xbd245241	-0.040117506
29	0x3f5fa607	0.8736271
30	0xbd99b422	-0.07505061
31	0xbdbfad58	-0.093592346
32	0x3f5f9dce	0.87350166
33	0xbb8b9b02	-0.0042604217
34	0xbefdfde1	-0.49607757
35	0x3f116ae4	0.5680373
36	0xbf8dee4b	-1.1088346
37	0x3e10a1d2	0.1412423
38	0xbe0765f7	-0.1322249
39	0xbf7d1173	-0.9885475
40	0xbe72b66b	-0.237024
41	0x3e8d1c17	0.27560493
42	0x3decb8b7	0.11558669
43	0xbe2b6d33	-0.16740875
44	0xbe0a2e6a	-0.13494268
45	0x3f52153f	0.8206367
46	0x3f434576	0.76277864
47	0x3f6c36bc	0.9227102
48	0xbe258fa0	-0.1616807
49	0x3ea8a63b	0.32939324
50	0xbecdce79	-0.4019659
51	0x3eedd82d	0.46453992
52	0x3f120231	0.57034594
53	0x3ef8b5d5	0.48576227
54	0x3ede4671	0.43413118
55	0x3f064072	0.52442086
56	0x3f2c7042	0.6735879
57	0x3f59f495	0.8513883
58	0xbf01333f	-0.5046882
59	0xbe2c9f99	-0.16857757
60	0xbe11bc2f	-0.14231943
61	0x3e02a183	0.12756924
62	0xbcd03bc1	-0.025419118
63	0x3f15c214	0.58499265

critic.4.weight f4 [1, 64]
0	0xbeea6daf	-0.45786807
1	0x3e50b992	0.2038329
2	0x3f9b2674	1.212111
3	0x3eb92f61	0.3616896
4	0xbe0d6212	-0.13806942
5	0xbf11f4b8	-0.57014036
6	0xbea93fde	-0.3305654
7	0xbd0c1b63	-0.034205806
8	0xbf04c8aa	-0.5186869
9	0xbdbf457c	-0.09339425
10	0xbe8c5bb3	-0.2741371
11	0x3e839c59	0.2570522
12	0xbf4950c4	-0.78638864
13	0xbe84a480	-0.25906754
14	0x3ec6816c	0.38770616
15	0xbe9a79c7	-0.30171034
16	0x3ea300c8	0.31836534
17	0x3f08d601	0.53451544
18	0x3ef26a3d	0.47346678
19	0xbf562da2	-0.8366338
20	0x3f488b1d	0.7833727
21	0x3f90044b	1.125131
22	0x3f2397e0	0.6390362
23	0x3e12a438	0.14320457
24	0xbcf1972e	-0.029491033
25	0x3e95d472	0.29263645
26	0x3ee7dd8f	0.45286223
27	0xbdcabe36	-0.09899561
28	0x3a93cf80	0.001127705
29	0xbf1aada2	-0.6042119
30	0x3c8a6069	0.016891675
31	0xbc9ed25b	-0.019387415
32	0xbe994fd7	-0.29943725
33	0x3e934afe	0.28768152
34	0xbeb29e09	-0.34886196
35	0xbe82d2c0	-0.25551414
36	0x3f144f7e	0.57933795
37	0x3fdb9dbb	1.715751
38	0xbb5665b6	-0.0032714433
39	0xbe9b2a64	-0.3030578
40	0xb895607d	-7.122846e-05
41	0x3f074b0a	0.52848876
42	0xbe4a9450	-0.19783139
43	0xbe69c446	-0.22828779
44	0xbd310e86	-0.04322674
45	0xc01d4842	-2.4575353
46	0xbe9a1f02	-0.30101782
47	0xbecfa4f4	-0.40555537
48	0xbe73e389	-0.23817267
49	0x3f312b87	0.6920704
50	0x3e2faa1f	0.1715474
51	0xbe844174	-0.25831187
52	0x40194c6b	2.3952892
53	0xbf0535ea	-0.5203539
54	0xbe074bb0	-0.13212466
55	0xbe3e9f5d	-0.1861548
56	0xbec8ce59	-0.3921993
57	0xbe0248f8	-0.12723148
58	0xbeafc74c	-0.3433174
59	0xbeb0cb34	-0.34530032
60	0xbc8e64ad	-0.01738199
61	0xbf396d8c	-0.7243278
62	0x3b7bf275	0.0038444076
63	0xbe25a46f	-0.16176008
