Pre-trained/HAC_Pendulum-h-v1_solved_level_0_actor.pth (torch, 21310 bytes, 5 tensors)

actor.0.weight f4 [64, 4]
000000 41 d1 86 3f b8 cf 52 3e 05 d8 8b bf 7d c6 62 bd
       1.0532609 0.20587051 -1.0925299 -0.055365074
000010 53 15 05 3d 85 7b 1b be 1b be 82 3d 80 d5 37 3f
       0.03249104 -0.15183838 0.06383916 0.7181015
000020 75 40 a8 3e 02 90 46 bf f6 96 01 3f f2 ad 2c 3f
       0.32861677 -0.7756349 0.50620973 0.6745292
000030 e1 a2 a4 3f e4 9f 15 3f 13 fa 3b 3f 31 f0 f7 bd
       1.2862207 0.584471 0.7342846 -0.1210636
000040 8f 27 a0 3f 3d fe a0 3e 12 f3 55 bf 0e 1b eb 3d
       1.2512072 0.31443968 -0.8357402 0.1147977
000050 12 32 1d bf 3f 28 b4 be 69 f8 97 bf bd c9 69 3e
       -0.61404526 -0.35186955 -1.1872684 0.22830863
000060 92 37 6c bf 0d cf 04 bf 1d 8e a2 bd 28 61 85 be
       -0.92272294 -0.51878434 -0.07937262 -0.26050687
000070 66 e3 df be 21 65 c5 be a3 b8 5a 3f ec 2a 6d be
       -0.4372818 -0.38553718 0.85437983 -0.23160905
000080 c4 11 96 3f 1f a7 8d bd 65 b3 4a bf 8c 3c da 3e
       1.1724172 -0.069166414 -0.79179984 0.4262432
000090 cc 1e 42 3d e8 bb da 3e 85 20 05 3f ec ca 25 bd
       0.04739265 0.42721486 0.52002746 -0.040476725
0000a0 3b cf 5f 3f 0b cb a6 be b9 be c3 3e 56 c6 3b 3f
       0.87425584 -0.32576784 0.38231447 0.7334951
0000b0 f6 bc 71 3e 6e 13 de be ac ca 4d 3f 0e ca d9 3e
       0.23607239 -0.433742 0.8038738 0.42536968
0000c0 cd f3 65 3f 58 ac 05 3c 73 91 5f bf 80 b7 9c 3d
       0.89825135 0.008158766 -0.8733131 0.07652187
0000d0 69 73 54 bf af 31 df 3e b9 b7 67 3f 17 99 f5 be
       -0.829886 0.43592593 0.90514714 -0.4796836
0000e0 04 40 d1 3e 68 ca 5c 3e 5d b3 8e 3f af a3 80 be
       0.40869153 0.21561587 1.1148487 -0.2512488
0000f0 47 27 35 be cf ce de be 2d e4 71 3f f3 83 e1 3e
       -0.17690764 -0.43517157 0.94488794 0.44045982
000100 57 ef 87 be 29 60 e9 3b 67 07 6e 3f a0 ee d8 bd
       -0.2654979 0.007122059 0.92980045 -0.10592389
000110 ab 12 4d bf 77 50 30 bf c6 22 14 3f 2c c8 1b 3f
       -0.8010661 -0.6887278 0.5786556 0.60852313
000120 70 2d 99 3f 5a dc 9f be 93 0e b8 bf 19 0a 30 3b
       1.1966991 -0.31222802 -1.4379448 0.0026861487
000130 e3 db 92 bf 6e 5d af bd 3b 1e e9 3e d5 e5 5b 3e
       -1.1473354 -0.08562742 0.45530877 0.21474393
000140 65 37 98 bf 41 37 0d bf de f9 8b 3f 0b d1 1a 3e
       -1.1891905 -0.55162436 1.0935628 0.15118806
000150 69 aa d0 3e 4a 4e 3e 3f f0 55 69 3d 5a 3a 41 bf
       0.40755013 0.7433821 0.056966722 -0.7547966
000160 bb 9f 00 3d 43 a0 c6 3e 01 6d 83 3f b3 70 26 3f
       0.03140233 0.38794145 1.026764 0.65015715
000170 c2 b3 5f 3f 2f c5 04 3f 42 d4 37 bf 3a 4a bd bd
       0.87383664 0.5186338 -0.71808255 -0.09242673
000180 af dd e3 3f 4f 8e 99 bc dc 82 95 be 90 c8 64 3a
       1.7802027 -0.018744616 -0.292014 0.0008727396
000190 de 0c f2 be 31 73 83 3d e4 50 6c bf 91 72 0c be
       -0.47275442 0.064184554 -0.9231093 -0.13715579
0001a0 b6 b9 9a 3f 48 55 1a 3d 6b e2 01 bf ef d6 7d be
       1.2087924 0.037678987 -0.5073611 -0.24789022
0001b0 32 23 a9 bf 4a ff 24 bd 00 38 d1 3f 60 63 e8 bc
       -1.3213866 -0.040282525 1.6345215 -0.028367698
0001c0 3a c0 5d 3f 5f 54 eb bd 7b 4b 9a bf 56 76 2a 3e
       0.8662144 -0.11490702 -1.2054285 0.16646704
0001d0 7e f5 88 3b 05 9e 64 bf d0 23 e0 bd f6 b7 0b 3e
       0.0041796556 -0.8930362 -0.10944331 0.13644394
0001e0 dc 3b cf bd f6 cc 63 bd 77 45 1e 3c 7c d2 0d bf
       -0.10118839 -0.055615388 0.009660116 -0.553993
0001f0 af 0c 5c bf 45 e4 13 bf 68 e2 c3 be 48 9f 1d 3f
       -0.85956854 -0.57770187 -0.38258672 0.6157117
000200 40 ad f7 be 4c 4e a2 be 19 1f ad 3f 07 4d dc 3e
       -0.48374367 -0.3170036 1.3525115 0.43027517
000210 d0 e3 54 bf 49 31 44 bd be d7 ea bd 80 96 ac bd
       -0.83160114 -0.047898564 -0.11466931 -0.08427143
000220 6f 7b 43 bf 23 40 13 bf 09 aa 38 3f 49 80 49 3d
       -0.7636022 -0.5751974 0.72134453 0.049194608
000230 1e 15 01 3f e3 73 d1 be 62 68 26 3f 54 b9 c3 3d
       0.5042285 -0.40908727 0.65003026 0.09556833
000240 c9 70 2d bf 68 c7 0f bf 5e 3d 13 3f 92 be 19 3f
       -0.6775022 -0.56163645 0.57515514 0.6005641
000250 ae aa bf 3e 45 c7 9d be 47 73 77 3f 55 dc e3 3d
       0.37434906 -0.30816093 0.96660274 0.111260094
000260 31 16 2a bf 40 c2 86 be 8b 9f b1 3f 6d 0e df be
       -0.6644011 -0.26320076 1.3876814 -0.43565693
000270 aa 08 ef 3e 70 0a 07 3f 2a d7 5f bf d3 a4 07 bf
       0.46686298 0.527503 -0.8743769 -0.52985877
000280 90 d0 a2 3f 51 5f 4e 3f 75 94 d4 be 3f be 29 bf
       1.2719898 0.8061419 -0.41519514 -0.6630592
000290 1d 4c c5 3f 89 1b ce be f3 1b d6 bf ba fa b9 3e
       1.5413853 -0.40255383 -1.672728 0.36324102
0002a0 43 42 a8 bc c6 6b cb be a0 03 96 bf 38 e0 9a 3e
       -0.020539409 -0.39730662 -1.1719856 0.3024919
0002b0 df 93 a7 3f 09 92 95 3e 3d 98 88 bf 3f 65 61 be
       1.3092002 0.29212978 -1.067146 -0.22011279
0002c0 db b6 48 bf 64 bd 11 3f 2d d2 50 3f b6 57 32 bf
       -0.78404015 0.5692961 0.815707 -0.69665086
0002d0 99 07 e8 3e b4 86 41 3f 4f 1d c8 3d c5 44 2a bf
       0.45318297 0.75596166 0.09771215 -0.66511184
0002e0 d9 8f 9b 3e 93 3f 16 3f 15 37 04 3f 7d cf 8f bc
       0.30383185 0.58690757 0.5164655 -0.017554993
0002f0 29 a4 65 be 2f 2a 47 3e ab 31 47 bf 3c 5b b1 3c
       -0.22425903 0.19449686 -0.7781016 0.02164995
000300 25 b9 7c 3f ca 6d 44 3f a7 32 54 3d 9c 35 aa be
       0.9872001 0.76730025 0.05180612 -0.33244026
000310 65 c7 fa be f8 45 54 be 63 94 e1 3e d1 9e d7 3e
       -0.4898025 -0.20729816 0.44058523 0.42113355
000320 16 2a 76 bf 24 42 69 be 67 ba ac 3f 51 5a a5 3d
       -0.9615797 -0.22779137 1.3494385 0.08073867
000330 15 1a ad 3e 9d 5e b6 3e 37 f1 34 3e e2 bc 32 bf
       0.33808962 0.3561906 0.17670141 -0.6981946
000340 f9 9a a6 3e ab b3 0d 3a 72 c0 a8 3f 23 f4 95 bd
       0.3254011 0.0005405496 1.318373 -0.07321956
000350 a7 e0 05 bf 21 b9 4f bf ef c9 45 3c d6 25 50 3f
       -0.5229592 -0.8114186 0.0120720705 0.81307733
000360 14 f1 f2 3b 10 5a a6 be f8 cc 35 3d 8a 49 94 3d
       0.0074139927 -0.32490587 0.044384927 0.07240589
000370 e3 5b 2e bf bd 49 d9 3d df 02 08 3e b7 11 13 be
       -0.6810896 0.106097676 0.13282345 -0.14362226
000380 fa cc 5e bf c3 54 17 3f 3d e0 05 3f 3b 7d 17 bf
       -0.8703152 0.5911371 0.52295285 -0.5917546
000390 b5 73 f1 be 9f 67 5d bf 34 72 bb bc 4d 35 59 3f
       -0.4715859 -0.8648624 -0.022881605 0.84846956
0003a0 85 b6 ef 3e da c8 05 3d bc a0 01 bf 0a 9e e2 bd
       0.4681894 0.03266225 -0.50635886 -0.110653
0003b0 86 6a 98 3f 13 15 5f 3e b0 c0 b1 3e 1c 13 a1 be
       1.1907508 0.21785383 0.3471732 -0.31459892
0003c0 26 97 99 3e 75 19 92 3e f8 b9 d7 be 19 62 1e bf
       0.2999813 0.28535047 -0.4213407 -0.61868435
0003d0 dd 72 a8 be de d4 58 bf 28 dd 48 be 73 5a 5e 3f
       -0.32900134 -0.8469981 -0.19615614 0.86856765
0003e0 7b 8f cd 3d 3e ce 23 3f 4b b7 4b bf 09 66 11 bf
       0.10037132 0.63986576 -0.7957656 -0.5679632
0003f0 e6 e5 89 3e fa 9b 5f be b7 e8 df be b8 51 7b be
       0.2693321 -0.21836844 -0.43732235 -0.24542892

actor.0.bias f4 [64]
000000 73 21 91 be 40 64 1b bf 7d d1 c3 be e2 8f e6 be
       -0.28345832 -0.60699844 -0.38245764 -0.4503165
000010 58 e4 67 3e 08 b4 e2 be 15 6d 2f 3f e0 67 d9 bf
       0.226457 -0.44277978 0.6852582 -1.6984825
000020 6f 6c d2 3e dd 1b 20 3e 94 b0 c9 bf 37 5e da bf
       0.41098353 0.15635629 -1.5757012 -1.7060002
000030 ac 00 54 bf 20 28 b2 be 73 be d4 3e ff f2 05 c0
       -0.82813525 -0.34796238 0.4155155 -2.0929563
000040 9f 76 ad bd 2a f4 90 3d 67 98 ac 3e 3b 29 17 bf
       -0.08469891 0.070778206 0.33710024 -0.5904729
000050 2c f5 f5 be 20 14 f1 bd 7a 58 7e be dc d7 dd bf
       -0.48038614 -0.11771417 -0.24838439 -1.73315
000060 84 43 d7 be ca dd 0e c0 8a 68 b6 bf 38 88 db be
       -0.42043698 -2.232287 -1.4250653 -0.42877364
000070 11 24 8f be e0 05 93 bf 14 ae 06 c0 69 21 be bf
       -0.27957204 -1.1486168 -2.104375 -1.4853946
000080 4d 10 2c bc 2a 09 da bf 9f 77 d2 bf 84 23 b0 bf
       -0.010501933 -1.7034047 -1.6442755 -1.3760839
000090 64 72 d0 bf af e9 14 c0 22 14 c8 be 48 ee 6f be
       -1.6284909 -2.326763 -0.3907786 -0.23430741
0000a0 3b 66 ad be a6 7f 83 be 4d a9 8c bf 5d 30 84 3e
       -0.33867058 -0.25683326 -1.0989166 0.25818148
0000b0 50 36 99 3e 13 d7 77 be cc c8 02 c0 65 d1 05 c0
       0.2992425 -0.24203138 -2.0435057 -2.0909054
0000c0 9e 25 11 bf 7a 8a 39 3e 5e 14 8d bf 88 c4 0e bf
       -0.56698024 0.18119231 -1.102184 -0.5576863
0000d0 4b 11 82 bf 19 ca ac bd 87 90 36 3f 63 7a dd 3e
       -1.0161527 -0.084369846 0.7131428 0.43257436
0000e0 0c 28 f7 be f4 85 3e be d9 67 6e 3e 1a 25 a4 be
       -0.4827274 -0.18605787 0.23281802 -0.32059556
0000f0 3a c2 8c be ae 54 9a 3e 9c 43 9c bf c0 82 02 bf
       -0.27491933 0.3014273 -1.2208133 -0.5098076

actor.2.weight f4 [64, 64]
000000 c4 ff 92 3e 95 67 d8 be 4f cd 77 bf 4d 57 b1 3d
       0.2871076 -0.42266527 -0.9679765 0.086592294
000010 dd 5a d4 bd cc 29 d3 3e 37 dc a9 3e 82 9e da 3e
       -0.10368893 0.41242826 0.33175823 0.42699057
000020 20 41 81 be 45 6f 01 3f 56 b7 6e bf 55 14 80 bf
       -0.25245 0.5056041 -0.932485 -1.0006205
000030 f3 d9 a8 bf 2e ce 30 bd 76 73 02 3f db 25 c3 be
       -1.3191513 -0.04316538 0.5095743 -0.3811482
000040 4f 7d 56 3e 77 57 74 bf 73 7e b1 3d 86 81 e3 3d
       0.20946239 -0.9544596 0.086666964 0.11108689
000050 52 7a 11 bf 68 33 2b 3f bc 18 e7 3e d4 89 1b 3e
       -0.5682727 0.66875315 0.45136058 0.15189296
000060 7a 4a 16 bf d1 e7 d6 3d 25 f3 a7 3f 99 d4 f8 be
       -0.5870739 0.10493434 1.3121077 -0.485997
000070 ac 1d 19 bf 7a 64 8f 3d 14 3c 35 be 96 72 5f bf
       -0.598109 0.07001586 -0.17698699 -0.8728422
000080 97 13 f5 bc 57 18 bd bc 65 8c 71 3d b8 32 97 bc
       -0.029916568 -0.023082895 0.05897178 -0.018456802
000090 ca 8b 09 c0 94 85 d6 3e 4c 3a 3f 3e 9f c3 47 3e
       -2.149157 0.41898787 0.18674582 0.19508217
0000a0 75 e2 a6 3e 0c d8 3c c0 eb 89 02 bf 37 5a 81 be
       0.32594648 -2.9506865 -0.50991696 -0.2526414
0000b0 2d f7 bf 3e 8e 19 47 3e ec f7 08 3f 0c f7 d7 3d
       0.37493268 0.19443342 0.535033 0.10545167
0000c0 49 3b 3a 3d 59 4c 8f 3d ef ca a8 3d 40 13 bb bc
       0.045466695 0.06996984 0.082418315 -0.022836328
0000d0 92 7b 69 3e 85 3d c2 bf 5a 92 f0 3e 6c c0 a5 3d
       0.22801045 -1.5175024 0.46986657 0.08093342
0000e0 41 05 35 3e 93 eb 4e c0 da d6 43 3f 52 40 8a be
       0.17677785 -3.2331283 0.7649971 -0.27002198
0000f0 ea 73 b4 3e 42 40 c2 bf b2 ac 2a 3d b4 b5 70 3e
       0.35244685 -1.517586 0.0416686 0.23506814
000100 ca 0e 8c be a6 c8 c2 be 7d 5c 66 bf c1 c4 32 3e
       -0.27355033 -0.38043708 -0.89984876 0.17457868
000110 d2 40 a5 3e 9c 47 94 be ff 73 9e 3d 38 d0 b7 3e
       0.32276016 -0.28960884 0.07736968 0.35901046
000120 cc 3a 4d be 7a a4 bc 3e a6 55 33 bf 5c 51 ab bf
       -0.2004196 0.36844236 -0.70052564 -1.3384204
000130 11 15 81 bf 21 a7 80 be 09 79 c3 3e dd ad 24 bf
       -1.0084554 -0.2512751 0.3817828 -0.64327794
000140 0a e3 12 3e 6d 64 23 bf 16 ce 98 3e 7a 09 83 bf
       0.14344421 -0.6382511 0.2984473 -1.0237267
000150 b8 a5 4e bf a2 2a f2 3d 24 1e ba 3d b0 80 8d be
       -0.80721617 0.11824538 0.0908778 -0.27637243
000160 64 76 8a be 4f 33 53 bf 8b c9 28 3f 12 b6 a6 be
       -0.2704345 -0.82500166 0.6593253 -0.32560784
000170 43 2e aa bf c6 09 19 3e 3e 5b 2f be 4e 6b b9 bf
       -1.3295368 0.14945135 -0.1712465 -1.4485872
000180 bb a6 98 3d ac 07 8e bf d6 c0 b9 bc 1f df e0 bd
       0.07453676 -1.1096091 -0.02267496 -0.10980057
000190 55 b9 2d c0 e8 ea 71 3e 5c 0d fa bd b8 d4 2e be
       -2.7144368 0.23624766 -0.12209579 -0.17073333
0001a0 9f 43 a6 3f ea 28 df bf 58 7c 29 bf d1 55 3d 3e
       1.2989386 -1.7434361 -0.6620536 0.18489768
0001b0 e0 bc 86 be f3 36 bb 3e 5c dc dc 3e 5e 87 ce bf
       -0.26315975 0.3656536 0.4313687 -1.6135061
0001c0 38 b0 8c 3e 95 8c 88 3e 76 11 39 bf bc 5c a1 3d
       0.27478194 0.26669756 -0.7229227 0.07879016
0001d0 05 db 49 be f0 39 49 bf d0 8b ce 3e 7a a0 a6 bc
       -0.19712456 -0.7860403 0.40341043 -0.020340193
0001e0 fd 90 12 bf 18 a9 aa c0 0f fa b9 3e ec ce 80 bc
       -0.57252485 -5.3331413 0.36323592 -0.015723668
0001f0 fa 78 21 3e 03 ce 73 bf 87 b8 c1 be c2 ff c6 3e
       0.15768805 -0.95236224 -0.37836096 0.38867003
000200 47 88 27 bf 4f fb 45 3f 06 f3 99 3f 54 b3 c5 bf
       -0.6544232 0.7733659 1.202729 -1.5445352
000210 37 e2 39 c0 14 7e 57 bf 1f 8d 0f 3f cd da 2c c0
       -2.904432 -0.84176755 0.5607471 -2.7008545
000220 24 b1 0e c0 21 5f 8f be e8 63 b7 bf 22 eb 15 bc
       -2.2295618 -0.28002265 -1.4327364 -0.009150298
000230 64 56 00 be ae 51 3f 3e ac d9 d9 3e e2 73 be bf
       -0.12532955 0.18683502 0.42548883 -1.4879115
000240 c9 fd a6 3f af 77 d9 3e 30 f9 9e c0 f2 3f ae be
       1.3046199 0.42474124 -4.9679184 -0.3403316
000250 7f e8 29 c0 1e 1b 0d 3f c6 ff ba bf fc 97 bb bf
       -2.6548154 0.551195 -1.4609306 -1.4655757
000260 dd 19 2a bf ef f3 06 be 39 6a c0 3e 49 e3 08 c0
       -0.66445714 -0.13178991 0.3758104 -2.1388724
000270 aa e7 e1 bf 0f 20 94 bf 05 20 a5 3f 75 a3 05 be
       -1.7648823 -1.1572284 1.2900397 -0.13050635
000280 d3 a1 cb 3f f0 e5 84 bd ae 9f 1d c0 0d 1f 72 be
       1.590876 -0.064891696 -2.462871 -0.23644657
000290 f9 0b 94 bf 77 48 2c 3d c7 f1 af c0 e4 2d c8 bd
       -1.1566154 0.042061295 -5.498264 -0.09774378
0002a0 1a ff 09 bf c4 19 84 3d 9f ad 7c bc 21 95 5b c0
       -0.5390488 0.06450227 -0.015422254 -3.430977
0002b0 2c df 34 3f 94 2a 7a 3e 87 81 41 bf ef 74 08 bf
       0.70653033 0.24430305 -0.7558827 -0.53303427
0002c0 7e 09 b5 be 18 c8 5b 3d 67 f7 ec bf af 94 5a 3f
       -0.35358804 0.05365762 -1.8513001 0.85383123
0002d0 c8 57 c9 be 6b e5 ac 3f 27 b9 ee bd 84 5e 47 3e
       -0.39324784 1.3507513 -0.11656409 0.19469649
0002e0 11 94 45 3e e0 be 62 be 18 2a 11 bd fa bf 84 be
       0.19294764 -0.22143126 -0.035440534 -0.25927716
0002f0 0e b4 d4 3e 71 71 6a bf 94 de 0c bd 0d c8 01 3f
       0.4154362 -0.9157935 -0.034391955 0.5069588
000300 9f c3 c8 be e2 49 83 bf fe b5 43 3e f1 9a e6 bd
       -0.39211747 -1.0256922 0.19112393 -0.112600215
000310 40 67 d7 bf d1 43 a8 bf c3 5d d9 bf eb 30 09 3f
       -1.6828384 -1.3145696 -1.6981739 0.5359027
000320 c3 02 9f be 65 d5 43 bf 07 73 5a 3f 2e 3c 93 3f
       -0.31056795 -0.7649749 0.8533177 1.150274
000330 0a 52 5a 3f bc c3 d7 bf c9 ef 1d be 4c 77 8f 3f
       0.8528143 -1.6856608 -0.15423502 1.1208282
000340 34 77 ec bd 9b ed 91 bd 3c 91 22 be c3 a8 6e bf
       -0.11546174 -0.07125398 -0.15875715 -0.9322626
000350 5d dd da be 4a e1 f4 be c5 d0 8c bf 8b 9c 45 bd
       -0.42747012 -0.47828132 -1.1001211 -0.048244994
000360 43 7c 09 bd 24 a5 16 bf f0 d0 8b 3f 27 a3 1a bf
       -0.03356577 -0.58845735 1.0923138 -0.604052
000370 8b 6e 9d 3d 8d 74 8d 3e 6f 3f 0e bf ad 77 da be
       0.076871 0.27627984 -0.5556554 -0.4266943
000380 12 5d d9 3d 8a 66 cd bf 32 71 11 3f ae ef 12 3f
       0.10613455 -1.6046917 0.5681335 0.5739697
000390 24 09 81 3f e9 4a c3 3f e5 77 c6 bd 36 6d b0 bf
       1.0080914 1.5257236 -0.09690837 -1.3783329
0003a0 f9 58 cb 3c 55 b4 50 3e fa 4c b9 be f3 e8 28 bf
       0.024822699 0.20381291 -0.3619154 -0.6598045
0003b0 d8 7d 33 bf 38 4d 97 bf 9d 67 5a 3d 46 6f e2 3d
       -0.701139 -1.182044 0.05332147 0.1105638
0003c0 49 b3 07 be 37 84 6f be 5b 79 92 bf 8b 2b a6 be
       -0.13251986 -0.2339028 -1.1443285 -0.32455096
0003d0 6b 01 3d 3f 51 8a ae be e3 c6 27 bf 96 0e fa bf
       0.7383029 -0.34089902 -0.6553785 -1.9535701
0003e0 52 41 cd be 74 0c e2 be 8e 7f 35 bf 1c d2 a9 bd
       -0.40088898 -0.44150126 -0.7089776 -0.08292028
0003f0 d8 95 88 be b8 56 a2 be de 37 b6 3e c7 e9 18 bd
       -0.26676822 -0.31706786 0.35589498 -0.037332322

actor.2.bias f4 [64]
000000 b4 b2 2f 3f 15 da e7 3e 0f 85 d4 3e c7 b3 01 c0
       0.68632054 0.4528357 0.41507766 -2.0265977
000010 7f 9b 33 be 53 30 21 3d f3 7b fc bf 3c 0d fd 3e
       -0.17539786 0.039352726 -1.9725326 0.4942416
000020 b3 08 41 bf cd 28 1f 3f c0 76 f0 be 4f 0d 1c bf
       -0.754039 0.6217163 -0.469656 -0.6095781
000030 d4 a4 73 bd 72 df 25 3e bd 7f 56 be c9 8b d6 bf
       -0.059483364 0.16198519 -0.20947166 -1.6761409
000040 51 fc e0 bd 5d 52 37 bf 11 5b fd be bd ae 94 bf
       -0.109856255 -0.7161005 -0.4948354 -1.1615826
000050 0e 29 e7 3e b0 c3 3b be 34 64 f9 be 5f 83 66 3e
       0.4514851 -0.18336368 -0.4870926 0.22511052
000060 20 b3 b8 be 89 70 1c 3f 87 7b 7c bd e7 5a fb 3e
       -0.36074162 0.61109215 -0.061641242 0.4909279
000070 e3 fc 2b be 9b 3b 22 bf 15 6a f0 3c 31 be 1c 3f
       -0.16795687 -0.633722 0.029347459 0.6122771
000080 b1 73 11 be 5e 7a ae 3e d0 aa e9 bf e3 21 3c bf
       -0.14204289 0.34077734 -1.8255253 -0.7348921
000090 ec 69 24 be 0d e6 8f 3e a2 3e 17 bf fa b8 e3 3c
       -0.16056031 0.28105202 -0.59079945 0.027798165
0000a0 e1 89 ff be ec 42 57 3f 28 fe 99 3e 47 e8 6e 3d
       -0.4990988 0.8408649 0.30076718 0.058326986
0000b0 d9 ea dc bd b3 49 ce be 27 c6 a2 3d 8c ed cd bf
       -0.10786981 -0.40290603 0.07947951 -1.6088119
0000c0 cb 37 34 be c5 c1 d8 3e 0e dc 8b 3e 60 7d 3a bd
       -0.17599408 0.42335334 0.27316326 -0.045529723
0000d0 14 18 cd bd f5 3d f0 bd 00 33 29 3f 37 25 89 be
       -0.10014358 -0.11730567 0.66093445 -0.26786205
0000e0 a6 d7 1f 3f f3 c5 b3 3e 61 7e 3b bd ab 8e ac bd
       0.6243843 0.3511196 -0.04577482 -0.08425649
0000f0 d3 3b 6c bf 00 0f 37 bf 1d 16 05 3f 14 f3 49 bd
       -0.92278785 -0.71507263 0.5198687 -0.049304083

actor.4.weight f4 [1, 64]
000000 ce b7 d2 be 67 cb 83 be b5 58 9c 40 68 a7 fc 3f
       -0.41155857 -0.2574112 4.8858285 1.9738588
000010 e8 e2 3b bc 19 ec a9 3f 58 51 26 3f 09 d3 9f bd
       -0.011467673 1.3275176 0.6496787 -0.07803924
000020 8d 77 26 c0 f0 27 36 3e 5f 8c 9c c0 55 a1 89 40
       -2.6010468 0.17788672 -4.892135 4.300944
000030 a4 ca b7 bd 8a 8c aa 3f 3b 89 02 3e 57 ba d4 3f
       -0.089741975 1.3324139 0.12747662 1.6619366
000040 aa 6a 1f bf 20 67 70 be cb f1 91 40 5c 6b 26 40
       -0.6227213 -0.23476839 4.5607657 2.6003027
000050 d2 da 4c be f9 49 a9 bc ef 6f 38 40 b3 ba 6d c0
       -0.20005348 -0.020665156 2.881832 -3.7145202
000060 8b 57 c8 bf e8 07 29 bf 78 4a 7e bc a9 16 d3 3e
       -1.5651716 -0.6602769 -0.015520684 0.41228226
000070 54 0a 05 c0 05 b7 b5 3e 76 9c 86 bc 25 29 39 3f
       -2.0787554 0.35491195 -0.016432028 0.72328407
000080 3d fd a1 bc 94 0a d5 3f c4 a6 54 c0 9c 1e cd bf
       -0.019774074 1.6643853 -3.3226786 -1.6024966
000090 b2 8b 9d bc 8a 13 b0 be 5f 12 19 bf e8 d3 e4 3f
       -0.019231651 -0.34389907 -0.5979366 1.7877169
0000a0 f6 d8 91 c0 2d 28 1d 3f 5f ea d4 be d8 70 20 bd
       -4.5577345 0.6138943 -0.4158506 -0.039170116
0000b0 c3 2f a7 3b cc 02 1e c0 dc 19 a7 3e d6 eb 49 3f
       0.005102129 -2.4689207 0.32636917 0.7887548
0000c0 88 fb 4f bb 18 60 a6 3e 9e 02 24 3f 33 fb 94 3e
       -0.0031735618 0.3249519 0.64066494 0.290979
0000d0 8d e8 4c bb 09 6e 3c 3f 5a 22 23 3f 39 b5 9a 40
       -0.003126654 0.736054 0.6372429 4.834622
0000e0 09 4d 83 3f df 52 44 be 01 89 49 bf 51 bb 4b 3c
       1.0257884 -0.19172238 -0.78724676 0.012434796
0000f0 b3 bb d2 bb eb 70 3c 40 00 2a 44 bf e9 4d e8 3c
       -0.006431067 2.944392 -0.76626587 0.028357463
