Pre-trained/HAC_Pendulum-h-v1_level_1_crtic.pth (torch, 21752 bytes, 5 tensors)

critic.0.weight f4 [64, 6]
00000000: 7896 6bbf b7ef 55be 4d65 bf3e 621c d1bd
00000010: 0e6f 60c0 8d28 25be 9a93 963d e804 d6bd
00000020: 3512 b83f 0119 383e a313 4c3f cc3b 68bf
00000030: f05f 6bbf 0fe0 8cbd b7d8 7c3e 1196 163e
00000040: b728 87bf 65b5 b63f 0822 793d 8ffb 8fbd
00000050: 39f6 c7be 77a6 823e b285 2bc0 fb7e e53e
00000060: 5a58 02be 54c4 b73d 612b 6b3e 9d28 c5bc
00000070: 60ce 2dbe c472 e73f 8150 933e e95c 2dbe
00000080: 4054 183f 62b5 85b9 249f 8e3f 7486 28bf
00000090: 289c 20be caf8 313e 2c65 6abf eb04 8b3e
000000a0: 0ba0 303f dea1 9cbe 18f0 9dbe e302 f03d
000000b0: 4e72 fe3d c9cb ba3e 7642 863f 3f7f a5bf
000000c0: bb0c 5cbd 3349 91be 91b5 f93d 8d15 a9be
000000d0: d978 6b3e 3d5b fd3e b97e adbe f18f 39bd
000000e0: 69c7 e1be c6d8 a4be ba0e 57c0 c724 b63f
000000f0: 6494 8e3c 1f3b 59bd 0d3f 48bf c209 cbbe
00000100: 2a9b 1c3f 83ad 1d3f 94ea 14bf cb11 febe
00000110: 3b0f 25bf eeaf 99be 3bda 15c0 c0a5 603f
00000120: c148 febd 0e85 c43e 5fae 38be 22fd 503c
00000130: bc35 03c0 3e80 3e3f 4b04 913d eb41 fd3d
00000140: 5819 153c 89c1 0dbf 6325 7d3e 8445 cebf
00000150: a5d8 393e 5531 823e 5218 0e3f 3ed9 f53e
00000160: c37a 83bf 66ce 943f 7642 5dbf 3187 83be
00000170: 5ab3 0fbf 5f58 c5bd 85e9 213f f5a0 e53f
00000180: 25b7 b93c 21e8 003b db41 a23f 7b58 a93e
00000190: 9bae adbf 7df4 a1be f5f2 803e 4ea8 90bd
000001a0: 0476 983e 0dac 26be 3fbe c9be c754 e83d
000001b0: db2a 13bf b6f5 6fbc 2f1e dcbe 3898 bebd
000001c0: 9ffa 06bf 5ccb 173e 44a7 3cbf 801e 013d
000001d0: fa4d 973e 3b91 e53e ce3c 2b3f 3b7c 84bc
000001e0: f555 113e b3d7 303c 2d80 81bf e25d 9d3e
000001f0: a019 843f 5d21 e2be 65ac 7a3e 50fd 083f
00000200: c598 553f 8dc9 e53d 52a2 c4bf a57f 85be
00000210: 313e bc3e a9bf 1ebe 82ad 59bf dd95 0dbe
00000220: d767 d5bf 0927 ae3f b4a2 5d3e 0cb7 863e
00000230: ebf0 86bf 6a52 a93e 45f0 6d3e 54e5 623f
00000240: 1d27 183f ffb0 ec3d e0d8 48bf b7cb 5b3e
00000250: c729 17bf fc67 5c40 4e91 883e b676 8ebd
00000260: 1aeb 4d3f 347d 733e a601 d23f 81a5 12bf
00000270: 8641 85bf 6111 98be 886c 1cbc f2e3 9abe
00000280: 7f97 3bbf f6e6 e13f 1144 6a3e 45c9 f03e
00000290: 7742 6cbe ad9c cc3e cbf3 813f ff41 1c3e
000002a0: 56fd 63be f98b 0ebf 0350 2f3e 0109 41be
000002b0: d41a ccbf 4237 98bf b75a 94be 6747 b3bd
000002c0: 4e43 723f dbba f5be 18f3 80bf d2f5 fb3e
000002d0: 6019 eabe 46c5 b13c 8a48 603e 72be 23be
000002e0: a0f1 363d 7018 83be fcdf ac3e b427 e33d
000002f0: 1d38 4b3e 4fe6 5fbe 553e 27be ba5e e8be
00000300: 8529 8f3e 5b28 333c 35c1 c03f bd9d bfbe
00000310: c365 d53f 4585 a8bf c94b b03d 67f3 8bbb
00000320: 4c78 3a3d 39b2 9fbc 5d28 5d41 2ac1 3340
00000330: ee30 3b3d 9799 af3d 8c72 8a3f 60f8 a93d
00000340: 8901 6fbe cf86 16be 64e8 21bf 5ac8 a3be
00000350: 0eed c33c 3462 553d 5c06 a3bd a6b6 bc3f
00000360: 5005 88bd 071e ca3b 63b7 903e a682 29bf
00000370: 1ebc a6be f8d2 283f 4922 77be a2c7 f93a
00000380: 2395 ae3d 6354 a7be f01f b5be 91d0 9c3e
00000390: f1a4 3b3f 2b88 c53d 2d55 c8be 4642 2b3e
000003a0: d3e7 12bf 0ce5 fdbd 632b cc3c a6e8 56be
000003b0: 7b56 593f 16f0 cdbe 763e 8a40 4e50 00be
000003c0: 9607 b73a f17c 75bb 80bd a03a 1846 89b9
000003d0: bc91 ca41 f049 0ac1 6d88 19bb d703 6eb9
000003e0: c295 1a3c a098 aabb 8af2 7ac0 eaae 8a41
000003f0: 8dc8 983f e30c 933e a800 85be f292 843d
-0.9202647 -0.20892225 0.37381974 -0.10210492 -3.5067782 -0.1612875 0.073523715 -0.104501545
1.4380556 0.17978288 0.79717463 -0.9071624 -0.91943264 -0.06878673 0.24692045 0.14705683
-1.05593 1.4274107 0.06082347 -0.07030403 -0.3905504 0.25517628 -2.680035 0.4482344
-0.12729016 0.089729935 0.22965766 -0.024067217 -0.16973257 1.8081899 0.28772357 -0.16929974
0.59503555 -0.00025502878 1.1142316 -0.6583016 -0.15684569 0.17380062 -0.91560626 0.2715219
0.68994206 -0.30592245 -0.3084724 0.117193006 0.12424146 0.364836 1.0489032 -1.2929457
-0.05372308 -0.2837616 0.12192834 -0.33024254 0.22995318 0.49483672 -0.33885744 -0.04530329
-0.4409745 -0.32196635 -3.3602738 1.4229974 0.017404743 -0.053034898 -0.7822121 -0.39655882
0.6117426 0.6159288 -0.5817044 -0.4962295 -0.64476365 -0.30017036 -2.3414447 0.87752914
-0.124162205 0.38382763 -0.18035267 0.012755664 -2.0501547 0.7441443 0.07080897 0.123660885
0.009100281 -0.55373436 0.24721293 -1.6114964 0.1814905 0.25428262 0.5550586 0.48017305
-1.0271839 1.1625488 -0.86429536 -0.2568908 -0.56133044 -0.09635996 0.6324695 1.7939745
0.022670338 0.001966961 1.2676347 0.33075318 -1.356891 -0.31631842 0.25185362 -0.070633516
0.2977754 -0.1627657 -0.3940296 0.11344295 -0.5748727 -0.014645984 -0.42991778 -0.09306377
-0.5272617 0.14823669 -0.7369273 0.031523228 0.2955168 0.44837365 0.66889656 -0.016172519
0.14192946 0.010793614 -1.0117241 0.3073569 1.032032 -0.4416608 0.24479826 0.53511524
0.8343623 0.112200834 -1.5362036 -0.26073948 0.36766198 -0.155028 -0.85030377 -0.138267
-1.6672314 1.3605663 0.21644098 0.2631153 -1.0542272 0.3307069 0.23236187 0.88631177
0.5943468 0.11557197 -0.78455925 0.2146443 -0.5904812 3.4438467 0.2667336 -0.06956236
0.8043686 0.2377823 1.6406753 -0.5728379 -1.0410621 -0.2970076 -0.00954736 -0.30252033
-0.7327804 1.7648609 0.22877528 0.47028556 -0.2307223 0.39963284 1.0152525 0.1525955
-0.22264609 -0.5568233 0.17120366 -0.18851091 -1.5945687 -1.1891863 -0.2897546 -0.08753853
0.9463395 -0.47994122 -1.0074186 0.49210984 -0.45722485 0.021700513 0.21902671 -0.15990618
0.044664025 -0.25604582 0.33764637 0.11091557 0.19845624 -0.218652 -0.16332372 -0.4538477
0.27961364 0.010934914 1.5058962 -0.37425032 1.667168 -1.3165671 0.08608205 -0.004270959
0.04552488 -0.019494163 13.822354 2.8086648 0.04570096 0.08574217 1.0816207 0.08299327
-0.2334043 -0.14699863 -0.63245225 -0.31988794 0.023916747 0.052095607 -0.07960197 1.474324
-0.06641638 0.0061681303 0.28264913 -0.6621498 -0.32565397 0.6594691 -0.24134172 0.0019056688
0.08524539 -0.3268157 -0.3537593 0.30627874 0.73298556 0.096451126 -0.39127484 0.167245
-0.57384986 -0.12397203 0.024923032 -0.20987186 0.84897584 -0.40222234 4.3201246 -0.12530634
0.0013964053 -0.0037458504 0.0012263507 -0.000261829 25.32116 -8.643051 -0.0023427263 -0.00022698879
0.009435119 -0.0052061826 -3.9210534 17.335407 1.1936203 0.2872077 -0.25977063 0.0647334

critic.0.bias f4 [64]
00000000: c803 4ebf 0d0a 623d 01ef 4a3d 799c 903e
00000010: 4283 12bf 3a20 a13e 4dd5 043e 9fca 143e
00000020: 6a1b f03d 7ac5 03c0 4e3f 7fbd 7ab4 30bf
00000030: c913 32be 31bb eabf de53 883d 8da8 e8bf
00000040: 9269 55be efd2 103f d9f5 83bd 0afc 49bf
00000050: ee5a b6be ae51 6abf f4d6 9cbe 1bc0 62bf
00000060: 7793 dd3d 90cc a2be 7d55 a9bf 5362 c2be
00000070: 397d e4bf a270 f2bc 1fb5 1a3f d99c b0bd
00000080: 3d95 05be a468 dabe ec03 2b3e 02c3 1b3e
00000090: a4eb a2bc 3961 903e 12ed b8ba e863 33bf
000000a0: bf51 b7bd b8dc 95bd 3c92 c9be 115e 903f
000000b0: f3ba 0ebe 8350 8abf 2606 9e3c 85f1 2fbf
000000c0: bf81 90bf 6740 9fbf 41b2 e43e e65e 4a3e
000000d0: 637d 97bf fded a7bf be42 17be 82e7 82bf
000000e0: 56e0 c0bd bbe1 25be fab9 7ebd a632 8a3e
000000f0: 93c5 c2bf 1a0a 00c0 a14b f8be 67ce d03b
-0.8047452 0.055185366 0.049544338 0.2824438 -0.57231534 0.314699 0.12971993 0.14530419
0.11723979 -2.058928 -0.06231623 -0.69025385 -0.1739036 -1.8338376 0.066566214 -1.8176438
-0.20841053 0.5657186 -0.06443376 -0.78900206 -0.3561625 -0.91530883 -0.30632746 -0.8857438
0.10819142 -0.31796694 -1.3229214 -0.3796564 -1.7850715 -0.029594723 0.6043262 -0.08623666
-0.13045211 -0.4265796 0.16700715 0.15211108 -0.019887753 0.28199175 -0.0014108738 -0.7007432
-0.08951139 -0.073174894 -0.3936938 1.1278707 -0.13938503 -1.080582 0.019290041 -0.68727905
-1.1289595 -1.2441529 0.44667247 0.19762763 -1.183514 -1.3119503 -0.14771554 -1.02269
-0.09417789 -0.1619939 -0.06218908 0.26991767 -1.5216545 -2.0006166 -0.484952 0.0063722613

critic.2.weight f4 [64, 64]
00000000: 59be cfbd 1d1a 213e 416b bb3e 3572 ba3e
00000010: 2d64 373f 5607 403e 54e6 bebd 6fed 5dbe
00000020: b7c5 673e 1a55 5e3e 0d1b 32bf 79d9 363f
00000030: a85e 7fbc 50a5 793d 5622 c13e a771 10bf
00000040: 7222 0ebf ac3a e93d b2be 223d 4826 cabe
00000050: 3375 a43e 95b2 9ebd 5f5c 7f3d f91e 57be
00000060: f6af 8b3d 0216 69bf 0214 c1be 8286 6f3e
00000070: 91a8 37bd 13f8 e4be e87f a13e fba3 0dc0
00000080: 6b53 c53d 94af 2a3f 3b02 f4bd 7f0e 9e3e
00000090: 1593 bdbf 4f3b 54bf d90a 75bd db76 f2be
000000a0: 190a 5dbe 372c 8ebe a230 8f3e 813a d13e
000000b0: c7cc 95be 0fa0 93be a406 bdbe ff65 ad3e
000000c0: 7192 573d 4b45 8bbd 0678 7cbe fa92 893e
000000d0: 65f7 533e 437c 15bf 1eb1 60bf 55ff 8ebf
000000e0: 65ad 89be 764b 803d 9c65 01c0 0942 bf3e
000000f0: eab7 ac3d 9ee2 0fbf dc55 c53e 1d7e 43c0
00000100: 7f64 d8bd 71d0 5eba 5bc2 8abd 7c4c cebd
00000110: 6a8e fabd ea92 063e db87 0c3d 41e3 45bc
00000120: 40d0 16be facf d7bd a8fb a5bd 7571 b9bb
00000130: eddb 303d 0bb0 4e3d 0339 ffbd 6619 cabd
00000140: 1aef e43d 4ee6 e3bd dbdd 5abe 173a bebd
00000150: e821 b7bc 2f55 853d 69ea c4bd 6f5c 24be
00000160: 2d40 27be 7d90 4c3d 404e 9cbd 1a91 33be
00000170: 384f c6bd a41d f73d cf69 103e 2731 49be
00000180: c941 02be 417b 07be 16b6 cebc d60b aabd
00000190: 22f4 0abd cb31 783b be9e 28be 51d0 9fbd
000001a0: 94df e1bc 33eb 63bd 3cb3 d93b ec0d 463d
000001b0: c713 8e3d 7307 8bbd 7601 4cbe 6ab8 eabd
000001c0: bc02 f4bd 734d 59bb 973a 87be 8ef6 9ebd
000001d0: 82fd 43be 4d73 f7bd da89 d1bd 5cac 42bc
000001e0: b682 95bd 7f40 e93c b0a3 2bbe a6af 10bd
000001f0: 8c0f 2fbe 59ea f0bd c222 a53d a4a4 75bd
00000200: bb64 e83e 94ee 0cbe 03c2 cabc dc68 b5be
00000210: 8021 803e 9039 c73c f3dd 5abf cbd8 1ac0
00000220: 202a 0e3f e7d3 27bf 095e 253e bf2e ab3e
00000230: e1fc 523d 1f01 7bbe 1547 4abe abbd d8be
00000240: b148 32c0 62ec 8d3e c53e c93e e5b8 4c3e
00000250: 4434 bc3e 5358 3dbf 32e3 463e 1620 bac0
00000260: 58c2 e1bc c9aa febe c998 ccbc fe75 22c0
00000270: 14c5 38bf e597 0abf d946 85bd ef17 0a3e
00000280: 406d 1d3c b7bf 9ac0 f69c efbc c663 ba3d
00000290: ae7b b2be e880 433e b60d 2fbf 83ff 2cbe
000002a0: 7e51 81c0 bdb7 8cc0 7a1f 04c0 ff60 8c3e
000002b0: 1282 d0bf b864 2d3f 15e9 edbc a6fe 88bf
000002c0: d9e0 233e 0eac 443f 0179 0e3f bb62 083f
000002d0: 5599 11bd 8955 04bf a833 8c3e c8b6 a3bf
000002e0: 29da 1c3f becc 98bf eb7a 53c0 9f1e 1fbf
000002f0: a3db babc 14f7 60bf 6e20 20be 4863 723e
00000300: b125 1bbe aaba 1dbf 5942 a23b 1608 b6be
00000310: 59de 48bf 94e3 e7bc 1ca1 f7bd 3ab8 783d
00000320: e3f2 0c3f 9fdb fbbf 9e27 5abe 9b0b 413d
00000330: cc4e b83d 31dc cdbf d0ac 06be 5a6a 27bd
00000340: 85d3 f23e 2792 0c3e 0fe3 ed3e 90b8 11bf
00000350: dcc7 e8bd 2a03 12bf bd66 61be 8e74 8e3d
00000360: 5ce9 793e b9f5 b83e a657 3e3f b97a 553f
00000370: 6a45 f9bd c19e c2bc ac79 833e 6095 8c3e
00000380: 99c5 963d 74c7 82bf 6826 75be ade9 443e
00000390: 1529 02bf 533a 9f3e 6bdb 6ebe 8f78 1b3e
000003a0: 1151 f1c0 95d5 e2bf 49d9 1ebd ced1 023f
000003b0: 83f9 933e bccf c9be f313 d33d aa52 6bbe
000003c0: 3ba9 313f 5273 3c3e 22ed 143e 58c8 303d
000003d0: fdc2 5e3e f5df 6bbe 47a4 053e a4aa 4cbe
000003e0: 1069 f7be bfec a4bf 5ecb d1c0 b947 3c3d
000003f0: 529c 2fc0 101d 80be 9362 833f cebe a7be
-0.10143728 0.15732618 0.36605266 0.36415258 0.7163723 0.18752798 -0.09321275 -0.21672605
0.22634016 0.21712151 -0.69572526 0.71425587 -0.015586533 0.06094867 0.3772151 -0.5642342
-0.5552131 0.11388144 0.039732642 -0.3948233 0.32120666 -0.077489056 0.06234395 -0.21007909
0.06820671 -0.91049206 -0.37710577 0.23391154 -0.04483849 -0.44720516 0.31542897 -2.2131336
0.09635051 0.6667416 -0.11914488 0.30870435 -1.4810511 -0.82903 -0.0598248 -0.47356305
-0.21585883 -0.27768108 0.2796679 0.40864947 -0.29257795 -0.28833053 -0.3691913 0.3386688
0.05262989 -0.06800326 -0.2465516 0.26869947 0.20699842 -0.58392733 -0.8777026 -1.1171671
-0.26890102 0.06264393 -2.0218267 0.37355068 0.08433516 -0.56205165 0.38542068 -3.0545723
-0.10566043 -0.0008499688 -0.067753516 -0.10073182 -0.122341946 0.13141981 0.03430925 -0.012078107
-0.14727879 -0.10537715 -0.0810464 -0.005659277 0.043178488 0.050460856 -0.12462046 -0.098681256
0.111784175 -0.111279115 -0.21373694 -0.092884235 -0.022355035 0.06510388 -0.09615023 -0.16050886
-0.16333075 0.049942482 -0.076321125 -0.1753582 -0.096830785 0.120662004 0.14102863 -0.19647656
-0.12720408 -0.13230611 -0.02523331 -0.08303039 -0.03392423 0.0037871476 -0.16466805 -0.07803405
-0.02757243 -0.055644225 0.006643681 0.04835312 0.06937366 -0.0678853 -0.19922432 -0.114609554
-0.11914584 -0.0033157736 -0.26411888 -0.0776187 -0.19139674 -0.12082539 -0.10231371 -0.011881914
-0.07300322 0.028473137 -0.1676166 -0.03532376 -0.17095774 -0.11763448 0.0806327 -0.059971467
0.4538935 -0.13762885 -0.024750715 -0.35431564 0.25025558 0.02431944 -0.8549492 -2.419482
0.5553303 -0.6555771 0.16149153 0.33434102 0.051510695 -0.24512146 -0.19753678 -0.42332205
-2.7856867 0.27719408 0.39305702 0.19992407 0.36758626 -0.739629 0.19422606 -5.8164167
-0.02755849 -0.49739674 -0.024975197 -2.5384517 -0.7217572 -0.5413802 -0.06507654 0.13485692
0.009608567 -4.8359027 -0.02924965 0.091010615 -0.34859985 0.19092143 -0.68380296 -0.16894345
-4.041198 -4.397429 -2.0644212 0.27417752 -1.6289694 0.6773181 -0.029041806 -1.0702713
0.16003741 0.76825035 0.5565339 0.5327565 -0.03554662 -0.51693016 0.2738316 -1.2790155
0.61270386 -1.1937482 -3.3043773 -0.621561 -0.02280981 -0.8787701 -0.15637371 0.23670685
-0.15151097 -0.6161295 0.004951757 -0.35553044 -0.78464276 -0.02830676 -0.12091276 0.060722567
0.55058116 -1.9676398 -0.21304175 0.04713021 0.08999404 -1.6082822 -0.1315186 -0.04087291
0.47427002 0.13727628 0.46462294 -0.56922245 -0.11366245 -0.5703608 -0.22011848 0.06955825
0.24405426 0.36124972 0.7435249 0.83390385 -0.12171443 -0.02375734 0.25678766 0.27457714
0.073619075 -1.0217118 -0.23940432 0.19229765 -0.50843936 0.31099185 -0.23325889 0.15182708
-7.541146 -1.772143 -0.038781438 0.51101387 0.289013 -0.394163 0.103065394 -0.22980753
0.6939885 0.18403366 0.14543584 0.043159813 0.2175407 -0.23034652 0.13050948 -0.19986969
-0.48322344 -1.2884749 -6.556075 0.045966838 -2.743916 -0.25022173 1.0264457 -0.3276276

critic.2.bias f4 [64]
00000000: 7698 ef3e 0853 903a 35bc aa3e 0de6 063f
00000010: 6a80 eb3c 80e3 4abf 8162 643e e564 903d
00000020: 4db8 a5be fdf8 ce3e 10dc 403f 93e0 103e
00000030: 288c 86bd d9f0 b33e 8e46 de3e 8e24 803d
00000040: b313 2e3f 14ab 453e 5eca 6fbf 0f9b d0be
00000050: 9a9f 303d 01c5 adbd 5225 66bd f605 f53d
00000060: fc56 023f 1da0 74c0 e53f 533f c50a 9a3e
00000070: 5552 583f 501c 223f f3be 243f 3f3b f73e
00000080: 4503 7bbd 8a26 ccbe 4246 6a3d 6736 2a3f
00000090: e53f 00bf 0c13 493e ef03 55be 8ad0 33be
000000a0: 2b33 ce3c 7788 8e3f a432 b5bf 1d2b 583f
000000b0: 9325 92bf e4fb 94be 873d a6bd e237 3b3e
000000c0: af68 0f3e 50eb 353f c6c0 163e 86ab ccbe
000000d0: c6c2 8fbf 9fbf 2e3d b7bb f0bd 0e8c 8f3e
000000e0: 268f dd3e 3c57 823d ded3 a6be 6492 cb3e
000000f0: 59eb 033d 21fc 133f fd8b 2b3e d02c 023f
0.46796006 0.0011011073 0.33346716 0.5269478 0.028747756 -0.7925339 0.22303201 0.07050494
-0.32367173 0.40424338 0.7533579 0.14148168 -0.065697014 0.3514469 0.43413204 0.06256972
0.6799881 0.19303542 -0.9366816 -0.407433 0.043120958 -0.08484841 -0.056187935 0.119640276
0.5091398 -3.8222725 0.8251937 0.30086342 0.8450063 0.6332445 0.64353865 0.4828739
-0.061282415 -0.39873153 0.05719591 0.6648926 -0.50097495 0.19636172 -0.20802282 -0.1756002
0.025170883 1.1135396 -1.4156079 0.84440786 -1.1417717 -0.29098427 -0.08117204 0.18283036
0.14004777 0.71062183 0.14721975 -0.39974612 -1.1231315 0.042663213 -0.11754554 0.2803654
0.43273276 0.06364295 -0.32583517 0.39760125 0.032206867 0.57806593 0.1675262 0.5084963

critic.4.weight f4 [1, 64]
00000000: af41 c0bd 4ef4 5bbe ed82 ecbe bd8b 343e
00000010: a2e5 40be 750b ab3e 2358 7a3e 5224 0d3e
00000020: d2c5 e93e 6e3b 51bd 11ef 2cbe db11 a03e
00000030: 0802 45bd 29d7 6a3f 140a 53bd 84d7 9fbd
00000040: 8a47 25be 446e d33e 85c3 2040 3b42 66bf
00000050: 6eba 12bc 50bc 9ebb 54c5 313e d3a8 05bf
00000060: bbf6 603f d078 a13d c987 d6be 5845 d23f
00000070: aac0 ffbc 08eb 323e 4f20 f9bd 4589 23bf
00000080: bac5 3cbe a5ca 5f40 ddbf 453d 3897 07bf
00000090: 48ff 023f dc53 af3d 15cb 233e 74e0 ddbd
000000a0: 2926 c4bd c207 33bd 8413 1440 16ed 9fbd
000000b0: 3809 1e40 9e42 30bc 518d 7b3b bad7 d83f
000000c0: 2848 753e 317c 8cbf 6ef2 cabe 3903 9e3f
000000d0: 553d 3d40 6248 4740 a641 f8bd a0b4 413f
000000e0: f3b0 c1bf 451c 5840 e49d 9ebe 893f c13e
000000f0: f66e 9f3c 8e4e b4bd 7326 f0bf d043 0fbf
-0.09387528 -0.21479914 -0.46193638 0.17631431 -0.18837598 0.3340718 0.24447684 0.13783386
0.45658737 -0.051082067 -0.16888072 0.31263623 -0.04809764 0.9173456 -0.051523283 -0.07804778
-0.16140571 0.41295063 2.5119336 -0.8994481 -0.008955581 -0.004844226 0.17360431 -0.5221073
0.8787648 0.07884371 -0.4190047 1.6427412 -0.0312198 0.1747247 -0.121643655 -0.6388133
-0.18434802 3.4967434 0.04827868 -0.52965117 0.5117078 0.08560917 0.15995438 -0.10833827
-0.09577591 -0.04370857 2.3136911 -0.078088924 2.4693127 -0.01075807 0.0038383792 1.6940835
0.23953307 -1.09754 -0.39638084 1.2344733 2.9568684 3.113793 -0.121218964 0.75666237
-1.5132126 3.3767254 -0.30979836 0.37743786 0.01946209 -0.088040456 -1.8761734 -0.5596285
