Pre-trained/HAC_MountainCarContinuous-h-v1_level_1_actor.pth (torch, 21626 bytes, 6 tensors)

actor.0.weight f4 [64, 4]
0	0x3e390c58	0.18071115
1	0x3ea14ccc	0.31503904
2	0x3effce4e	0.49962085
3	0x3e85ce7e	0.26134104
4	0xbf4e3945	-0.80556136
5	0x3ec79c28	0.38986325
6	0xbf3cb9b0	-0.73720837
7	0xbd6de136	-0.058076106
8	0x3eaefe91	0.34178594
9	0x3ffe4d6b	1.9867376
10	0xbe9b6a83	-0.303547
11	0x3e70b3eb	0.23506133
12	0xbf0d19c6	-0.5511745
13	0xc0b401dd	-5.6252275
14	0xbf18bc44	-0.5966227
15	0x3ff19fa9	1.887685
16	0xbe707787	-0.23483096
17	0xc08ff127	-4.4981875
18	0x3eace550	0.33768702
19	0x3f4f274d	0.80919343
20	0xbd14f300	-0.036364555
21	0x3e5647b0	0.20925784
22	0x3eea3902	0.45746619
23	0xbed00ad0	-0.4063325
24	0xbc79140e	-0.015202535
25	0x3fdfaac3	1.7473987
26	0xbe16aa77	-0.14713465
27	0xc0385238	-2.8800182
28	0x3ebd91e6	0.37025374
29	0xc07b3687	-3.925203
30	0xbea22bce	-0.31674045
31	0x3e39e7ca	0.18154827
32	0x3ed75572	0.42057377
33	0x3e42b188	0.19013035
34	0xbd8c6d78	-0.06856817
35	0x3ec4fc94	0.38473952
36	0xbe68706b	-0.22699134
37	0xc097c685	-4.7429833
38	0x3f0b4e77	0.544166
39	0xbeeb29ad	-0.45930234
40	0xbd4ec2e0	-0.050478816
41	0x3eeb6daa	0.45982105
42	0x3e86ce74	0.26329386
43	0x3e7a6eec	0.24456376
44	0x3f0eb3be	0.55743015
45	0x4084477a	4.133725
46	0x3f33ccbe	0.70234287
47	0xbe9e9335	-0.30971685
48	0x3d4108f0	0.047127664
49	0x3ec8a2fe	0.39186853
50	0x3e8991ae	0.26868957
51	0xbe7bca60	-0.24588919
52	0x3b788f2d	0.0037927136
53	0x405b48f2	3.4263272
54	0xbda58432	-0.08081855
55	0x3d1c4d5e	0.03815972
56	0x4023119b	2.5479496
57	0x3ef5e57f	0.48026654
58	0x3f246b6d	0.6422642
59	0xbf37d0d6	-0.71803033
60	0x3d7abd22	0.061215527
61	0x3fd7bc5c	1.6854358
62	0xbe11acf0	-0.14226127
63	0xbf35682a	-0.70862067
64	0x3d748b59	0.059703205
65	0xc0d8d616	-6.7761335
66	0x3eb609b4	0.35554278
67	0xbf193f5c	-0.59862304
68	0x3ef6ffb0	0.4824195
69	0xbe8976e2	-0.26848513
70	0xbd21f920	-0.039544225
71	0xbd2ac0b0	-0.041687667
72	0x3ec2f717	0.3807914
73	0x3ee4075d	0.44536868
74	0x3dcb8c27	0.09938841
75	0xbeddccbf	-0.4332027
76	0xbee2da11	-0.44306996
77	0x3fc99e28	1.575139
78	0xbf1c13ae	-0.6096753
79	0xbf7393a9	-0.95147187
80	0xbea07be1	-0.31344512
81	0x3e68a8d2	0.2272065
82	0xbc96344d	-0.018335486
83	0xbed7a464	-0.42117608
84	0x3ea74798	0.3267181
85	0xbee2f7f4	-0.44329798
86	0xbd483660	-0.04887998
87	0x3ef67c12	0.48141533
88	0x3e95f554	0.29288733
89	0xc08e9778	-4.45599
90	0x3efd3d07	0.49460623
91	0xbc9bbf78	-0.019012198
92	0x3f032cef	0.5124044
93	0xc09ce1f3	-4.9025817
94	0x3f296f17	0.66185135
95	0x3da362c3	0.07977822
96	0x3ef5224e	0.47877735
97	0xc0bf5b69	-5.9799085
98	0x3f16c17c	0.58888984
99	0x3ea12fbb	0.31481728
100	0xbf43e388	-0.7651906
101	0x40ab42f5	5.3519235
102	0xbe90fe07	-0.28318807
103	0x3f978d99	1.1840087
104	0x3f9233fd	1.1422116
105	0x3e4dc11c	0.20093197
106	0x3ead343b	0.3382891
107	0xbf3ee262	-0.7456418
108	0x3f40b7b2	0.75280297
109	0x3f7ff36d	0.99980813
110	0xbeac629f	-0.33668992
111	0x3e824b61	0.25448135
112	0x3b57618d	0.0032864541
113	0x4075afc2	3.8388524
114	0x39912af6	0.00027688564
115	0xbea94ff7	-0.3306882
116	0x3e676fb8	0.22601211
117	0x40822e6d	4.068167
118	0xbf01050f	-0.50398344
119	0x3ee002f4	0.43752253
120	0x3d564b70	0.052318037
121	0xbe38e268	-0.18055117
122	0xbd063230	-0.032762706
123	0x3d6133a0	0.054980874
124	0x3f8b953c	1.0904918
125	0xbf30de03	-0.69088763
126	0xbecd2c31	-0.40072778
127	0xbe570ba0	-0.21000528
128	0xbea09511	-0.3136373
129	0xc0a3c4f9	-5.1177945
130	0x3e078100	0.13232803
131	0x3f525ece	0.8217591
132	0x3e58ee20	0.21184587
133	0x3d7666c0	0.060156584
134	0xbc1c2000	-0.009529114
135	0xbee7eac8	-0.4529631
136	0x3ed443a4	0.41457856
137	0x3ee74fe5	0.45178142
138	0xbd0da03b	-0.034576636
139	0x3d71c50c	0.05902581
140	0x3f40e824	0.7535422
141	0xbe212d2b	-0.15739886
142	0x3e96d086	0.29455966
143	0xbe819313	-0.2530752
144	0xbed0973b	-0.4074038
145	0x3ff3c63b	1.904487
146	0x3ed0a70c	0.40752447
147	0xbe99cdb0	-0.3003974
148	0x3f882db7	1.0638951
149	0x3fbdb319	1.4820281
150	0x3e7ba5f5	0.24575026
151	0xbdee9269	-0.11649019
152	0x3cc27b02	0.023740295
153	0xbfaeac73	-1.3646377
154	0xbf3da73c	-0.74083304
155	0x3ec85415	0.3912665
156	0xbe8d7ba6	-0.276334
157	0xc05b3599	-3.4251463
158	0xbf2b919f	-0.67019075
159	0xbf4dadd2	-0.80343354
160	0x3caaee80	0.020865679
161	0x3ea7ff40	0.32811928
162	0xbd86ea78	-0.0658769
163	0x3eb7d47c	0.359043
164	0x3e16f92c	0.14743489
165	0xc083eb11	-4.1224446
166	0x3f03bac2	0.51456845
167	0x3e43f829	0.19137634
168	0x3f95c622	1.170109
169	0x3fe0e22e	1.7569025
170	0x3f5b4c90	0.856637
171	0xbef283c7	-0.47366163
172	0xbf56ad57	-0.83858246
173	0xc015cc26	-2.3405852
174	0xbe8ef990	-0.27924776
175	0x40086436	2.1311164
176	0x3dd40b98	0.10353774
177	0xbedc52a4	-0.430318
178	0x3ef72b7a	0.48275357
179	0x3ef044c4	0.46927464
180	0x3e7c81cc	0.24658889
181	0xbefac5e6	-0.4897911
182	0x3e8f037c	0.27932346
183	0x3e1215bc	0.14266104
184	0xbd7d3040	-0.061813593
185	0xbed67588	-0.41886544
186	0x3ed8e33c	0.42360866
187	0xbe190e88	-0.1494695
188	0xbd4cbe60	-0.049986243
189	0xc0e020ec	-7.004019
190	0x3e28424e	0.16431543
191	0x3e2e1dd9	0.17003573
192	0x3e7c85db	0.24660437
193	0x4097f87b	4.749082
194	0xbe34f6a2	-0.17672208
195	0xbd862922	-0.06550814
196	0x3f9bedda	1.2181962
197	0x3f764856	0.96204126
198	0xbf0161ab	-0.50539654
199	0xc00124da	-2.0178742
200	0xbe05f923	-0.1308332
201	0x3eba296e	0.36359733
202	0x3df4f766	0.1196125
203	0x3f405414	0.75128293
204	0x3e146fc2	0.14495757
205	0x40b58482	5.6724253
206	0xbef79e3f	-0.4836292
207	0xbf04e062	-0.5190488
208	0x3c479575	0.012181629
209	0x408cba3f	4.397735
210	0xbefe988a	-0.49725753
211	0x3f91f8fa	1.1404107
212	0xbe11aa60	-0.14225149
213	0x3ebb3ec2	0.36571318
214	0x3cf07ae0	0.029355466
215	0xbe72a864	-0.23697048
216	0x3e903a45	0.28169456
217	0xc000c1aa	-2.0118203
218	0x3e6f57de	0.23373362
219	0x3eae14fc	0.34000385
220	0x3e78f374	0.2431162
221	0xbe1be234	-0.15223008
222	0xbe2e3440	-0.1701212
223	0x3e556c30	0.20842052
224	0x3e58094e	0.210973
225	0x404ea69b	3.2289188
226	0x3d9bf81f	0.07615685
227	0xbdba329e	-0.09091686
228	0xbe9fe282	-0.312275
229	0xbfd554e0	-1.6666527
230	0xbf4bc131	-0.7959166
231	0x3f5e84e8	0.8692155
232	0x3e1f3694	0.15548164
233	0xc084cf0d	-4.1502748
234	0x3ebe4975	0.37165418
235	0xbef93d2f	-0.48679492
236	0xbe629dc3	-0.22130494
237	0xbfc23127	-1.517125
238	0xbe98c85b	-0.2984036
239	0xbf35c028	-0.7099633
240	0x3f1d4e7c	0.6144788
241	0x3f61aa27	0.88150257
242	0xbefa3788	-0.48870492
243	0xbe9a3d97	-0.30125114
244	0x3de6703f	0.11251878
245	0x404aa7ec	3.1664991
246	0x3e1f49ee	0.15555546
247	0xbe1d721a	-0.15375558
248	0x3e8ff9a0	0.28120136
249	0x3cc6ac80	0.024252176
250	0x3e87e79a	0.26543885
251	0x3c0f9600	0.00876379
252	0x3ef84b47	0.48494932
253	0x40c7e750	6.2469864
254	0xbee1ddee	-0.4411463
255	0xbedda848	-0.4329245

actor.0.bias f4 [64]
0	0xbed66b58	-0.41878772
1	0x3cf14838	0.029453382
2	0xbe9877b9	-0.2977884
3	0xbed19379	-0.40932825
4	0xbe6b1199	-0.22955932
5	0xbebb2438	-0.3655107
6	0xbdcf824a	-0.101322725
7	0x3d867290	0.0656482
8	0xbed76b0e	-0.42073864
9	0xbdd335dc	-0.10313007
10	0xbe799640	-0.24373722
11	0xbe1f213e	-0.15540025
12	0xbe7a8bc0	-0.24467373
13	0xbde9de11	-0.11419309
14	0x3e4ffeab	0.20311992
15	0x3e13254a	0.14369693
16	0xbe835b69	-0.25655678
17	0xbe560df4	-0.2090376
18	0xbe6c4c57	-0.23075996
19	0xbe69df9f	-0.22839211
20	0xbed8c3bd	-0.42336836
21	0xbedcb946	-0.43110102
22	0xba864c3a	-0.0010246106
23	0x3d46ba31	0.04851741
24	0x3d89cd4f	0.06728613
25	0xbeab828b	-0.33498034
26	0xbd8fea48	-0.070271075
27	0x3e7f8b10	0.24955392
28	0xbe4679dc	-0.19382423
29	0x3dc96dbc	0.09835383
30	0xbe33e7c4	-0.1756888
31	0x3ca8e879	0.020618664
32	0xbeb51068	-0.3536408
33	0xbec526b8	-0.38506103
34	0xbe7baa97	-0.24576794
35	0xbd9a193c	-0.07524344
36	0xbd0f63fb	-0.03500746
37	0x3daa5c0d	0.083183385
38	0xbef26d47	-0.47348997
39	0x3e62a513	0.22133283
40	0xbee23df0	-0.4418788
41	0xbe6ff9ec	-0.23435181
42	0x3d166171	0.03671402
43	0xbf0ca6a0	-0.5494175
44	0xbeef0982	-0.4668694
45	0xbeed4256	-0.46339673
46	0xbef245d6	-0.47318906
47	0xbe7ff3bb	-0.2499532
48	0x3dbfa80a	0.09358223
49	0x3eda155b	0.42594418
50	0xbe880e68	-0.2657349
51	0xbe13daba	-0.14438906
52	0xbc737fc0	-0.014862001
53	0xbe476680	-0.19472694
54	0xbdff179c	-0.12455675
55	0xbeef2d74	-0.46714365
56	0x3e6030e1	0.21893646
57	0xbeded77b	-0.43523774
58	0xbe7061d4	-0.23474818
59	0xbe19e7f4	-0.1502989
60	0x3e989c66	0.29806823
61	0x3d60e387	0.054904487
62	0xbea7a5fa	-0.32743818
63	0x3dbf2eab	0.09335073

actor.2.weight f4 [64, 64]
0	0xbd4bcebc	-0.049757704
1	0x3f173a8c	0.5907371
2	0x3c1976a2	0.009366663
3	0x3f30f1ff	0.69119257
4	0xbde52c3d	-0.111900784
5	0xbdf7aec0	-0.12093878
6	0x3e038e45	0.1284724
7	0xbe936c2d	-0.2879347
8	0xbd3dee60	-0.04636991
9	0xbf29525a	-0.66141284
10	0xbdc71e3a	-0.09722562
11	0x3e838ea0	0.25694752
12	0x3c46e450	0.012139395
13	0xbfd38f49	-1.6528102
14	0xbf3bdc51	-0.7338305
15	0xbf84e487	-1.0382241
16	0xc02c29e5	-2.690057
17	0xbdddd11e	-0.108309016
18	0x3d91ec25	0.07125119
19	0x3fbf6982	1.4954073
20	0x3dad0a1b	0.08449193
21	0x3dd3f4e0	0.103494406
22	0x3f8724d2	1.0558112
23	0xc09bdf75	-4.8710275
24	0xc0a18b65	-5.048266
25	0x3f3bc2eb	0.73344296
26	0x3e5e3137	0.21698461
27	0xbf908300	-1.1289978
28	0x3e438e18	0.19097173
29	0x3eea9e91	0.45824102
30	0x3de6824c	0.11255321
31	0xbe1cdcf4	-0.15318662
32	0x3d03c4ba	0.032170035
33	0x3d02cf40	0.03193593
34	0x3bf689c0	0.0075237453
35	0xbc70a32f	-0.0146873435
36	0xbe0e2abb	-0.13883488
37	0x3c25e644	0.0101257
38	0x3d6d21b3	0.057893466
39	0xbe88366d	-0.26604024
40	0xbda3ea0e	-0.08003627
41	0xc04c8c58	-3.196066
42	0x3ea4f834	0.32220614
43	0x3f29e45a	0.6636406
44	0xbdb6b17c	-0.08920571
45	0x3dbb108c	0.091340154
46	0x3d5463dc	0.051853046
47	0x3eafa8f6	0.34308594
48	0x3f12f171	0.5739966
49	0xbf0351bf	-0.5129661
50	0x3e9a476e	0.30132622
51	0xc033dd24	-2.8103724
52	0xbf170708	-0.58995104
53	0xbd38481c	-0.044990644
54	0x3da88180	0.08227825
55	0x3de3a886	0.11116128
56	0xbeca47f2	-0.39508015
57	0x3c0ecb63	0.008715483
58	0xbf685474	-0.90753865
59	0x3ded03b3	0.11572971
60	0x3f092455	0.53571063
61	0xbeaf2234	-0.34205782
62	0x3da99728	0.08280784
63	0x3ef7a7a0	0.48370075
64	0xbc018b30	-0.00790672
65	0x3eb19225	0.34681812
66	0xbd073584	-0.03301002
67	0x3f3fa9b1	0.74868304
68	0xbec7ffa4	-0.39062226
69	0xbd87c5ae	-0.06629501
70	0x3f215807	0.63024944
71	0xbf5f7fc6	-0.8730434
72	0x3d05aac8	0.032633573
73	0x3ecb0e7e	0.39659494
74	0xbd12ce04	-0.035841003
75	0xbf2981eb	-0.66213864
76	0x3db12fae	0.08651672
77	0xc04b963d	-3.1810448
78	0x3e6fb957	0.23410545
79	0x3e445d76	0.19176278
80	0x3e19ca83	0.15018658
81	0x3c6beb50	0.014399365
82	0x3d3dc5e9	0.04633132
83	0x3e9d42e8	0.30715108
84	0x3d96242e	0.073311195
85	0x3cf92bf8	0.030416474
86	0x3f2fa556	0.6861166
87	0x3e76fd8c	0.24120158
88	0x3f0298ec	0.5101459
89	0xbf131efe	-0.57469165
90	0xbec031dd	-0.37538043
91	0x3e90efce	0.28307956
92	0xbb58985a	-0.0033049793
93	0x3e86b478	0.26309562
94	0x3db4c4c4	0.088265926
95	0xbf4cdadc	-0.8002145
96	0xbe8a0a57	-0.26961014
97	0xbd533090	-0.051559985
98	0xbdb4c393	-0.08826365
99	0xbf3a5c81	-0.727974
100	0x3dff0748	0.12452561
101	0xbf3a193e	-0.72694767
102	0x3cc04631	0.02347097
103	0x3e4b579d	0.1985764
104	0x3ba33500	0.0049806833
105	0x3e65d38d	0.22443981
106	0x3e80da8c	0.25166738
107	0x3e38d31a	0.18049279
108	0xbddb93c4	-0.107215434
109	0x3dbbb93a	0.091661885
110	0xbca7bc88	-0.02047564
111	0xbf12d9d1	-0.5736361
112	0xc001b1a4	-2.0264673
113	0x3e174078	0.14770687
114	0xbeaaa04f	-0.3332543
115	0xbde1b9e6	-0.110217854
116	0xbf306731	-0.6890746
117	0x3c469d60	0.012122482
118	0xbe2529bf	-0.16129206
119	0xbdb5f664	-0.08884886
120	0xbe681bc4	-0.22666842
121	0x3f01718e	0.50563896
122	0xc0291686	-2.6419997
123	0x3e21dab4	0.15806085
124	0x3c9d0926	0.019169401
125	0xbe9fb6a5	-0.31194034
126	0x3d517e48	0.05114582
127	0xbe953f50	-0.29149866
128	0xbde2c0aa	-0.11071904
129	0xbf0ce1cc	-0.5503204
130	0x3e289534	0.16463166
131	0x3da44aa3	0.08022048
132	0xbd54d09b	-0.051956754
133	0x3de1f700	0.1103344
134	0xbdda0a3d	-0.10646484
135	0x3dfe97bd	0.124312855
136	0xbc989120	-0.018623888
137	0x3e2f0b3d	0.17094131
138	0x3ddccf48	0.10781723
139	0xbef494e8	-0.47769856
140	0x3cc20590	0.023684293
141	0x3e2895f7	0.16463457
142	0x3d85e3a1	0.065375574
143	0xbdc4b72b	-0.09605249
144	0xbcd538ca	-0.026028056
145	0x3cad3078	0.021141276
146	0xbdd1e785	-0.10249237
147	0x3d9b4e88	0.07583338
148	0x3d5376ae	0.051626854
149	0x3ce121a8	0.027481869
150	0x3dc1649a	0.09443016
151	0x3cbcbd30	0.02303943
152	0xbd953bfd	-0.072868325
153	0x39ed1fc3	0.00045227827
154	0xbe957a9a	-0.291951
155	0xbf18a976	-0.59633577
156	0x3d4cb3b5	0.04997607
157	0x3be1b090	0.006887503
158	0x3d82f154	0.06393686
159	0x3eae2e57	0.3401973
160	0x3e01a572	0.12660769
161	0x3c8175d0	0.015803248
162	0xbcfbef50	-0.030753762
163	0x3e005a8d	0.12534542
164	0xbf347821	-0.704958
165	0xbdb213cc	-0.08695182
166	0x3e7792bc	0.24177068
167	0x3c79cde9	0.015246847
168	0x3df3ae9c	0.118985385
169	0x3e1c1db3	0.15245704
170	0xbeba8ff8	-0.36437964
171	0x3d9e70d6	0.077363655
172	0x3d42a70c	0.04752259
173	0xbdad5666	-0.08463745
174	0xbcc02d98	-0.02345924
175	0xbd4837c3	-0.048881304
176	0x3e118578	0.1421107
177	0xbce5824e	-0.028016236
178	0x3dd97507	0.10618024
179	0xba6520b2	-0.0008740529
180	0x3f685456	0.90753686
181	0x3d6fa6c4	0.05850865
182	0xbc79f840	-0.015256941
183	0xbb877600	-0.0041339397
184	0xbd1c5418	-0.038166136
185	0x3d213350	0.039355576
186	0x3e6131a0	0.21991587
187	0xbd9ec0b0	-0.07751596
188	0xbf2c1658	-0.67221594
189	0xbe24c6c1	-0.16091444
190	0xbd790ab4	-0.060801223
191	0x3d639132	0.05555839
192	0x3dc1836a	0.09448893
193	0x3ee8198c	0.4533199
194	0xbe069f5d	-0.1314673
195	0xbf616b04	-0.8805392
196	0xbe362871	-0.17788865
197	0xbdeb0e5c	-0.11477348
198	0xbdfe31e5	-0.124118604
199	0xbfd87bba	-1.6912758
200	0x3db87058	0.09005803
201	0xbe5e046b	-0.21681373
202	0xbd9dd5d4	-0.077068
203	0xbd0dfcb3	-0.03466482
204	0xbdb7d4ce	-0.08976136
205	0x403856a4	2.8802881
206	0x3cf424e2	0.029802743
207	0xbe507f6e	-0.2036111
208	0xbf042d22	-0.5163137
209	0xbd8e7fcc	-0.06957969
210	0xbd6d9104	-0.057999626
211	0x3f4c575d	0.79820806
212	0xbdeec864	-0.11659315
213	0xbdce7bba	-0.10082193
214	0xbf3a1569	-0.7268892
215	0xbf1b3f35	-0.6064332
216	0xbf33a6bc	-0.7017629
217	0x3ed3ca6b	0.4136537
218	0x3f18b66f	0.5965337
219	0x3d8978ce	0.06712495
220	0x3f1f0f0d	0.6213234
221	0x3f8b9b27	1.0906724
222	0xbc239ca0	-0.009986073
223	0xbf04d54c	-0.51887965
224	0xbdc6df18	-0.097105205
225	0xbdd4d962	-0.10393025
226	0xbd494b48	-0.04914406
227	0xbe6d993b	-0.23202984
228	0x3e7e9c8e	0.24864408
229	0x3e0c7c9c	0.1371941
230	0xbe83c439	-0.25735644
231	0xbe8fae65	-0.2806274
232	0x3d503264	0.050829306
233	0xbef6f320	-0.48232365
234	0xbdcbc1ab	-0.099490486
235	0x3ee957e8	0.4557488
236	0xbdb01154	-0.08597055
237	0xbdc4ecc8	-0.09615475
238	0xbcf2eef8	-0.029654965
239	0xbe4ecd95	-0.20195611
240	0x3f1b7e1f	0.6073932
241	0xbc15ecfb	-0.009150739
242	0x3e1d36e5	0.15352972
243	0xbf1f8b52	-0.6232196
244	0x3e979882	0.29608542
245	0xbc722c70	-0.014781103
246	0xbf9ba164	-1.2158628
247	0xbd389b88	-0.0450702
248	0xbe56f913	-0.20993452
249	0x3f5f1884	0.8714678
250	0xbe92f5a8	-0.28703046
251	0xbc4a6dbf	-0.012355267
252	0x3ea3e758	0.3201244
253	0xbdd67ffb	-0.10473629
254	0xbd449bcc	-0.048000142
255	0x3e742351	0.23841597

actor.2.bias f4 [64]
0	0xbec07b5c	-0.37594116
1	0xbe923e09	-0.28562954
2	0xbe2bb822	-0.1676946
3	0xbee4ce4b	-0.4468864
4	0xbe6c1a5e	-0.23056933
5	0xbe04211e	-0.12903258
6	0x3d97c03b	0.07409712
7	0xbd29229b	-0.041292768
8	0xbcdcc4a6	-0.026949238
9	0xbdd57a28	-0.1042369
10	0x3d614b67	0.05500355
11	0xbdc50e0a	-0.09621818
12	0xbd1aa8b5	-0.037758548
13	0x3e3548a4	0.17703491
14	0xbe1cf5d8	-0.15328157
15	0x3e63c49c	0.2224297
16	0xbddfc6f1	-0.10926617
17	0xbd7df335	-0.06199952
18	0x3e857db9	0.2607248
19	0x3d7bef54	0.061507538
20	0xbe04acf7	-0.12956606
21	0xbde2750c	-0.11057481
22	0xbe240dc3	-0.16020875
23	0xbe8feee3	-0.28111944
24	0xbe7125f1	-0.2354963
25	0xbe0497ed	-0.1294858
26	0x3e104f14	0.14092666
27	0xbe28020f	-0.16407035
28	0xbd841154	-0.064486176
29	0xbdfd92a7	-0.12381487
30	0x3dc6af55	0.09701411
31	0xbdd508ef	-0.104020946
32	0xbe4ef579	-0.20210828
33	0xbec1d039	-0.37854174
34	0xbe204e15	-0.15654786
35	0xbdd54d79	-0.10415167
36	0x3c80c1ce	0.015717413
37	0xbe6f9be5	-0.23399313
38	0xbde10f16	-0.109892055
39	0x3d020e7a	0.031752087
40	0x3df2cadf	0.11855101
41	0xbd65c977	-0.056100335
42	0x3e0d755c	0.138143
43	0xbe47a4f8	-0.19496524
44	0xbe0e9ee5	-0.13927801
45	0xbe416902	-0.18887714
46	0xbe6537a1	-0.22384502
47	0xbed18344	-0.4092046
48	0x3c2f558b	0.010701547
49	0x3d0a5862	0.033775695
50	0xbe6fc5ec	-0.23415345
51	0xbdfc8e90	-0.12331879
52	0xbd96ce9b	-0.073636256
53	0x3ddf03a6	0.10889368
54	0xbe3cb65e	-0.18428943
55	0xbdd9ac7d	-0.10628603
56	0xbdc977d2	-0.09837307
57	0x3cd45b1d	0.025922352
58	0x3cb6cecc	0.022315405
59	0xbd8dc6fe	-0.069227204
60	0xbe658e83	-0.22417645
61	0xbdfc8100	-0.12329292
62	0xbcc6933e	-0.024240132
63	0xbe0bc2e0	-0.13648558

actor.4.weight f4 [2, 64]
0	0xbe092799	-0.13394012
1	0x3d901c34	0.07036629
2	0xbe384982	-0.17996791
3	0xbd0f702c	-0.035019085
4	0x3f15e3f9	0.58550984
5	0xbf1a2127	-0.60206836
6	0xbe144b09	-0.14481749
7	0x3d5f62b0	0.054537475
8	0xbe1cef2f	-0.15325616
9	0xbf106bc8	-0.5641446
10	0x3d3ea4b6	0.0465438
11	0xbd4c9f4c	-0.049956605
12	0x3ca8f483	0.020624405
13	0xbf8a33ee	-1.0797098
14	0xbd896f96	-0.067107365
15	0x3f9093d2	1.1295111
16	0x3cb11765	0.0216176
17	0x3e4b853b	0.19875042
18	0xbd9b9137	-0.07596057
19	0xbc57955c	-0.013158169
20	0x3d8abe99	0.06774635
21	0x3d631c47	0.05544689
22	0xbea7af40	-0.32750893
23	0xbf6040a9	-0.87598664
24	0x3e13a0fd	0.14416881
25	0xbdcf6bf3	-0.101280116
26	0xbe2f3a23	-0.17112021
27	0xba6f0326	-0.00091175956
28	0x3f648be8	0.8927598
29	0xbbade6e6	-0.0053070663
30	0x3d910d44	0.07082608
31	0x3cd7f213	0.026360547
32	0xbe9d6b23	-0.307458
33	0xbc55c036	-0.013046315
34	0xbbb835c9	-0.005621646
35	0xbeb4d246	-0.35316676
36	0xbd78d7e4	-0.060752764
37	0x3da43e34	0.08019677
38	0xbd56efcb	-0.05247478
39	0xbe92f190	-0.28699923
40	0xbe980e1b	-0.29698262
41	0x3d08ccf3	0.03339858
42	0x3e7b76ae	0.24556991
43	0x3e47c8c0	0.19510174
44	0x3d09840c	0.033573195
45	0xbdad96bd	-0.08476017
46	0xc00c3953	-2.1909988
47	0xc06bc389	-3.6838095
48	0x3e349869	0.17636265
49	0xbeaa94cc	-0.33316648
50	0x40068ffa	2.1025376
51	0x3d3be5a5	0.045873303
52	0x3d76ea78	0.0602822
53	0x3f19d704	0.6009371
54	0x3cc98fcd	0.024604702
55	0xbe946ac3	-0.28987703
56	0xbd16161c	-0.03664218
57	0xbf22e164	-0.6362517
58	0xbebd7787	-0.37005255
59	0xbd329428	-0.043598324
60	0x3e338098	0.17529523
61	0x3dd83b78	0.10558218
62	0xbf5fe7be	-0.87462986
63	0x3cfee130	0.031113237
64	0x3f2b8099	0.669931
65	0x3e918ba6	0.28426856
66	0xbe03bb85	-0.12864502
67	0x3f5669d5	0.83755237
68	0xbdde86b8	-0.10865539
69	0x3e28389c	0.16427845
70	0x3cb0a5c9	0.021563428
71	0x3cc1a428	0.023637846
72	0xbe9e0cdc	-0.30869186
73	0xbf0970ec	-0.5368793
74	0x3e005483	0.12532239
75	0x3c0bdc2e	0.008536382
76	0x3d67ffee	0.056640558
77	0xbf8fbc0d	-1.1229264
78	0x3d79662f	0.060888465
79	0x3f8f2361	1.1182672
80	0xbab7e01a	-0.001402858
81	0x3e966e97	0.29381248
82	0xbdb4ec83	-0.088341735
83	0x3e103044	0.14080912
84	0xbcd054bd	-0.025431031
85	0x3d7fbfcc	0.06243877
86	0xbe72fa9a	-0.2372841
87	0x3f25780b	0.64636296
88	0xbc2bc7ae	-0.010484619
89	0x3c927701	0.017879011
90	0x3d40e1af	0.04709023
91	0x3e8141b5	0.25245443
92	0x3e3b0f46	0.18267545
93	0x3e062414	0.130997
94	0xbdb4bf0f	-0.08825504
95	0x3f0702fd	0.52738935
96	0xbe25e85c	-0.1620192
97	0xc00160b1	-2.0215266
98	0x3c51bd78	0.0128015205
99	0xbe3f8e38	-0.18706596
100	0x3da5c73f	0.08094644
101	0xbcaad398	-0.020852849
102	0x3e70201b	0.23449747
103	0x3c4154fe	0.011800049
104	0xbf2b035b	-0.66801995
105	0xbb1159b1	-0.0022178704
106	0xbf49beef	-0.78806967
107	0x3f0fa161	0.5610562
108	0xbdaea343	-0.085272335
109	0x3d48aeef	0.048994955
110	0x3f8b5e09	1.0888072
111	0xbf932039	-1.1494209
112	0x3eebe76b	0.46074995
113	0xbd05c2f8	-0.03265664
114	0x3efa5c42	0.48898512
115	0x3c309483	0.010777595
116	0xbce73b7a	-0.028226603
117	0x3edc32a9	0.430074
118	0x3d4a4824	0.049385205
119	0x3d5e17cb	0.05422191
120	0x3e327c25	0.1743017
121	0xbebcd260	-0.36879253
122	0x3e2d4a57	0.1692289
123	0xbd6c9a1c	-0.057764158
124	0xc003db29	-2.0602515
125	0x3d016690	0.03159195
126	0xbded6e30	-0.11593282
127	0x3d024361	0.03180254

actor.4.bias f4 [2]
0	0xbdb42ad6	-0.08797233
1	0xbd4ec0fe	-0.05047702
