Pre-trained/HAC_Pendulum-h-v1_solved_level_1_crtic.pth (torch, 21822 bytes, 5 tensors)

critic.0.weight f4 [64, 6]
00000000: 0db8 68bf 98ec 60be ec01 bd3e a41b c7bd
00000010: 95ab 60c0 33fc 1bbe fb4a 983d a6b6 cbbd
00000020: 35db b43f 7ef1 463e bbcf 4a3f debc 64bf
00000030: 7665 6cbf fcbd 98bd 8b13 793e e432 133e
00000040: fbf2 85bf b595 b53f 233f 6b3d 19ff 9abd
00000050: 22fe c9be 57da 7a3e 994d 2cc0 2205 eb3e
00000060: e805 15be 984c c53d 59ba 6f3e 9dcf cdbc
00000070: 129c 32be bbef e83f 4826 933e 2741 3ebe
00000080: 0a57 183f 277a 24bb c763 903f ab35 25bf
00000090: ac75 1bbe ce7d 313e 20ea 6abf 49bb 893e
000000a0: 94f1 313f 68c4 9bbe b7ab 99be cb46 e53d
000000b0: 6c0d e93d d063 b83e 17a1 863f 056b a4bf
000000c0: 28a9 5cbd c9b6 92be 693b e13d baf2 a3be
000000d0: b876 5e3e a090 053f e0ae acbe 2921 5abd
000000e0: cde1 debe 0fa2 a2be 22a1 55c0 b527 b23f
000000f0: 84ee 1f3b f023 74bd c29c 48bf dde1 c6be
00000100: bc30 1c3f b99c 233f e934 15bf 0c30 fbbe
00000110: 9e69 24bf dab4 98be c249 16c0 363f 663f
00000120: e7d3 febd 24e1 c43e bf6b 3bbe bb31 993c
00000130: 382c 03c0 2fe2 3b3f 6302 803d 2278 f33d
00000140: 8cb3 063c 4ef2 0dbf 6db3 653e 3bd9 cebf
00000150: 2801 3a3e 52eb 793e 2cfd 0e3f 6a91 f03e
00000160: 323e 84bf 6d90 953f 4acb 5bbf 36e5 80be
00000170: c372 11bf aa0e b4bd 989e 253f 19b3 e33f
00000180: bab5 a83c 3c35 d8ba 53f7 a33f 664b a93e
00000190: c9bc abbf 99f6 b3be 83de 7c3e 396e 93bd
000001a0: 8795 993e 2519 26be c3d2 c8be ffde 033e
000001b0: 3717 16bf 4d6c 41bc 7fc6 d5be 855e b6bd
000001c0: d3be 05bf fa75 0f3e a564 3ebf 8820 e83c
000001d0: c7fc 943e 6910 e63e 62c2 2b3f 82f8 b3bc
000001e0: 46f7 143e 5d30 4e3c c6ea 81bf 4590 9d3e
000001f0: 6255 843f b8e1 eabe fd5b 683e 0b5c 073f
00000200: ccfa 503f bb06 ee3d 601a c5bf 12cd 75be
00000210: 51eb ba3e 63e1 21be ddb0 59bf 83c0 0fbe
00000220: 5599 d1bf 2019 aa3f c3d2 653e 00db 873e
00000230: 2db1 87bf 5a88 a93e 6163 723e 23d0 5f3f
00000240: 37a3 173f ac52 ed3d e6ea 48bf 0888 5e3e
00000250: 7e0c 19bf ba42 5d40 8fd3 8a3e 5d3c 8abd
00000260: 0bff 4f3f 9a2c 793e fc39 d13f 032d 15bf
00000270: e4b5 83bf 5937 9cbe 27bd b4bc 093a 9abe
00000280: 6910 3dbf 8541 e13f f462 6c3e e898 f03e
00000290: 1eb7 6cbe 5a13 cc3e 2e37 803f db5f 193e
000002a0: 931f 5fbe c3a1 0ebf feb1 323e a1e4 32be
000002b0: 8469 cbbf b2cd 98bf 561b 8fbe 0ae4 b2bd
000002c0: 9e07 733f 61b4 f8be 7d33 7fbf 498a f73e
000002d0: 3b1d eabe afe4 dd3c 4b41 4d3e 1155 1dbe
000002e0: 24b7 0f3d b747 79be 15fb b23e db23 e93d
000002f0: 699f 453e b6fd 68be 141c 2abe fe6c e6be
00000300: 31b5 8c3e 46c7 3a3c eaee c03f b953 c1be
00000310: 32b2 d53f 9332 a7bf 6315 a43d 3f3d 9cbb
00000320: e96b 353d c2b2 7ebc e00a 5d41 0e92 3340
00000330: 5a3d 513d 1f89 c23d 5e0a 873f e547 c33d
00000340: 4e44 72be b91b 31be 77c7 23bf 0c71 a0be
00000350: 760f 7b3c fefd 383d 0b92 bcbd 0f72 bf3f
00000360: 41c0 9ebd c829 413c e6ba 953e fb92 2abf
00000370: 8e31 a6be de01 2a3f 1c99 80be 1e3d 013c
00000380: 00a4 a73d fed5 a6be 0834 bbbe d9ad a33e
00000390: 55c4 393f 7114 d23d b189 cbbe 9ac4 2a3e
000003a0: 1919 13bf b8fc 08be fe08 b83c 40d5 5bbe
000003b0: a35a 593f 350f cbbe 476f 8a40 908b e3bd
000003c0: df69 8eba 5439 0abb 875a 063c 6dc9 afbb
000003d0: f477 ca41 b887 0ac1 ac1b 69bb 74df 82ba
000003e0: c146 f93b a2c0 9a3a 00e6 7ac0 d0a0 8a41
000003f0: 1a36 993f bc85 903e 2c68 83be edb1 863d
-0.9090584 -0.21965253 0.3691553 -0.09722069 -3.5104725 -0.15232925 0.074361764 -0.09946947
1.4129397 0.1942806 0.7922322 -0.8935069 -0.9234232 -0.07458112 0.24323861 0.14374882
-1.0464777 1.4186312 0.05743326 -0.07568187 -0.394517 0.24497353 -2.6922362 0.45902354
-0.14553034 0.0963375 0.2341093 -0.025123412 -0.17442349 1.819816 0.28740144 -0.18579541
0.5950781 -0.0025097223 1.128045 -0.64535016 -0.15181607 0.17333147 -0.91763496 0.269007
0.69509244 -0.30423284 -0.3001382 0.11195143 0.11379513 0.3601365 1.0517911 -1.284516
-0.053872257 -0.2865508 0.1099766 -0.32021123 0.21724975 0.52173805 -0.3372717 -0.05325428
-0.43531647 -0.31764266 -3.3379598 1.3918368 0.002440364 -0.059604585 -0.78364193 -0.38844195
0.6101186 0.63911015 -0.5828386 -0.49060094 -0.6422366 -0.2982548 -2.3482518 0.899402
-0.12442761 0.3845302 -0.1830282 0.018700471 -2.049574 0.73392004 0.06250455 0.11888148
0.008221518 -0.5544785 0.22431727 -1.6160043 0.18164504 0.24406174 0.5585506 0.46985942
-1.033148 1.16847 -0.8585707 -0.25174874 -0.5681574 -0.087918594 0.6469512 1.7789031
0.020594466 -0.0016495357 1.2809852 0.33065337 -1.3416988 -0.35149077 0.24694256 -0.07198758
0.29996893 -0.1622053 -0.39223298 0.12878035 -0.58629173 -0.011805606 -0.41753003 -0.08904747
-0.522443 0.14009848 -0.7437232 0.028335825 0.29099104 0.44934395 0.6709348 -0.021969084
0.14547452 0.012584773 -1.0149772 0.3077413 1.0338557 -0.45875335 0.2269134 0.5287482
0.81632686 0.116223775 -1.5398674 -0.2400401 0.36507657 -0.15808634 -0.85035497 -0.14038281
-1.6374918 1.3288918 0.2244368 0.2653427 -1.0600945 0.3311184 0.23670723 0.87426966
0.5923342 0.11588034 -0.78483427 0.2173158 -0.59784687 3.4571977 0.2711453 -0.06749795
0.8124854 0.2433342 1.634582 -0.5827181 -1.0289884 -0.30510977 -0.022062851 -0.30122402
-0.73853165 1.759812 0.23084623 0.46991658 -0.23116729 0.39858514 1.001684 0.14977972
-0.21789388 -0.5571558 0.17450711 -0.17470028 -1.5891576 -1.1937773 -0.27950543 -0.08734901
0.949335 -0.48575118 -0.9968794 0.4834769 -0.45725426 0.027086584 0.20044439 -0.15364482
0.035086766 -0.24343763 0.34957185 0.11383792 0.19299091 -0.22753033 -0.16612273 -0.4500503
0.27481988 0.01140005 1.5072911 -0.37759188 1.6695006 -1.3062309 0.08011892 -0.0047680433
0.044292364 -0.015545549 13.815155 2.8057895 0.0510839 0.0949881 1.0550039 0.09535197
-0.23658869 -0.17295732 -0.63976234 -0.31336248 0.01532351 0.0451641 -0.09207543 1.4956683
-0.07751513 0.011789747 0.29244155 -0.66630524 -0.32459682 0.664091 -0.25116813 0.007888107
0.081855774 -0.32585138 -0.36563134 0.31968573 0.72565204 0.10257805 -0.39753488 0.1667656
-0.5746017 -0.13377655 0.022465225 -0.21468067 0.84903926 -0.3966004 4.3260837 -0.11110604
-0.0010865292 -0.00210913 0.008200294 -0.005364588 25.30857 -8.658134 -0.0035569472 -0.0009984807
0.0076073115 0.0011806677 -3.920288 17.328522 1.1969635 0.2822703 -0.25665414 0.065769054

critic.0.bias f4 [64]
00000000: 240d 4fbf 5eb2 4a3d d7bc 513d 7e2d 903e
00000010: da8a 0fbf 6f1f a03e 44e9 093e 8b08 113e
00000020: bf7a f13d ff27 04c0 1902 98bd fa0f 33bf
00000030: fd91 35be 3c7b eabf 07a0 5d3d ec6d e9bf
00000040: e0ea 4ebe 7301 113f 4c7a 71bd 6a64 48bf
00000050: 08b8 afbe 6f68 6dbf 1692 9fbe 8b18 61bf
00000060: 847b df3d 91d9 9ebe 8e0c aabf 917f c2be
00000070: ce39 e4bf 8d3f 07bd 6233 1b3f d8af abbd
00000080: 073b 03be afdb dcbe 973c 213e 3930 203e
00000090: 23fc 86bc 192e 943e e6ed 8cbb 57ec 32bf
000000a0: d40f b3bd 9501 aebd 73b4 c9be 4c87 903f
000000b0: 751c 14be 46dc 88bf 241b 9e3c 1d3b 32bf
000000c0: 284e 91bf a27d 9ebf acda e73e cbcc 4d3e
000000d0: d1d3 96bf 3926 a9bf 4120 1ebe 56f4 81bf
000000e0: bef3 c7bd 983a 2dbe 8ad7 56bd c68b 8a3e
000000f0: 65b0 c3bf ce77 00c0 41a7 f7be c848 2c3b
-0.80879426 0.04948651 0.051205482 0.28159708 -0.56071246 0.31273982 0.1346789 0.14163415
0.1179099 -2.0649412 -0.07422275 -0.69946253 -0.17731471 -1.8318858 0.054107692 -1.823667
-0.20206785 0.56642836 -0.058954522 -0.7827822 -0.34320092 -0.9273748 -0.31166142 -0.87928075
0.109122306 -0.31025365 -1.3285081 -0.3798795 -1.783014 -0.03301959 0.6062528 -0.08383149
-0.12815486 -0.43136355 0.1574577 0.15643395 -0.01647765 0.2894142 -0.0043008206 -0.69891876
-0.08743253 -0.084963955 -0.39395484 1.1291289 -0.1446398 -1.0692222 0.019300051 -0.6962145
-1.1351976 -1.238209 0.4528402 0.20097654 -1.1783391 -1.321479 -0.15441991 -1.015269
-0.09763287 -0.16916883 -0.052451648 0.27059764 -1.5288206 -2.0073123 -0.48369792 0.0026288498

critic.2.weight f4 [64, 64]
00000000: 767e bfbd f33d 2a3e bf62 bf3e 498e b93e
00000010: 1d05 3a3f f3f2 423e 244a c0bd b1bf 5cbe
00000020: 431b 6e3e 5797 683e 293f 2fbf c816 383f
00000030: 57f1 95bc 50a5 793d c36c c03e 3160 0fbf
00000040: 672c 0cbf 269c f13d 7cc4 2c3d 9352 c8be
00000050: cddb a33e 0b78 a2bd 9789 833d a423 58be
00000060: 2ba5 873d b30d 69bf 2466 bebe 5eb7 6c3e
00000070: 4eb8 2dbd 34da debe cd39 a53e cb9f 0ec0
00000080: 8d70 e03d 30c9 283f bf3f e4bd 7b30 a13e
00000090: 83b3 bdbf 814b 53bf c758 7ebd 0055 edbe
000000a0: a5e0 64be 997a 94be 50e0 8e3e 912a d33e
000000b0: 551f 96be 397e 92be 770f bdbe 7146 ac3e
000000c0: 5051 3b3d e1ac 90bd fbec 7bbe c9b1 8e3e
000000d0: 95ac 613e 7344 15bf 2a18 61bf 364e 8dbf
000000e0: 7185 8cbe 942a 883d d725 02c0 64f5 c33e
000000f0: 30aa 9f3d 29ce 10bf f0d7 c23e c65d 43c0
00000100: 7f64 d8bd 71d0 5eba 5bc2 8abd 7c4c cebd
00000110: 6a8e fabd ea92 063e db87 0c3d 41e3 45bc
00000120: 40d0 16be facf d7bd a8fb a5bd 7571 b9bb
00000130: eddb 303d 0bb0 4e3d 0339 ffbd 6619 cabd
00000140: 1aef e43d 4ee6 e3bd dbdd 5abe 173a bebd
00000150: e821 b7bc 2f55 853d 69ea c4bd 6f5c 24be
00000160: 2d40 27be 7d90 4c3d 404e 9cbd 1a91 33be
00000170: 384f c6bd a41d f73d cf69 103e 2731 49be
00000180: c941 02be 417b 07be 16b6 cebc d60b aabd
00000190: 22f4 0abd cb31 783b be9e 28be 51d0 9fbd
000001a0: 94df e1bc 33eb 63bd 3cb3 d93b ec0d 463d
000001b0: c713 8e3d 7307 8bbd 7601 4cbe 6ab8 eabd
000001c0: bc02 f4bd 734d 59bb 973a 87be 8ef6 9ebd
000001d0: 82fd 43be 4d73 f7bd da89 d1bd 5cac 42bc
000001e0: b682 95bd 7f40 e93c b0a3 2bbe a6af 10bd
000001f0: 8c0f 2fbe 59ea f0bd c222 a53d a4a4 75bd
00000200: 7d54 e83e 9465 0fbe 9db9 cdbc 629b b4be
00000210: e24f 803e 5693 ce3c a477 59bf 84be 1ac0
00000220: 91cd 0d3f 9608 27bf 8e13 243e 2140 ab3e
00000230: 0075 5d3d e2da 7cbe 791d 47be 6011 d5be
00000240: 5ca7 32c0 5bdb 8c3e f647 c93e b6f1 4b3e
00000250: 335b be3e 1125 3ebf 3027 463e b429 bac0
00000260: da2c f4bc 7361 febe 9c63 bbbc c6e2 21c0
00000270: 03bf 37bf e377 0bbf 85b9 8bbd 7fb9 063e
00000280: f9ad f73b b7bf 9ac0 eafb 07bd fda9 ba3d
00000290: 3be9 b3be 0d90 403e 1672 2fbf 51d1 2dbe
000002a0: 23f2 80c0 bf13 8dc0 0812 05c0 fae2 8a3e
000002b0: a44a d0bf d6f7 2b3f c53c 02bd 1b06 8abf
000002c0: 93b9 253e ea20 453f fed3 0d3f 97b2 073f
000002d0: 5b80 1bbd 958c 03bf 43ac 8a3e 515c a3bf
000002e0: 1ff5 1c3f d6ea 98bf b914 51c0 8084 1fbf
000002f0: a3db babc 14f7 60bf 42c4 28be 9436 6e3e
00000300: e04a 1bbe d3b7 1cbf 768c 6d3b b027 b5be
00000310: aeba 4abf a574 c8bc 69b9 eabd 7a39 7a3d
00000320: 378f 0d3f 7966 fbbf 1df8 59be 4ef2 373d
00000330: 6d2c c73d 0a16 cdbf 590b 02be 8e7c 25bd
00000340: 5e4c f23e a9b2 113e 03c0 f03e a077 10bf
00000350: 4fce e3bd b496 0fbf 7e74 65be d2cb 9a3d
00000360: ea42 7f3e b8e1 ba3e 66d3 3e3f 8387 573f
00000370: 6bc2 ffbd 3e72 94bc 2d5d 853e 94b9 913e
00000380: 183b aa3d 8662 82bf c983 70be c9ca 423e
00000390: 6a76 00bf 6db1 a13e c672 68be dd27 243e
000003a0: 2937 f1c0 0566 e1bf aea8 02bd 2f0d 043f
000003b0: 818f 973e 71c7 c6be 37fc e03d 7cf3 62be
000003c0: 85db 313f 0be7 3b3e dc7b 1a3e a58e 353d
000003d0: d382 663e 2534 63be efa7 0c3e f89d 41be
000003e0: 2d7c f4be 2799 a4bf 17c8 d1c0 6b49 363d
000003f0: befa 2ec0 e66e 73be 550a 853f 8b08 a2be
-0.093502924 0.16625194 0.37380025 0.36241367 0.7266405 0.1903799 -0.09389141 -0.215575
0.23252587 0.22713982 -0.6845575 0.7190976 -0.018303556 0.06094867 0.3758298 -0.5600615
-0.5475525 0.11797361 0.04217957 -0.391255 0.32003632 -0.07933053 0.064227276 -0.21107346
0.066233 -0.9103653 -0.37187302 0.23116824 -0.042412095 -0.4352585 0.3227066 -2.228503
0.10958967 0.6593199 -0.11144971 0.314823 -1.4820408 -0.82537085 -0.062096383 -0.46353912
-0.2235132 -0.28999785 0.27905512 0.41243413 -0.2932078 -0.28611925 -0.3692586 0.33647493
0.045731843 -0.07064224 -0.2460212 0.27870014 0.22038491 -0.5830757 -0.87927496 -1.1039493
-0.27445558 0.06648746 -2.0335596 0.38273156 0.077961326 -0.56564575 0.38055372 -3.0525985
-0.10566043 -0.0008499688 -0.067753516 -0.10073182 -0.122341946 0.13141981 0.03430925 -0.012078107
-0.14727879 -0.10537715 -0.0810464 -0.005659277 0.043178488 0.050460856 -0.12462046 -0.098681256
0.111784175 -0.111279115 -0.21373694 -0.092884235 -0.022355035 0.06510388 -0.09615023 -0.16050886
-0.16333075 0.049942482 -0.076321125 -0.1753582 -0.096830785 0.120662004 0.14102863 -0.19647656
-0.12720408 -0.13230611 -0.02523331 -0.08303039 -0.03392423 0.0037871476 -0.16466805 -0.07803405
-0.02757243 -0.055644225 0.006643681 0.04835312 0.06937366 -0.0678853 -0.19922432 -0.114609554
-0.11914584 -0.0033157736 -0.26411888 -0.0776187 -0.19139674 -0.12082539 -0.10231371 -0.011881914
-0.07300322 0.028473137 -0.1676166 -0.03532376 -0.17095774 -0.11763448 0.0806327 -0.059971467
0.4537696 -0.14003593 -0.025112921 -0.35274798 0.25060946 0.02521674 -0.8494818 -2.4178782
0.55391794 -0.65247476 0.16023085 0.33447364 0.054066658 -0.24692872 -0.19444837 -0.4161482
-2.7914648 0.27511105 0.39312714 0.19916424 0.37178954 -0.7427531 0.19350886 -5.8175907
-0.029806543 -0.49683723 -0.022874646 -2.5294662 -0.71775836 -0.5447981 -0.068224944 0.13156699
0.007558581 -4.8359027 -0.03319923 0.09114454 -0.35138878 0.18804951 -0.68533456 -0.16974379
-4.0295577 -4.4086604 -2.0792255 0.27126294 -1.6272779 0.6717504 -0.031796236 -1.0783113
0.16184072 0.7700335 0.554016 0.5300688 -0.037964206 -0.51386386 0.2708455 -1.2762548
0.61311525 -1.1946666 -3.2668898 -0.62311554 -0.02280981 -0.8787701 -0.16481116 0.23263007
-0.15165281 -0.61217993 0.0036247051 -0.35381842 -0.791911 -0.024469683 -0.114611454 0.06108997
0.55296654 -1.9640647 -0.21286054 0.044908814 0.097252704 -1.6022351 -0.12699641 -0.040401988
0.4732389 0.1422831 0.47021493 -0.56432533 -0.111233346 -0.5608933 -0.2240772 0.07558407
0.2492787 0.36500335 0.7454132 0.8419115 -0.12488254 -0.018120881 0.2604765 0.28461897
0.083120525 -1.0186317 -0.23487772 0.19022669 -0.50180686 0.31580678 -0.22700033 0.16030832
-7.5379834 -1.7609259 -0.031899147 0.51582617 0.29601672 -0.38824037 0.10985606 -0.22163194
0.69475585 0.18349855 0.15086311 0.04432549 0.22510843 -0.2218786 0.13735937 -0.18907917
-0.4775099 -1.2859238 -6.555675 0.04450361 -2.734054 -0.23772773 1.0393778 -0.31647143

critic.2.bias f4 [64]
00000000: bf0d f13e 0853 903a 79d1 a93e 77af 073f
00000010: 6a80 eb3c 4c56 4cbf db5c 623e e564 903d
00000020: d8b3 a7be 2c79 ca3e 52af 3c3f 93e0 103e
00000030: 288c 86bd 0e5b b53e b6b9 dc3e 8e24 803d
00000040: 1cec 2d3f 7886 413e 9f2a 6fbf da83 d2be
00000050: 9a9f 303d 01c5 adbd 5225 66bd f605 f53d
00000060: 7a18 033f eb41 75c0 bdae 533f a7fd 973e
00000070: be01 5a3f 4de2 213f 9de7 243f 6a11 f63e
00000080: 4503 7bbd 9451 cdbe 4246 6a3d 34dc 293f
00000090: d839 00bf 0716 493e 289a 53be 8ad0 33be
000000a0: 5635 a93c fe46 8e3f cee9 b4bf 4bbc 563f
000000b0: cc55 92bf e4fb 94be 873d a6bd afb3 463e
000000c0: af68 0f3e 384b 363f 9e7c 163e da13 c7be
000000d0: e21c 90bf bfc0 343d b7bb f0bd c6da 8c3e
000000e0: 565b db3e 0953 823d ded3 a6be 5d39 cd3e
000000f0: 59eb 033d 9098 133f 0de5 333e 4ab9 003f
0.470808 0.0011011073 0.33167627 0.53002113 0.028747756 -0.7981918 0.22105734 0.07050494
-0.32754397 0.39545572 0.7370502 0.14148168 -0.065697014 0.35421032 0.43110436 0.06256972
0.679384 0.18898952 -0.9342441 -0.4111622 0.043120958 -0.08484841 -0.056187935 0.119640276
0.51209223 -3.8321483 0.82688504 0.2968571 0.8515891 0.6323593 0.64415914 0.4806016
-0.061282415 -0.40101302 0.05719591 0.6635163 -0.5008826 0.19637309 -0.20664275 -0.1756002
0.020655315 1.1115415 -1.4133852 0.8388106 -1.1432433 -0.29098427 -0.08117204 0.19404481
0.14004777 0.71208525 0.14695975 -0.38882333 -1.1258814 0.04412913 -0.11754554 0.2751066
0.4284312 0.06363494 -0.32583517 0.40082827 0.032206867 0.57654667 0.17567845 0.5028273

critic.4.weight f4 [1, 64]
00000000: 1743 cbbd 4ef4 5bbe 589d ebbe ac28 3b3e
00000010: a2e5 40be 3932 a83e d92d 783e 5224 0d3e
00000020: d2f8 e73e 93d6 36bd 7da8 23be db11 a03e
00000030: 0802 45bd 0f48 6a3f 0d18 47bd 84d7 9fbd
00000040: c157 22be 5629 d23e 33a9 2040 7827 66bf
00000050: 6eba 12bc 50bc 9ebb 54c5 313e d3a8 05bf
00000060: 60ae 623f 3c71 963d 2fd9 d5be f8aa d23f
00000070: b05f f5bc 4842 303e 2af6 f5bd c28e 24bf
00000080: bac5 3cbe f6fa 5f40 ddbf 453d d674 06bf
00000090: a5cb 043f 7c19 aa3d 5bcc 223e 74e0 ddbd
000000a0: 620c bebd 11c8 3cbd 4f98 1440 81a8 9ebd
000000b0: 5d18 1e40 9e42 30bc 518d 7b3b e89c d93f
000000c0: 2848 753e 86aa 8cbf e69c c6be c225 9f3f
000000d0: 9bfe 3c40 a681 4740 a641 f8bd c74a 413f
000000e0: f138 c1bf 8245 5840 e49d 9ebe eb8a c33e
000000f0: f66e 9f3c 0dd3 b4bd 6681 f0bf 1b1f 0fbf
-0.09924906 -0.21479914 -0.4601848 0.18277234 -0.18837598 0.32850817 0.2423624 0.13783386
0.45307022 -0.044638228 -0.15982242 0.31263623 -0.04809764 0.915162 -0.04860692 -0.07804778
-0.15853788 0.41047162 2.510327 -0.89903975 -0.008955581 -0.004844226 0.17360431 -0.5221073
0.88547325 0.073458165 -0.4176726 1.6458426 -0.029952854 0.17212784 -0.12009843 -0.6428033
-0.18434802 3.4996924 0.04827868 -0.5252203 0.51873237 0.08305642 0.15898268 -0.10833827
-0.092797056 -0.046089236 2.3217962 -0.07746983 2.470237 -0.01075807 0.0038383792 1.7001009
0.23953307 -1.098954 -0.3879158 1.2433398 2.95304 3.117288 -0.121218964 0.75504726
-1.5095502 3.3792424 -0.30979836 0.38191923 0.01946209 -0.08829317 -1.8789489 -0.5590684
