Pre-trained/HAC_Pendulum-h-v1_solved_level_1_actor.pth (torch, 21566 bytes, 6 tensors)

actor.0.weight f4 [64, 4]
0	0x3ef6701b	0.48132405
1	0x3e798c7e	0.2437
2	0x3fe6f2b6	1.804282
3	0xbf366408	-0.71246386
4	0x3de13374	0.10996142
5	0x3dbec8bf	0.09315633
6	0xbf888854	-1.0666604
7	0x3e919a6c	0.28438127
8	0x3cf36594	0.029711522
9	0x3da2f4b4	0.0795683
10	0x3ed9b616	0.42521733
11	0xbbdb65db	-0.0066954917
12	0x3c83b536	0.016077619
13	0x3e896558	0.26835132
14	0xbda0678b	-0.07832249
15	0xbe732b47	-0.23746978
16	0xbf342a85	-0.7037738
17	0xbe3d29c3	-0.18472962
18	0xbf0dacc4	-0.55341744
19	0x3eaff1ea	0.34364253
20	0xbed195f9	-0.40934733
21	0x3d6ee48b	0.058323424
22	0x3f5cec3f	0.8629798
23	0xbf54f37b	-0.8318402
24	0xbf93a30c	-1.1534133
25	0xbea765e9	-0.3269494
26	0xbea5db84	-0.3239404
27	0x3f69db73	0.9135048
28	0x3f1a6f98	0.6032653
29	0x3dfcb040	0.123383045
30	0xbe067e66	-0.13134155
31	0xbef9a6e2	-0.48760134
32	0xbe204fe3	-0.15655474
33	0x3e0b4ec0	0.1360426
34	0x3f44a63b	0.7681615
35	0x3e5c6f04	0.21526724
36	0xbe5a8cfd	-0.21342845
37	0x3aded182	0.0016999694
38	0x3f1233b9	0.5711017
39	0x3e01d79c	0.12679905
40	0x3e3724ad	0.17885084
41	0x3e17784e	0.14791986
42	0x3e21ef23	0.1581388
43	0x3fb329c7	1.3997124
44	0x3e40be2c	0.18822545
45	0x3ea2fa3b	0.31831536
46	0x3f7986a8	0.97471094
47	0x3e34f0f9	0.17670049
48	0x3e00aec8	0.12566674
49	0x3e83c4cd	0.25736085
50	0xc0240ea9	-2.5633948
51	0x3effe811	0.4998174
52	0xbeb69ec3	-0.35668
53	0x3d2675ea	0.040639795
54	0xbe110b49	-0.14164461
55	0x3f1eeeab	0.6208293
56	0x3dbd0be4	0.092307836
57	0xbd994689	-0.07484157
58	0xbfbe4e18	-1.4867582
59	0x3eb16737	0.3464906
60	0xbf32d778	-0.6986003
61	0xbe4782e7	-0.19483529
62	0x4052c483	3.2932441
63	0xbfe53508	-1.7906809
64	0xbe091b27	-0.13389264
65	0x3d036e76	0.032087766
66	0xbfefa240	-1.872139
67	0x3edefe4d	0.4355339
68	0x3d9511ef	0.07278811
69	0x3c5a14b3	0.013310599
70	0x3f46ae13	0.77609366
71	0x3cdf0689	0.027224796
72	0x3f186886	0.5953449
73	0x3cd45707	0.025920404
74	0x3f59dc4c	0.8510177
75	0xbfc67182	-1.550339
76	0xbec61b80	-0.38692856
77	0x3cc57bfe	0.024106976
78	0xbfa3c8e6	-1.2795684
79	0x3f3548cc	0.70814204
80	0xbbcc37cf	-0.006232239
81	0xbc9cf849	-0.01916136
82	0x3d307e88	0.04308942
83	0xbef54d35	-0.47910467
84	0x3e442ffe	0.19158933
85	0x3de89536	0.11356585
86	0x3db3d485	0.08780769
87	0x3f4bdfc3	0.7963831
88	0xbe6098d9	-0.21933307
89	0xbe2ba447	-0.16761886
90	0xbf3be8b0	-0.7340193
91	0x3e7f520f	0.24933647
92	0x3e3c2524	0.18373543
93	0x3d8ec2a7	0.06970721
94	0x3ead60eb	0.33863005
95	0x3f4e984e	0.8070115
96	0x3e320f32	0.17388609
97	0xbde6c4ed	-0.11268029
98	0x3ec452f7	0.38344547
99	0xbf145d88	-0.5795522
100	0xbf95952e	-1.1686151
101	0xbe97e534	-0.29667056
102	0x3ee05fbe	0.43823045
103	0xbda6fa23	-0.081531785
104	0x3e4ce00f	0.20007347
105	0x3e98f859	0.29876974
106	0x3f9cf141	1.2261125
107	0xbe989354	-0.29799902
108	0xbc08dc02	-0.008353235
109	0x3d2db317	0.04240712
110	0x3d67d220	0.056596875
111	0x3eef5870	0.4674716
112	0xbeffd94d	-0.49970475
113	0xbb51dbf0	-0.0032021962
114	0xbf0a97bc	-0.5413778
115	0xbf37c47f	-0.71784204
116	0xbd13416e	-0.03595107
117	0xbc9ad79d	-0.01890164
118	0x40b826a1	5.7547154
119	0x4041f864	3.0307856
120	0x3e6f5918	0.2337383
121	0x3e7965c2	0.24355224
122	0xbe8ef4ed	-0.2792124
123	0xbf787f2b	-0.9706904
124	0xbf1c18e4	-0.6097548
125	0xbdc9ef4e	-0.09860097
126	0x3e0de982	0.13858607
127	0x3d903be9	0.07042677
128	0xbed0fca7	-0.40817758
129	0x3cfd8a06	0.030949604
130	0x3f90ab1a	1.1302216
131	0x3ec10626	0.37700003
132	0xbd8404e2	-0.06446244
133	0xbd81ee4c	-0.0634428
134	0x3cb2416d	0.021759713
135	0xbfeb80f9	-1.8398734
136	0x3d9cce93	0.076565884
137	0x3cbf7702	0.023372177
138	0xc0856ca6	-4.1695127
139	0x3efd1459	0.49429587
140	0x3d625b88	0.055263072
141	0x3df7ab9e	0.1209328
142	0xbead0d97	-0.3379943
143	0xbfe8abab	-1.8177389
144	0xbd81662e	-0.06318317
145	0x3de8d0fe	0.11367987
146	0xbf308dfd	-0.68966657
147	0xbfa55ba4	-1.2918591
148	0xbec0c4dd	-0.37650195
149	0xbb9385dc	-0.0045020413
150	0x3dc7a0e0	0.09747481
151	0x3f7c8333	0.98637694
152	0xbdddddba	-0.108333066
153	0xbc046c6a	-0.008082489
154	0xc05a15b8	-3.4075756
155	0x3d6c2469	0.05765191
156	0xbed117e1	-0.4083853
157	0xbd7c38c8	-0.06157759
158	0xbf779eba	-0.9672657
159	0xbdd5532b	-0.10416254
160	0xbeb799e8	-0.3585961
161	0x3da5c710	0.08094609
162	0x3f282773	0.65685195
163	0xbd8304d1	-0.06397403
164	0xbe14e394	-0.14539939
165	0xbe1f887a	-0.15579405
166	0x3e5c69da	0.21524754
167	0x3e1ebb0e	0.15501043
168	0xbf08f9c4	-0.5350611
169	0xbe26278f	-0.16226028
170	0x408e04c1	4.4380803
171	0xc096ce0c	-4.712652
172	0xbf02299d	-0.50844747
173	0xbdf8e6be	-0.121533856
174	0x3f23d38c	0.6399467
175	0xbf44c189	-0.7685781
176	0xbe15752a	-0.14595476
177	0xbe5cb5b4	-0.21553689
178	0xbf2e8a1d	-0.68179494
179	0xbf230a94	-0.63688016
180	0xbca6b9e9	-0.02035232
181	0x3ac09a87	0.001469449
182	0x3cec47be	0.028842803
183	0x3ee19ba1	0.44064048
184	0xbe2f4d62	-0.17119363
185	0xbe12d8e2	-0.14340547
186	0x40987996	4.764842
187	0xbe9753da	-0.2955616
188	0xbeaacf86	-0.33361453
189	0xbc56839a	-0.0130929
190	0x3fe7dfe1	1.8115197
191	0xbe5c9aef	-0.21543477
192	0xbaf33987	-0.0018556573
193	0x3b3bfe03	0.0028685338
194	0xc03d5050	-2.958027
195	0xbf0c31ca	-0.5476347
196	0xbc4f32e7	-0.012646413
197	0x3b6ce3e7	0.0036146583
198	0xbf0e9204	-0.5569155
199	0xbf53fc68	-0.82807016
200	0xbef97b55	-0.48726907
201	0x3cf112b1	0.029427858
202	0xbf10459d	-0.5635622
203	0xbe59de1b	-0.21276133
204	0x3e5ee963	0.21768717
205	0x3cfc9dba	0.030836929
206	0xbfd82c82	-1.6888583
207	0x3fcc8382	1.5977633
208	0x3eb17339	0.3465822
209	0xbd33f0d8	-0.04393086
210	0x405828e4	3.3774958
211	0xc0131a88	-2.2984943
212	0x3eb39a11	0.3507848
213	0xbda0f0d2	-0.07858433
214	0x3f7bad02	0.98310864
215	0xbf342f91	-0.7038508
216	0x3cc5e630	0.024157614
217	0xbc624edc	-0.013812747
218	0x3c3e64bb	0.011620696
219	0xbede11d3	-0.43372974
220	0xbdf024ac	-0.117257446
221	0xbced77a9	-0.028987722
222	0xbf81dc6e	-1.0145395
223	0x3cf930df	0.030418811
224	0x3e19afe0	0.15008497
225	0x3cacec17	0.02110867
226	0x3f05b0f6	0.52223146
227	0x3e3ad9da	0.18247166
228	0xbed155b3	-0.40885696
229	0x3d4cf505	0.050038356
230	0x3eddd282	0.43324667
231	0xbe694bbf	-0.22782801
232	0x3f0c720f	0.5486154
233	0x3e193027	0.14959775
234	0x407a61f6	3.912229
235	0xbfb625d5	-1.4230295
236	0x3cfcf130	0.030876726
237	0xbccc57ce	-0.024944212
238	0xc0502f4a	-3.2528863
239	0xbf06bff2	-0.52636635
240	0x3ef8a166	0.48560637
241	0x3f01741e	0.50567806
242	0x3fc43e67	1.5331544
243	0xbf9be8ca	-1.2180417
244	0xbe1efd40	-0.15526295
245	0xbd39c464	-0.04535331
246	0x40937152	4.607583
247	0xbea62778	-0.32451987
248	0x3ee6b635	0.45060888
249	0x3dcc1ab3	0.0996603
250	0x3eb601a8	0.3554814
251	0xbee09eab	-0.43871054
252	0xbd901dcc	-0.07036933
253	0xbaf48764	-0.0018656072
254	0x404f1ce3	3.236138
255	0xbf018eef	-0.50608724

actor.0.bias f4 [64]
0	0xbf85b5c4	-1.0446095
1	0xbf0c84e7	-0.5489029
2	0x3bfe4179	0.00775927
3	0xbf6635a2	-0.8992559
4	0xbe540af0	-0.20707297
5	0xbf25527e	-0.64579
6	0x3ec1f594	0.37882674
7	0xbeeff24e	-0.4686455
8	0xbf432eaa	-0.7624308
9	0xbf34c908	-0.7061925
10	0xbe569661	-0.20955803
11	0xbf61850b	-0.8809363
12	0xbf439d0c	-0.7641151
13	0xbf47dcf7	-0.7807154
14	0x3c1a891d	0.009432104
15	0x3d68024c	0.056642815
16	0x3e75ae28	0.23992217
17	0xbfb5df39	-1.4208747
18	0xbf90a1a5	-1.129933
19	0xbf89f0ac	-1.0776572
20	0xc00844fe	-2.129211
21	0xbef5c27b	-0.4799994
22	0xbf98b96a	-1.1931584
23	0x3e0dede9	0.13860287
24	0xbd46db1b	-0.0485488
25	0xbf0a18fe	-0.53944385
26	0xbf3a2c5a	-0.72723925
27	0xc003aaf9	-2.0573103
28	0xbd432d84	-0.04765083
29	0xbbaa9226	-0.0052054105
30	0xbfdd90f9	-1.7309867
31	0xbf1841ec	-0.5947559
32	0xbfa8b3b8	-1.3179846
33	0xbd721d0c	-0.059109733
34	0xbcaf18fa	-0.021374214
35	0xbf2e598a	-0.68105376
36	0xbf6280d2	-0.88477814
37	0x3cb9e057	0.022689981
38	0xbd491ea3	-0.049101483
39	0xbf991db1	-1.1962186
40	0xbf77a2d9	-0.9673286
41	0xbef49a88	-0.47774148
42	0xbea63007	-0.32458517
43	0xbf7b087d	-0.9805983
44	0xbf6d19bf	-0.9261741
45	0xc03550a2	-2.8330464
46	0xbf9b7a7a	-1.2146752
47	0xbeecf2f8	-0.4627912
48	0xbce8eb6d	-0.028432572
49	0xbd825ee2	-0.06365754
50	0xbf483e59	-0.78220135
51	0x3d6f45d8	0.058416218
52	0x3f3a373a	0.7274052
53	0xbf6d99ee	-0.92813003
54	0xc037ec4c	-2.8737974
55	0xc010d48e	-2.2629733
56	0x3df9d14c	0.12198123
57	0xbf97ef23	-1.1869854
58	0xbe48275a	-0.19546261
59	0xbe943c27	-0.28952143
60	0xbf80f9f6	-1.0076282
61	0xbd454290	-0.048159182
62	0xbf944040	-1.1582108
63	0x3d82ee29	0.06393082

actor.2.weight f4 [64, 64]
0	0xbdd25201	-0.10269547
1	0xbd56dfd6	-0.05245956
2	0x3da87c0a	0.082267836
3	0xbcd6f5bc	-0.026240222
4	0xbdcc9a2c	-0.099903435
5	0xbe0fd996	-0.14047846
6	0x3c2cd198	0.010548018
7	0xbe4f1d4b	-0.20226018
8	0xbe20f2b0	-0.15717578
9	0x3d832144	0.06402829
10	0xbe1a14fa	-0.15047064
11	0x3d17a708	0.037024528
12	0xbd8472c0	-0.06467199
13	0xbdda3b0e	-0.10655795
14	0xbd4f90c3	-0.050675165
15	0xbda336c2	-0.079694286
16	0xbda0affa	-0.07846065
17	0xbe085dc9	-0.13317026
18	0xbd6fb39f	-0.05852091
19	0xbe360f55	-0.17779286
20	0x3d902672	0.07038583
21	0x3d1fac74	0.038982823
22	0xbde19aa3	-0.11015823
23	0xbbd2c574	-0.0064322297
24	0xbdf4245e	-0.11920999
25	0x3d9632e6	0.07333927
26	0xbc8e7ffc	-0.017395012
27	0xbe037d94	-0.12840873
28	0xbd9ca895	-0.07649342
29	0xbcd302c3	-0.025758153
30	0x3dfbd4ec	0.12296471
31	0x3b0f18af	0.002183478
32	0xbdc3a1ed	-0.09552369
33	0xbd5969ac	-0.053079292
34	0xbdec962e	-0.11552082
35	0x3c326247	0.010887689
36	0xba364271	-0.00069526496
37	0x3c20bdf5	0.009810914
38	0xbdd68465	-0.10474471
39	0xbe10e1b3	-0.14148597
40	0xbda97a2d	-0.08275256
41	0x3d91c050	0.07116759
42	0x3deaf584	0.1147261
43	0x3bff573d	0.007792382
44	0xbe2be533	-0.16786651
45	0x3d463d31	0.0483982
46	0x3d81abdd	0.063316084
47	0xbdf2680e	-0.11836253
48	0xbdb3778c	-0.08763036
49	0xbdb70082	-0.08935644
50	0xbda9cf02	-0.08291437
51	0xbd958da7	-0.07302409
52	0xbdd655ba	-0.1046557
53	0xbe21cb05	-0.15800102
54	0xbbf06709	-0.0073365015
55	0xbcabeb70	-0.020986289
56	0xbd96f723	-0.07371356
57	0xbe0d31d0	-0.13788533
58	0xbd88447b	-0.066536866
59	0xbb44eebe	-0.0030049528
60	0x3bf98215	0.007614384
61	0xbe13c338	-0.14429939
62	0x3dbaf9db	0.091296874
63	0xbc8753c1	-0.01651943
64	0xbc018b30	-0.00790672
65	0x3d927725	0.07151631
66	0x3d2a1764	0.041526213
67	0xbd8c7f78	-0.0686025
68	0xbde86784	-0.11347869
69	0xbde5b8e8	-0.11216909
70	0xbe269232	-0.16266707
71	0xbd720cb7	-0.059094157
72	0xbc216c4d	-0.009852481
73	0xbba3c121	-0.004997388
74	0xbd84d2ff	-0.06485557
75	0xbd2dd290	-0.042437136
76	0x3d4b25bb	0.04959653
77	0xbd02dabb	-0.03194688
78	0xbdebbd6f	-0.11510741
79	0x3cef1a5f	0.02918738
80	0x3c151212	0.009098547
81	0xba7d2f5c	-0.0009658241
82	0x3d11c5b3	0.03558893
83	0xbe28a16e	-0.1646783
84	0x3d7ade6d	0.061247278
85	0x3c8bbc9c	0.01705771
86	0xbce34372	-0.027742121
87	0xbdf29e8c	-0.11846647
88	0x3d8f1fe9	0.06988508
89	0xbd4d04e7	-0.050053503
90	0xbdd59f93	-0.10430827
91	0x3d26370b	0.040579837
92	0xbd94a326	-0.072576806
93	0xbd2ebc54	-0.042660072
94	0x3d991694	0.074750096
95	0x3dc217b1	0.09477175
96	0xbc8713bd	-0.016488904
97	0xbddf3859	-0.10899419
98	0xbd834b36	-0.0641083
99	0xbdf38a31	-0.11891592
100	0x3d2862f6	0.04111
101	0x3d42577f	0.047446724
102	0xbe14675e	-0.14492556
103	0x3d2134f4	0.03935714
104	0xbca070e1	-0.019585075
105	0xbd53dc7c	-0.051723942
106	0xbd87a7b7	-0.06623786
107	0xbe0622c7	-0.13099204
108	0xbdf77093	-0.12082019
109	0x3d9ead4f	0.077479
110	0xbd0fec8a	-0.03513769
111	0xbdd3a75a	-0.10334654
112	0xbe0cc7c4	-0.1374808
113	0xbcc22e12	-0.023703609
114	0xbdf59458	-0.11991185
115	0x3c32aa7a	0.010904903
116	0xbe1980d6	-0.14990553
117	0xbb4808f7	-0.0030522922
118	0xbdfd8e05	-0.12380604
119	0xbdcb852b	-0.09937509
120	0x39a6095a	0.00031668955
121	0xbd8b20d6	-0.06793372
122	0xbd3529a3	-0.04422916
123	0x3d47838b	0.048709434
124	0xbd00e775	-0.031470735
125	0xbd239e79	-0.039946053
126	0x3cf37901	0.029720785
127	0xbd8719c1	-0.06596709
128	0xbef13bea	-0.47116023
129	0xbf95bcd5	-1.1698252
130	0x3e2fc37f	0.1716442
131	0x3e87ac3b	0.2649859
132	0x3dc8ff6b	0.09814342
133	0xbeb028c2	-0.34406096
134	0x3d085d78	0.033292264
135	0xbf363927	-0.7118096
136	0x3f01bafd	0.50675946
137	0xbe0b1f7c	-0.13586229
138	0x3d64b7f4	0.055839494
139	0x3e8d68a6	0.27618903
140	0x3da17387	0.07883363
141	0x3e810dd1	0.25205854
142	0xbdd4bc83	-0.10387518
143	0xbe484492	-0.19557407
144	0xbee86e21	-0.45396522
145	0x3e9f2270	0.3108096
146	0x3d94fd53	0.0727488
147	0x3ea890bc	0.32922924
148	0x4007d70e	2.122501
149	0xbf330100	-0.699234
150	0xbf0b5aa4	-0.5443518
151	0x3c857ba6	0.016294312
152	0xbce7bc6d	-0.02828809
153	0x3d859255	0.06522051
154	0x3e078279	0.13233365
155	0x3f9d62fe	1.2295835
156	0xbedf97a1	-0.4367037
157	0x3eb922f7	0.3615949
158	0xbe5daa14	-0.21646911
159	0xbe9b86d8	-0.30376315
160	0xbe43fd11	-0.19139506
161	0xbd31bae4	-0.043391123
162	0x3f34d66e	0.70639694
163	0x3e29eeee	0.1659505
164	0xbdc77006	-0.09738164
165	0xbf4de0c1	-0.8042107
166	0x3dcee1f1	0.10101689
167	0x3e93f847	0.28900358
168	0xbee5bd05	-0.44870773
169	0x3e6d68d0	0.23184514
170	0xbc084048	-0.008316107
171	0x3e9ec28c	0.31007802
172	0x3e06e880	0.13174629
173	0x4098b289	4.771794
174	0x3e687aba	0.22703066
175	0x3dc6b9ed	0.09703431
176	0x3c6aa195	0.014320751
177	0xbe841cbb	-0.2580317
178	0xbfb539e5	-1.4158293
179	0xbe252cea	-0.16130415
180	0xbd9d3418	-0.07675952
181	0x3e4791a9	0.19489159
182	0xbfbfc260	-1.4981194
183	0x4098b816	4.7724714
184	0x3e8ffc90	0.28122377
185	0x3ea4caa0	0.3218584
186	0xbb7ac06d	-0.0038261667
187	0xbeecb80c	-0.46234167
188	0x3e81ff22	0.25389963
189	0x3eff5ae7	0.4987404
190	0xbb8f61d6	-0.0043756766
191	0xbe76f146	-0.24115476
192	0xbe09d3cc	-0.134597
193	0xbe18ee75	-0.14934714
194	0xbe81d67a	-0.25358945
195	0xbdc984fb	-0.09839817
196	0xbd1c5ac6	-0.038172506
197	0xbeb5de91	-0.35521367
198	0x3d872b08	0.066000044
199	0xbdfd8fdb	-0.12380954
200	0x3d2e47e6	0.042549036
201	0x3dfcf56d	0.12351499
202	0xbe31fa04	-0.1738053
203	0xbe33ba55	-0.17551549
204	0xbe86685d	-0.26251498
205	0xbe8bfa79	-0.27339533
206	0xbe533ffa	-0.20629874
207	0xbd6f533f	-0.058429
208	0xbf00e03d	-0.5034216
209	0xbdea36c2	-0.114362255
210	0xbe14ad9c	-0.14519352
211	0xbebcaaa7	-0.36848947
212	0xbea1c17f	-0.31592938
213	0xbd1b5462	-0.03792227
214	0x3dba6cd5	0.09102789
215	0xbea81ae1	-0.32833007
216	0x3d7ee8f7	0.06223389
217	0xbb0ad97a	-0.0021186755
218	0xbe4aace3	-0.19792514
219	0xbd37ad73	-0.04484315
220	0xbe7028d8	-0.2345308
221	0xbeacc34a	-0.33742744
222	0xbdae9de0	-0.08526206
223	0xbe417b99	-0.18894805
224	0xbda50d09	-0.08059127
225	0xbeef1ea7	-0.46703073
226	0xbe0f41f7	-0.13990007
227	0xbe56ea61	-0.20987846
228	0xbe99264b	-0.29912028
229	0xbf1d9502	-0.6155549
230	0xbec979d5	-0.39350763
231	0xbb06259f	-0.0020469201
232	0xbde8c213	-0.11365142
233	0xbc8460e8	-0.01615949
234	0xbe0c1fc5	-0.13683994
235	0x3e0a4c6e	0.13505718
236	0xbec066e6	-0.37578505
237	0xbe7803d8	-0.24220216
238	0xbe84d11c	-0.25940788
239	0xbe22f600	-0.15914154
240	0x3e0ed9b2	0.13950232
241	0x3dbadf55	0.091246285
242	0x3e2d2fde	0.16912791
243	0xbeea7f4d	-0.45800248
244	0xbe4da18a	-0.20081154
245	0xbeb1d4f7	-0.34732792
246	0xbeb66bbc	-0.3562907
247	0xbe90d887	-0.28290197
248	0x3dbfa372	0.093573466
249	0xbb03fe97	-0.002014076
250	0xbe04eeb0	-0.12981677
251	0xbe721076	-0.23639092
252	0xbd88e79d	-0.06684802
253	0xbdd4b45b	-0.103859626
254	0x3d5a1350	0.053241074
255	0x3e268256	0.16260657

actor.2.bias f4 [64]
0	0xbd7df653	-0.06200249
1	0xbe0f27fd	-0.13980098
2	0x3e0ab095	0.13543923
3	0x3e564058	0.20922983
4	0xbe1e554b	-0.15462224
5	0x3df7b55f	0.12095141
6	0x3dca13d1	0.09867061
7	0xbe24097b	-0.16019242
8	0xbc18fcc1	-0.009337605
9	0x3d911aec	0.07085213
10	0xbf4ad0ae	-0.7922467
11	0xbe2cd8b8	-0.16879547
12	0xbdbcc57e	-0.09217356
13	0x3d3e77f4	0.046501115
14	0xbe27c221	-0.16382648
15	0xbb711e5c	-0.0036791777
16	0xc0187b45	-2.3825238
17	0xbdfc349b	-0.12314721
18	0xbcb76d12	-0.022390876
19	0xbdb55e9b	-0.08855935
20	0xbe802fad	-0.25036374
21	0xbdc5b827	-0.09654265
22	0xbe049e1d	-0.1295094
23	0xbdcd0bdc	-0.100120276
24	0x3cda4373	0.02664349
25	0xbe25a331	-0.16175534
26	0xbe0c2091	-0.13684298
27	0x3e1202f1	0.14258935
28	0x3cf29305	0.02961112
29	0xbdae5104	-0.08511546
30	0xbce3d37c	-0.027810805
31	0xbeccef90	-0.40026522
32	0xbe3b1146	-0.18268308
33	0xbc9a8b22	-0.018865172
34	0x3cf83546	0.03029884
35	0xbf053cbc	-0.520458
36	0xbe5ebd33	-0.21751861
37	0xbe1daf26	-0.15398845
38	0x3ca6de6c	0.02036973
39	0x3c9e1311	0.019296201
40	0x3e55bcdd	0.20872827
41	0xbd6d8d74	-0.05799623
42	0xbe204fe5	-0.15655477
43	0xbd04291d	-0.03226577
44	0xbe13595b	-0.14389555
45	0x3e152594	0.14565116
46	0x3d5bb52e	0.053639583
47	0x3d588af0	0.052866876
48	0xbe03952b	-0.12849872
49	0x3e412fb4	0.18865854
50	0x3d46cb26	0.04853358
51	0xbd8e08bb	-0.06935259
52	0xbea501f4	-0.32228053
53	0x3e8d8636	0.27641457
54	0xbd802902	-0.062578216
55	0x3e826255	0.25465646
56	0x3d8c8968	0.06862146
57	0xbe07ac7d	-0.13249393
58	0xbe4544e5	-0.19264562
59	0xbe037797	-0.12838589
60	0xbd1eb784	-0.038749233
61	0xbe11c69e	-0.14235923
62	0xbd967ac5	-0.07347635
63	0xbe15c50f	-0.14625953

actor.4.weight f4 [2, 64]
0	0xbdbec0de	-0.0931413
1	0x3d057049	0.032577787
2	0xbd845511	-0.06461538
3	0x3f04387f	0.51648706
4	0xbdb02057	-0.08599918
5	0xbdb39267	-0.087681584
6	0xbf8d6f43	-1.1049579
7	0x3e6a96fd	0.2290916
8	0xbe1b6adc	-0.15177482
9	0xc02bd1c8	-2.684679
10	0x40b86e33	5.763452
11	0xbdd63050	-0.10458434
12	0xbe136684	-0.14394575
13	0x3cf0069b	0.029300025
14	0xbe01d3f2	-0.12678507
15	0xbe5a4f0d	-0.21319218
16	0x3e66b299	0.22529067
17	0x3ea3264a	0.3186515
18	0x3de734c3	0.112893604
19	0x3c85c62d	0.01632985
20	0x3c28ce63	0.010303113
21	0x3e9df662	0.30852038
22	0xbc4b4c8e	-0.012408389
23	0x3eb44acf	0.35213324
24	0x3f3c6fdc	0.73608184
25	0xbcfa4174	-0.030548789
26	0x3d2fdb4e	0.042933755
27	0xbe015ba7	-0.12632619
28	0xbc7bee39	-0.015376621
29	0xbe035769	-0.12826313
30	0x3d8afe7c	0.0678682
31	0x3f33100f	0.6994638
32	0xbe2bd7bc	-0.16781515
33	0xbc0ff8be	-0.008787332
34	0x3d790a83	0.06080104
35	0xbf69db9b	-0.91350716
36	0xbe5e26e5	-0.21694525
37	0x3f53f357	0.8279318
38	0x3e20c73d	0.15701003
39	0xbea1b77d	-0.31585303
40	0xbe5a5115	-0.21319993
41	0x3d908759	0.070570655
42	0x3cf3ff02	0.029784683
43	0x3db60fe7	0.08889752
44	0x3d635146	0.05549743
45	0x3cd3688f	0.025806693
46	0xbcc6798b	-0.024227878
47	0xbe4a7068	-0.19769442
48	0x3e092711	0.13393809
49	0x3e1c4fbd	0.15264793
50	0xbde787da	-0.113052085
51	0xbdf41d00	-0.11919594
52	0x3e32d824	0.17465264
53	0x3f924faa	1.1430562
54	0xbf872266	-1.0557373
55	0x3ebad50a	0.3649066
56	0x3db530b2	0.088471785
57	0x3e1938d9	0.14963092
58	0x3cde2da1	0.027121367
59	0xbd2af726	-0.041739605
60	0x3e0863b6	0.13319287
61	0x3e04d0e1	0.12970306
62	0xbd3a0d71	-0.045422975
63	0x3d6231ba	0.055223204
64	0x3b9a1786	0.0047025112
65	0x3d840e0d	0.064479925
66	0x3d4a9fec	0.04946892
67	0x3b495930	0.0030723326
68	0xbceca697	-0.02888803
69	0x3e134cdc	0.14384788
70	0x3ffae78f	1.9601916
71	0xc0c42679	-6.1296964
72	0xbc82195c	-0.015881233
73	0x408a2377	4.316829
74	0x4110a7a9	9.040933
75	0xbd151400	-0.036396027
76	0x3d3abe14	0.04559143
77	0xbdfb479d	-0.122695185
78	0x3c9c0983	0.019047504
79	0xbd915178	-0.07095617
80	0x3be7c056	0.007072489
81	0x3f330d4e	0.69942176
82	0x3e61a179	0.22034253
83	0xbde50eea	-0.11184485
84	0xbb8ba8ef	-0.004262082
85	0x402b9866	2.6811767
86	0xbd35d17b	-0.04438923
87	0xbccf7e09	-0.025328653
88	0x3f918411	1.1368428
89	0xbd1b7f8e	-0.037963443
90	0xbce4da0e	-0.027936008
91	0xbb53a5e0	-0.0032294914
92	0x3e1e45d1	0.1545632
93	0x3bda2d86	0.006658259
94	0xbd42fdf3	-0.047605466
95	0x401a99dc	2.4156408
96	0xbd391619	-0.04518709
97	0xbddcfc91	-0.10790361
98	0xbe0e7016	-0.13909945
99	0xbf8a6729	-1.0812732
100	0x3c8a5c74	0.016889788
101	0x3d5ccb19	0.053904627
102	0x3e63ea4e	0.22257349
103	0x3ee79fd8	0.4523914
104	0x3eaebb54	0.34127295
105	0x3eadc9e7	0.33943102
106	0x3c1bee3e	0.009517251
107	0xbbaac258	-0.005211156
108	0x3b963ea1	0.0045851027
109	0xbdbf9282	-0.09354116
110	0x3e0ba68b	0.1363775
111	0xbd1971cb	-0.037462037
112	0xbc55c1c9	-0.01304669
113	0xbf1d99dd	-0.615629
114	0x3cc5ac88	0.02413012
115	0x3f077390	0.5291071
116	0xbd228e75	-0.03968664
117	0xbe228eca	-0.15874782
118	0xbf40f8c1	-0.7537957
119	0xbf174895	-0.59095126
120	0x3d610e94	0.054945543
121	0xbebcf11f	-0.3690271
122	0xbd46db98	-0.048549265
123	0x3b4df617	0.0031427199
124	0x3e14f1a4	0.14545304
125	0x3c06d689	0.00822986
126	0xbe6b1de0	-0.22960615
127	0xbca8589b	-0.020550063

actor.4.bias f4 [2]
0	0x3d28cfe6	0.041213892
1	0xbc138778	-0.009004466
