Pre-trained/HAC_Pendulum-h-v1_level_0_crtic.pth (torch, 21496 bytes, 5 tensors)

critic.0.weight f4 [64, 5]
000000 ca cf 11 3f 28 51 bb 3d 9e 6f 76 3d b8 ca b3 3e
       0.56957686 0.09146339 0.06016504 0.351156
000010 0f 2b a4 3c a3 f6 09 3e 95 53 a7 be 2e ad 50 bd
       0.020040063 0.1347299 -0.32680956 -0.050946407
000020 8d d7 a9 be af 09 bb bc 36 2a a2 3f 07 20 a4 bd
       -0.33172265 -0.022831766 1.2669132 -0.08013921
000030 4b 34 fd bb 42 b6 a6 bf 51 4f e9 bd cb 34 98 be
       -0.007727181 -1.3024371 -0.113920815 -0.29727778
000040 21 47 11 be e7 5b 64 bb 6e e5 73 bf 7b b6 77 3e
       -0.1418729 -0.0034844817 -0.95271957 0.24190705
000050 b8 b7 f4 3e ff 34 3b 3e b2 4e 51 3d 8a 0c bd 3e
       0.47796416 0.18281935 0.05110044 0.3692363
000060 6e 9d a0 3d 8c a3 a9 3f 91 47 c1 3c 8f 91 4e 3b
       0.07842527 1.3253036 0.023593696 0.0031519865
000070 e6 4f a8 bf 3b d7 0f 3d d9 a2 63 be bd bd ea bd
       -1.3149383 0.03511737 -0.2223009 -0.11461971
000080 6a 69 18 bd f7 1d 65 bf a1 91 86 bc cf 7f 21 3e
       -0.037209906 -0.8949885 -0.016426863 0.15771411
000090 16 35 fc 3c 6c 71 ba 3c a7 14 43 be 23 79 7a 3e
       0.030787032 0.022759162 -0.19050847 0.24460272
0000a0 58 7c 99 bf 2b fb 8c be ae 4e 1f bd 7b 4d ad 3e
       -1.1991072 -0.27535376 -0.038893394 0.33848175
0000b0 b8 06 5f bd d4 b2 f4 3e 7d 41 09 3e ee c1 e8 3c
       -0.054449767 0.47792685 0.13403888 0.028412785
0000c0 91 90 07 bf 52 ac 55 3e 60 05 47 bf 42 8f 85 be
       -0.52954966 0.20866516 -0.77742577 -0.2608586
0000d0 e4 f4 97 bd f7 63 0e 3f b6 51 71 be ce e6 37 be
       -0.07419756 0.55621284 -0.23566326 -0.17959139
0000e0 8f f4 f3 bb d2 21 58 bd b9 44 18 3f 22 31 c2 be
       -0.007444925 -0.05276663 0.5947986 -0.3792811
0000f0 52 88 df 3e 8e 6d 9d 3e 4b 98 ac 3d 98 90 9c 3c
       0.43658692 0.30747646 0.08427485 0.019111916
000100 6f e9 a9 be 07 81 34 be 39 b4 19 bf 2d 5c 99 bd
       -0.33185908 -0.17627345 -0.6004062 -0.07488284
000110 04 94 e3 3e 93 00 0f 3f d4 a8 14 3b df 1f 2b bd
       0.44448864 0.5586025 0.0022683637 -0.04177844
000120 03 48 8d 3c 2d cb d9 be 4e 52 71 be 8b 62 20 3e
       0.017246252 -0.42537823 -0.23566553 0.15662591
000130 6e 37 76 3d 26 de f8 bc a8 f5 9d bd 86 35 16 be
       0.060111456 -0.030379366 -0.07712871 -0.14668855
000140 4e d3 81 3f af 80 ba 3e dd d9 7e 3d f4 9d 2c bf
       1.014261 0.36426303 0.06221949 -0.6742852
000150 5d df 85 3e 62 2a fc 3e ab b4 52 3f f5 8b f5 3d
       0.26146975 0.49251086 0.8230693 0.11989585
000160 47 4f 6e 3d c3 f8 53 bf 79 a2 8a 3f 13 f1 97 3e
       0.058181074 -0.82801455 1.0830833 0.29676113
000170 5a 79 46 3d 71 ad fe be 01 1e 0d 3e d2 61 d7 3d
       0.048455574 -0.497417 0.13780977 0.105167046
000180 4e cf 15 3d e1 14 bf 3c 34 0c 9a bf 36 27 18 3f
       0.036574654 0.023325386 -1.2034974 0.5943483
000190 26 eb ab bb b7 1f a8 be b9 f6 86 bd 16 dc 3c 3f
       -0.0052465377 -0.32836697 -0.06590027 0.73773324
0001a0 d5 21 95 bd 68 eb e1 bd 81 fd 23 bd ca aa 80 bc
       -0.072818436 -0.11031228 -0.040036682 -0.015706439
0001b0 7b 2b 9f 3f 06 99 b9 be 24 70 d7 3d f2 df 8d 3e
       1.2435144 -0.3624956 0.10519436 0.2770992
0001c0 b7 c8 3a 3d 07 77 13 3f a2 27 06 bd 2d 90 16 3e
       0.045601573 0.57603496 -0.03275264 0.14703436
0001d0 60 22 00 bf 89 a4 c2 bd 3b 9b 9f be c0 47 11 3f
       -0.5005245 -0.09504039 -0.3117312 0.56750107
0001e0 10 40 5e 3e 49 33 49 3f 2c d3 08 3e 5c f4 0c bf
       0.21704125 0.7859388 0.13361806 -0.5506036
0001f0 69 72 45 bf fd d1 4c bf 0c 63 8b 3d 51 f3 01 3d
       -0.771277 -0.80007917 0.06806001 0.031726185
000200 d7 46 31 be 96 11 52 3d 64 89 78 3f 91 33 c5 3e
       -0.1731218 0.051286303 0.9708464 0.38515905
000210 ef f3 92 3d 80 f5 23 be f5 cf 14 3e 59 53 9f 3e
       0.07175433 -0.1601162 0.14532454 0.31118277
000220 70 0f e5 3e e9 14 9b 3d 68 d3 fc be 59 83 50 be
       0.4473834 0.07572348 -0.4938004 -0.20362605
000230 34 c9 0b 3e f3 9d 67 3e 5d 3a 3a 3d 96 0e 78 bf
       0.13650972 0.22618847 0.045465816 -0.96897256
000240 f9 81 a5 3d 7f ee 15 bf a3 11 4a be 85 71 04 bd
       0.08081431 -0.5856704 -0.1973329 -0.032334823
000250 1f 82 dc be d2 d3 25 3e db c6 a8 be aa a5 2a be
       -0.43068025 0.16194084 -0.32964215 -0.16664758
000260 ea 97 99 bd 9e 60 08 3f 01 43 f3 3e c6 35 32 3e
       -0.074996784 0.53272426 0.47512057 0.17403325
000270 50 d9 77 bd 2c 0a 5e bc 12 c4 23 3f bd 1c 48 be
       -0.06050998 -0.01355223 0.63971055 -0.19542213
000280 42 ea 1f 3d 03 2c 7e 3e 3d 2e 14 3d 64 1e 37 3e
       0.039041765 0.24821477 0.03617691 0.17882687
000290 c0 e6 8b bd ec 3f 15 3d 9a a8 29 3e 0e de 1f 3d
       -0.068311214 0.036437914 0.16568223 0.039030127
0002a0 0b 47 0d 3f d4 e3 4c 3e 87 c6 61 bf 89 e2 a0 be
       0.5518653 0.20008785 -0.88193554 -0.31422833
0002b0 43 8d 8b bd e5 dc 21 3f 13 a5 a7 3e 67 a4 91 3f
       -0.06814053 0.63227683 0.3274313 1.1378297
0002c0 f7 33 5f 3e 10 ca a2 3d 3e 3b 7a bd 1f 32 c8 bd
       0.21797167 0.079486966 -0.061091654 -0.09775185
0002d0 76 b0 3b 3f 57 e4 20 3e 18 4b b4 bc d3 a4 da 3d
       0.73316133 0.15712105 -0.022008464 0.10675969
0002e0 c7 19 db 3c 69 cc b3 bf 9a 0f 22 be a3 9c a9 bc
       0.02674569 -1.4046756 -0.15826264 -0.020704573
0002f0 36 fe ac 3f 2a 87 aa 3d 0e 6e e4 3d b8 d4 4e 3f
       1.3515079 0.08326562 0.11153804 0.80793333
000300 06 c1 d1 3d 9f cf 9c 3c f1 16 4e bf 00 b2 10 3f
       0.102418944 0.01914197 -0.80503756 0.56521606
000310 03 f3 af 3e d4 06 08 3d 07 d7 1c bf 8c a4 05 bf
       0.3436509 0.033209637 -0.61265606 -0.52204204
000320 85 ca 43 bf 77 0e fa bd c6 47 75 bc d7 c0 3a 3c
       -0.76480895 -0.1220979 -0.014970725 0.011398516
000330 fd 7c 86 bd 42 41 4c bd be 5d bd bc 50 f2 b5 3b
       -0.065668084 -0.049866922 -0.023115989 0.0055525675
000340 ea c8 88 3d 47 21 d8 3e 7a 01 4b be b1 b3 97 3d
       0.06678946 0.4221289 -0.19824782 0.0740732
000350 31 9b 96 3c 25 7f 8c 3e 84 ca 05 bf e2 87 16 3d
       0.018384548 0.27440754 -0.5226214 0.03675068
000360 06 c9 82 bd a7 b5 c7 bd ff a4 0e be 5d 41 8e bd
       -0.063859984 -0.09751444 -0.13930129 -0.06946061
000370 58 65 20 bf 6f 82 9d be e5 fd 53 bd ed 72 e2 3e
       -0.6265464 -0.30763575 -0.051755805 0.44228306
000380 a3 5f 32 bd 1d 08 07 bf 83 c5 f3 be c6 c4 9f bd
       -0.043548238 -0.52746755 -0.47611627 -0.078012034
000390 1d b5 40 3f 8e b8 de 3e c7 04 56 bf 17 bd 41 be
       0.75276357 0.4350018 -0.8360104 -0.18919788
0003a0 2e 52 21 bd 50 b3 08 bf cb 35 8e bc 44 55 05 3f
       -0.039385013 -0.5339861 -0.017359635 0.5208323
0003b0 fe 41 e3 3e d7 69 83 3d d9 8a 45 be 8e 0e 7e be
       0.44386286 0.06416672 -0.19291247 -0.2481024
0003c0 d3 ec 99 3d 57 7d 39 3d 90 3c 57 3b 9a 28 9c 3f
       0.07515874 0.04528555 0.0032842495 1.2199891
0003d0 49 52 9c be fa 56 3f bf be c3 14 be f3 1a 39 bc
       -0.3053153 -0.7474209 -0.14527795 -0.011297929
0003e0 09 98 56 3f 36 18 c8 be 49 3a 82 bc db 8e c5 bc
       0.8382574 -0.3908097 -0.015896933 -0.02411597
0003f0 32 44 81 bb 00 f2 94 bf ca 32 32 be 42 2c 88 bf
       -0.003944897 -1.1636353 -0.17402187 -1.0638506

critic.0.bias f4 [64]
000000 b6 36 9c bf ae 3d bf bf a2 1b 62 3d 2e 8e e1 be
       -1.2204196 -1.4940698 0.055202134 -0.44053787
000010 d1 94 c9 bd f6 60 7d bc 25 fb b5 3e 59 62 88 3e
       -0.098428376 -0.015465012 0.3554317 0.26637533
000020 77 a5 8c be 5a 0d 1f be 5b e5 82 be b9 c9 98 bf
       -0.2746999 -0.15532437 -0.2556561 -1.1936561
000030 c9 e5 1c bf f8 af 64 bf 8b fc a2 bf 49 c4 de 3e
       -0.61288124 -0.89331007 -1.273332 0.4350913
000040 27 63 fd bd 15 8d a3 bc a7 42 c7 be 32 1a 87 bf
       -0.123724274 -0.019964734 -0.3891804 -1.0554869
000050 96 93 07 c0 a6 82 9d bf bb f7 25 bf 27 d5 41 be
       -2.118383 -1.2305496 -0.6483113 -0.18928967
000060 8c 24 c1 be 78 97 24 c0 2e 9c 87 be 45 32 3a c0
       -0.37723196 -2.571745 -0.26486343 -2.9093182
000070 10 4d eb bf fd bc 3b be 56 6d ab be 7d ee c0 3e
       -1.8382893 -0.18333812 -0.33481854 0.37681952
000080 db d8 4b be bd c4 a5 bf 36 ca 5c bf ed 6e c4 bf
       -0.19906943 -1.2950665 -0.8624605 -1.5346352
000090 ad 52 a7 bf b3 c1 62 bd 2a 66 cd be b9 ef 2e 3d
       -1.3072106 -0.055360507 -0.40117007 0.042709086
0000a0 11 75 fe bd ae 2e 85 3e 93 64 f2 bf 59 37 26 be
       -0.124246724 0.26012176 -1.8936943 -0.16232051
0000b0 b5 d2 34 3e 62 b8 32 3f 1b 59 0f 3f 6c 55 9e 3d
       0.17658503 0.69812596 0.5599534 0.07731137
0000c0 2c ec dd be fb 10 cf bd 54 a5 77 bf 3a 10 c6 bf
       -0.43344247 -0.10110661 -0.96736646 -1.5473702
0000d0 9b 61 d7 bf c5 e3 5e bd ce d1 96 bf 90 4d a1 bf
       -1.6826662 -0.054416437 -1.1782777 -1.2601795
0000e0 b8 d0 e8 bf 9d 81 92 bf 18 7c 31 3e db d3 b5 bd
       -1.8188696 -1.1445805 0.17332494 -0.08878299
0000f0 c6 92 35 bc 09 0b 8e 3d 1b 44 d0 bc d0 be b2 bd
       -0.011082357 0.069356985 -0.0254231 -0.08727801

critic.2.weight f4 [64, 64]
000000 d0 77 10 3f 81 b2 f9 3e 58 de 3b bf 2e 8b d0 bf
       0.5643282 0.48769 -0.73386145 -1.6292474
000010 92 d4 1c bf 71 de 37 be 10 23 90 bc 30 6c d3 3e
       -0.61261857 -0.17955948 -0.017594844 0.41293478
000020 ed fe f6 c0 d0 1a e9 be 92 ca 53 bf f1 11 4f be
       -7.718619 -0.4552827 -0.8273097 -0.20221688
000030 d3 96 5c bd bb c3 a4 3e 32 d4 1a 3f 5e ef 41 3e
       -0.053854775 0.3218058 0.60480034 0.18938968
000040 c8 b4 3b bf f7 6f 28 3f 8b e3 ab 3e 1c 9c 19 bf
       -0.73322725 0.65795845 0.3357204 -0.6000383
000050 d8 a5 06 be 2c fa 2f bf 4a 7d a1 be ac 4e 9d 3e
       -0.13149202 -0.68741107 -0.315409 0.30724084
000060 18 82 06 3e 23 ba 38 be da cc 11 bf b5 f7 9c 3e
       0.13135564 -0.18039756 -0.56953204 0.30657735
000070 6d b4 26 3e 66 65 eb be d4 b9 0e bf f0 ff 61 3e
       0.16279764 -0.45975798 -0.557523 0.22070289
000080 83 68 19 be 7c de b0 3e a5 08 95 bf ad 6d 88 3f
       -0.14981274 0.34544742 -1.1643263 1.065847
000090 d8 08 ba 3f cd 81 6b 3e b3 3b 48 bd 00 b4 21 3f
       1.4533949 0.22998734 -0.04888506 0.63165283
0000a0 0a 40 04 c0 29 32 58 3c e7 c0 52 3d 12 f4 90 3a
       -2.0664086 0.013195553 0.051453497 0.0011059067
0000b0 44 94 5d be 42 01 b9 3d 8d eb 1e 3f d1 11 8a bd
       -0.2163859 0.09033443 0.6207817 -0.067416795
0000c0 47 94 4d bf 53 66 9a bf 93 ad 7b bf d7 6f 3e be
       -0.8030438 -1.2062477 -0.9831173 -0.18597351
0000d0 f1 bb 9d be 11 d9 f2 bc 9b f2 0c 3f c7 84 fd be
       -0.3080745 -0.029644521 0.55057687 -0.49515364
0000e0 eb 60 9d bf 5a 8b 4c bd c2 4c f3 be 4c f8 66 bf
       -1.2295202 -0.049937584 -0.475195 -0.9022262
0000f0 04 47 db be e6 66 94 bd 0a c6 d3 3d f9 69 27 3e
       -0.42827618 -0.07246189 0.10340507 0.16349019
000100 ec 2c a0 3e 97 14 01 be 89 e5 7e 3e ee b3 0d bf
       0.31284273 -0.1260551 0.24892248 -0.55352676
000110 96 e9 73 3c 22 e5 56 3e 1d ec a1 bf 66 f1 c2 be
       0.014887234 0.20985845 -1.2650181 -0.38074797
000120 df 54 2b 3e 53 aa 6b 3e a7 2d 12 c0 45 15 a2 bf
       0.16731595 0.23014192 -2.2840364 -1.2662741
000130 d1 cd 07 3f 67 f9 2b bf a3 9a 34 3f 02 82 00 bf
       0.53048426 -0.6717743 0.70548457 -0.50198376
000140 3e be 13 3d 30 f7 d1 bd b0 d2 4a 3e 99 06 0e bf
       0.0360701 -0.102522254 0.19806933 -0.5547882
000150 d4 e2 c9 bf 7a ae fb bf c4 b2 0c bd 7b ee 7c 3f
       -1.5772347 -1.9662621 -0.03435017 0.9880139
000160 ef be 26 bf 9c 19 af 3f a5 5e 0d 3c 38 5a 23 c0
       -0.6513509 1.367969 0.008628522 -2.5523815
000170 7b 32 a1 bf 65 73 7b be b7 d8 5b 3e 75 4f e7 be
       -1.259353 -0.24555738 0.21469389 -0.45177808
000180 fd 5b 97 be 87 4e 4e 3d fd 89 9c 3d ff 4e 8e 3f
       -0.2956237 0.05036786 0.07643507 1.1117858
000190 a6 0d 56 3f 04 37 b4 3d d4 8a b7 be 6d d2 a8 bd
       0.83614576 0.08799556 -0.35848105 -0.082432605
0001a0 79 1d 15 bf 8f f0 ec 3d 9e 93 53 bf 48 07 d2 bf
       -0.58248097 0.115693204 -0.8264712 -1.6408472
0001b0 69 52 f8 be 66 a4 d0 be 71 08 e4 bf ba c7 0e bf
       -0.48500374 -0.40750426 -1.7815076 -0.5577351
0001c0 8f 38 d9 be eb 6d 78 bf e8 75 a5 3e 8c 7e 0b 3f
       -0.42425963 -0.9704272 0.32316518 0.5448997
0001d0 c9 1e 09 3f 85 2f 1d be 8f 7e 25 3c a5 a7 c2 3e
       0.535626 -0.15350159 0.010100975 0.38018528
0001e0 dc 10 e2 3f b3 e9 e9 3e 03 82 05 3d e7 da 1e 3e
       1.7661395 0.4568611 0.032594692 0.15513192
0001f0 05 17 c7 3c 3b 2c 4c 3e 45 11 a5 3e 25 79 9b 3e
       0.024302969 0.19938748 0.32239738 0.30365863
000200 80 14 bf 3c 99 79 86 bd c5 4c 04 3f 86 f8 a7 3d
       0.023325205 -0.06566162 0.5167964 0.08201699
000210 86 f4 32 be 4a a1 46 c0 33 a5 40 bd f9 70 c5 3d
       -0.17476091 -3.1035943 -0.047032546 0.096406884
000220 9d fe d0 bf 37 12 b7 3d 8f 8f 0c 3d ba 4d be 3e
       -1.6327702 0.08939021 0.034316596 0.37168676
000230 a2 e7 18 3e 95 26 c5 3e 85 14 7e bf f9 c3 b6 3c
       0.14932111 0.38505998 -0.9925006 0.022310244
000240 33 e7 94 be 6f 35 dc bf bb ab d0 be c9 58 d9 3d
       -0.2908264 -1.7203807 -0.4075602 0.106126375
000250 03 59 3a be c0 b8 48 3f cb 78 e3 be 0f 2a 7e 3e
       -0.18198018 0.78406906 -0.44428095 0.24820732
000260 7d 97 94 bf ad 01 79 bf c6 47 d8 be 09 8b d9 be
       -1.160873 -0.9726818 -0.4224226 -0.42488888
000270 82 ac bd be 47 ed 8a be 40 7d d7 3e 5e e5 1e be
       -0.37045676 -0.27134153 0.42087746 -0.15517184
000280 c3 ae 8a be 3e 34 38 3e 59 57 ac 3e 6e 62 a4 3f
       -0.27086458 0.17988679 0.3366039 1.2842538
000290 51 29 a3 3e f0 b3 f9 bf 1a af 67 c0 cb 91 34 3e
       0.3186746 -1.9508038 -3.6200624 0.1763374
0002a0 99 cc c8 be d3 cf 97 3e 9c 4e 0d bf 58 3d 14 3f
       -0.39218596 0.29650745 -0.55198073 0.57906103
0002b0 2f 36 3b bf 50 1f 7e be ed 21 97 3f 19 f4 28 bf
       -0.7312955 -0.24816632 1.1807228 -0.65997463
0002c0 5f 79 8c bd 0d da 2e be e1 bc f6 bf 8e a5 64 bf
       -0.06859087 -0.17075367 -1.9276391 -0.89315116
0002d0 7c fa 2d bf 12 5d 18 3f 98 58 34 bf 74 f5 9b be
       -0.67960334 0.59517014 -0.70447683 -0.30460703
0002e0 fc 44 5f 3f 15 84 ff 3a e1 e2 2f c0 41 89 5d bf
       0.87214637 0.001949432 -2.7482226 -0.8653756
0002f0 86 1b 65 3e ca f1 21 bf 7e d6 8a 3d 5c 21 e7 3e
       0.2237378 -0.63259566 0.067791924 0.4514264
000300 2c 85 b0 3e d9 a9 b1 3e ba 77 a5 3b 2d 54 fe be
       0.34476602 0.34699896 0.005049673 -0.49673596
000310 8f 4c 9d be 5b 3f f8 be 61 20 e3 3e 8c c9 d6 be
       -0.30722472 -0.48485836 0.4436064 -0.41950643
000320 5b d8 ba bf ec 5c 60 3d 21 6a 81 bf 39 b9 19 bf
       -1.4597276 0.054776117 -1.0110513 -0.6004825
000330 6a 3d 06 be 56 3e 86 3e 47 be 7a 3f ca e0 9f 3d
       -0.13109365 0.26219434 0.9794659 0.07806547
000340 5b a7 79 bf 40 1c f8 ba fc bc 1e bc 63 4e ff bf
       -0.9752099 -0.0018929318 -0.009688612 -1.9945797
000350 f2 54 6c 3f f5 15 95 bd 8c 02 58 3d 01 e6 00 be
       0.92317116 -0.072795786 0.052736804 -0.1258774
000360 5e 3e e4 3e e0 f6 80 3e a6 0a cc bf da 76 07 bf
       0.44578832 0.2518835 -1.594075 -0.5291573
000370 ca a3 9b bf f8 d2 47 c0 57 e9 ac be a1 5c ce 3d
       -1.215936 -3.1222515 -0.33771774 0.10076261
000380 b5 e7 d8 3e 32 57 6c bf a7 41 08 3f fb fe f4 3f
       0.42364278 -0.9232055 0.5322518 1.9140314
000390 3b fa 18 3e 77 5f 00 be e1 ce 64 be 13 eb 81 be
       0.14939205 -0.12536417 -0.22344543 -0.2537466
0003a0 de 22 dc bf 68 76 d3 be aa b5 6e be 3d f6 95 3b
       -1.7198141 -0.41301274 -0.23311487 0.004576473
0003b0 4b 55 d8 3d 16 ec 3d be 35 74 04 3f 97 e8 82 3e
       0.10563143 -0.18547091 0.5173982 0.25568077
0003c0 b3 c7 b5 bd e6 66 49 be d6 d7 bb bd 66 a1 c8 3f
       -0.0887598 -0.19668159 -0.09172027 1.5674255
0003d0 4a dd e0 be 9b 45 0f 3f 29 b7 62 be 78 0f c3 3d
       -0.4391883 0.55965585 -0.22140183 0.09524435
0003e0 71 40 9e 3e ce e5 d2 3d dd fb a7 3e 5d e6 e4 bf
       0.3090854 0.10297738 0.32809344 -1.7882801
0003f0 77 23 09 3e dd 81 9d 3e e0 30 db 3c a3 4e 9f 3e
       0.13392435 0.3076314 0.026756704 0.31114683

critic.2.bias f4 [64]
000000 48 65 3f 3f 48 50 29 bf 71 ac 13 bf 45 18 8d 3c
       0.7476392 -0.66138124 -0.57685 0.017223487
000010 31 19 58 3f 3f 87 0c 3e 61 8e 0e 3e d1 da 3e be
       0.8441344 0.13723467 0.139215 -0.1863816
000020 d5 81 1f 3f 0f 00 77 3e 6a d9 23 3f f0 55 23 be
       0.6230748 0.24121116 0.6400362 -0.15950751
000030 21 28 0c 3e 87 ab b3 be f7 cd 36 bf 70 03 f4 bf
       0.13687183 -0.35091802 -0.7140803 -1.9063549
000040 ff 7a 95 bf ae bb c5 3e cc 7d ca 3e e5 cc 55 bc
       -1.167816 0.3861975 0.395491 -0.013049339
000050 de 22 5e 3e 70 08 7c bf f2 40 15 bf 88 a1 f7 3e
       0.21692988 -0.98450375 -0.58302224 0.48365426
000060 25 14 1f bd 16 b6 19 3e 27 50 e2 3d f6 4c fd be
       -0.03883757 0.15010867 0.11050444 -0.4947278
000070 41 52 24 bd 4a 6a 5e 3f 22 b4 99 bd 58 ad bf bd
       -0.040117506 0.86880934 -0.07505061 -0.093592346
000080 91 3b 5f 3f 7e 4c 5d bb e1 fd fd be 51 ee 11 3f
       0.87200266 -0.0033767517 -0.49607757 0.57004267
000090 ca e3 8d bf 17 df 01 3e f7 65 07 be 03 f5 7b bf
       -1.1085141 0.12682758 -0.1322249 -0.98420733
0000a0 6b b6 72 be 51 04 8c 3e a7 86 f0 3d 85 da 3d be
       -0.237024 0.27347043 0.11744433 -0.1854039
0000b0 6a 2e 0a be 9b 11 52 3f 67 57 43 3f d4 3a 6b 3f
       -0.13494268 0.82058114 0.7630524 0.9188664
0000c0 23 eb 20 be 85 a2 ab 3e 30 46 d2 be e8 39 f1 3e
       -0.15714698 0.3352243 -0.41069174 0.4711449
0000d0 ca 50 11 3f d2 41 f8 3e 91 4c dd 3e f5 89 04 3f
       0.567639 0.48487717 0.43222478 0.51773006
0000e0 2f cd 2b 3f f2 78 59 3f 46 58 01 bf 31 20 23 be
       0.6710996 0.8495017 -0.5052532 -0.15930249
0000f0 2f bc 11 be d1 d6 ec 3d c1 3b d0 bc 4c 62 13 3f
       -0.14231943 0.115644105 -0.025419118 0.57571864

critic.4.weight f4 [1, 64]
000000 0c 6f e7 be c9 58 4d 3e 58 a2 9a 3f 75 ef c0 3e
       -0.4520191 0.200534 1.2080793 0.3768269
000010 7c 52 0b be 64 af 12 bf 8f 0b ab be 63 1b 0c bd
       -0.13605684 -0.57298875 -0.33407256 -0.034205806
000020 53 e3 04 bf f9 3f bb bd 42 0a 8a be 20 4b 82 3e
       -0.5190937 -0.09143061 -0.2696095 0.2544794
000030 ab 00 49 bf 3d e0 7f be f1 5a ba 3e d7 69 93 be
       -0.78516644 -0.24987884 0.36397508 -0.28791687
000040 75 19 a3 3e 5a 06 09 3f 32 9e f6 3e 7a cc 55 bf
       0.3185536 0.53525317 0.48167568 -0.8351513
000050 07 23 47 3f cc 00 90 3f d3 47 21 3f ad f1 14 3e
       0.7778782 1.1250243 0.6300022 0.14545317
000060 2e 97 f1 bc cc d7 92 3e e0 c5 e2 3e 36 be ca bd
       -0.029491033 0.28680265 0.44291592 -0.09899561
000070 80 cf 93 3a 35 7c 1a bf 69 60 8a 3c 5b d2 9e bc
       0.001127705 -0.60345775 0.016891675 -0.019387415
000080 86 91 94 be 98 b6 8f 3e 09 9e b2 be 7f f3 83 be
       -0.29017276 0.28068995 -0.34886196 -0.2577171
000090 04 19 14 3f af 14 db 3f b6 65 56 bb 80 5d 9f be
       0.5785067 1.7115687 -0.0032714433 -0.31126022
0000a0 7d 60 95 b8 41 42 07 3f d9 83 4b be 6b 03 5a be
       -7.122846e-05 0.5283547 -0.19874515 -0.21290366
0000b0 86 0e 31 bd 21 73 1d c0 27 07 9b be 87 ad d0 be
       -0.04322674 -2.460152 -0.30278894 -0.4075739
0000c0 3a 12 77 be a9 3c 34 3f d2 f8 2a 3e 2e 76 87 be
       -0.24128047 0.7040506 0.1669648 -0.2645735
0000d0 21 45 19 40 ed 80 02 bf 03 ae 08 be 9c 09 3c be
       2.3948443 -0.50977975 -0.1334763 -0.1836304
0000e0 9e fb c6 be f3 c9 f5 bd e9 a3 ad be 9b 1a b4 be
       -0.38863844 -0.120014094 -0.33914116 -0.35176548
0000f0 ad 64 8e bc f2 f6 37 bf 75 f2 7b 3b 9b 29 20 be
       -0.01738199 -0.71861184 0.0038444076 -0.15640871
