Pre-trained/HAC_MountainCarContinuous-h-v1_solved_level_0_actor.pth (torch, 21440 bytes, 5 tensors)

actor.0.weight f4 [64, 4]
0	0x3fca7a19	1.5818511
1	0x403f95f5	2.9935277
2	0xbe0288fb	-0.12747566
3	0x3f8d85fd	1.1056515
4	0xbe452250	-0.1925137
5	0x3f983240	1.1890335
6	0xbe5e39bc	-0.21701711
7	0xbecb38e6	-0.39691848
8	0x3fa7fdec	1.3124366
9	0xbf0bda6e	-0.5463017
10	0x3ea51b98	0.32247615
11	0x3fe25b1a	1.7684052
12	0x3f0ad77a	0.5423504
13	0x407f4d28	3.9890842
14	0xbeecc74d	-0.46245804
15	0x3fece4cb	1.8507322
16	0x3f6f540c	0.9348762
17	0xc0145d7b	-2.3182056
18	0x3b80c6be	0.003929942
19	0xc00ca33f	-2.1974638
20	0xbe8c01a2	-0.27344996
21	0x3ec6139f	0.38686845
22	0xbdead0ca	-0.114656046
23	0xbf1214d5	-0.5706304
24	0xbf2e5381	-0.68096167
25	0x4025cd45	2.5906537
26	0x3f8895f8	1.0670767
27	0xc031970d	-2.7748444
28	0xbf55181a	-0.832399
29	0xc06bb0dd	-3.6826699
30	0x3f8ae68e	1.085161
31	0xbf81c6f1	-1.0138837
32	0x3fafef2b	1.3744863
33	0x406797a0	3.6186295
34	0xbf064272	-0.5244514
35	0x3ff3ad90	1.9037342
36	0xbe5b6919	-0.2142681
37	0x40e10470	7.0317917
38	0x3da50b63	0.080588125
39	0xbf7b76a6	-0.9822792
40	0x3f475690	0.7786646
41	0x3e25a04c	0.1617443
42	0x3f7f2556	0.99666345
43	0x3f169226	0.58816755
44	0xbecda533	-0.401651
45	0xbfd74b64	-1.6819882
46	0x3f303e2b	0.6884486
47	0x3faac088	1.3340006
48	0x3f1c3502	0.61018384
49	0x3fdbbd55	1.7167155
50	0xbf3b7283	-0.73221606
51	0xbf4c0630	-0.7969694
52	0xbea99894	-0.3312422
53	0x3ed23770	0.4105792
54	0x3dcea3ce	0.10089837
55	0x3e528fba	0.2056264
56	0xbeec8de7	-0.46202013
57	0xbf8f57ef	-1.119871
58	0x3f389ea5	0.7211707
59	0xc0186965	-2.3814328
60	0x3d00f320	0.031481862
61	0xbeaebaf4	-0.3412701
62	0x3e1de050	0.154176
63	0xbe3052e0	-0.17219114
64	0xbec2471c	-0.37944877
65	0xc010461a	-2.2542787
66	0x3f1d222c	0.6138027
67	0xc056b0c1	-3.3545382
68	0xbefcb4a7	-0.49356577
69	0xc08d0805	-4.407229
70	0x3f36d308	0.7141576
71	0x402286e3	2.5394828
72	0x3fa2c7ac	1.2717185
73	0x3f3408dc	0.7032602
74	0xbf432519	-0.7622848
75	0xc027c426	-2.621347
76	0xbf36784f	-0.71277326
77	0x400ebf70	2.2304344
78	0x3f394052	0.7236377
79	0x410847aa	8.517496
80	0xbf82817b	-1.0195764
81	0xbe9fe245	-0.31227317
82	0x3f920ef9	1.1410819
83	0x40733e9f	3.800697
84	0xbdc6fda1	-0.097163446
85	0xc0145cc4	-2.318162
86	0x3f73aae0	0.9518261
87	0x3eee8247	0.4658377
88	0x3f2172ba	0.63065684
89	0xc00261ca	-2.0372186
90	0x3e8efdaf	0.2792792
91	0x4085a691	4.176583
92	0x3ee60275	0.4492375
93	0x3f3326a6	0.6998085
94	0xbf38f3e4	-0.7224715
95	0x3e944e0d	0.28965798
96	0x3f32ca96	0.6984037
97	0xbe3db06f	-0.18524335
98	0xbedc6c1c	-0.4305123
99	0xbffc36dd	-1.9704243
100	0xbe6bbe99	-0.23021926
101	0x3fc1ce3a	1.514106
102	0xbe16650c	-0.14686984
103	0xc029ac41	-2.6511385
104	0x3eacc1d2	0.33741623
105	0xc02ca01d	-2.6972725
106	0xbf1f0ac2	-0.6212579
107	0xbf9c8807	-1.2229012
108	0xbf1b0c1f	-0.6056537
109	0xc08e2e9b	-4.443189
110	0x3f78deb4	0.9721482
111	0x4040a918	3.0103207
112	0x3e3f3632	0.18673018
113	0x3e46e394	0.19422752
114	0xbe17c75d	-0.14822145
115	0xbf967815	-1.1755396
116	0x3df26e82	0.11837484
117	0x3d4b255e	0.049596183
118	0xbd76cd87	-0.0602546
119	0xbfa1187e	-1.25856
120	0x3ab59e00	0.0013856292
121	0xbe3e8450	-0.1860516
122	0xbd0deaf0	-0.034647882
123	0xbead7924	-0.33881485
124	0xbe9cd2e5	-0.3062965
125	0x404efb09	3.234072
126	0x3f3f5aae	0.7474774
127	0xc06647c7	-3.598131
128	0x3e6c5c3b	0.23082058
129	0xbed18118	-0.40918803
130	0x3efefde4	0.49803078
131	0x3f8a342d	1.0797173
132	0xbe67dc67	-0.2264267
133	0x3e115501	0.14192583
134	0x3e02b624	0.12764794
135	0xbf6d1f1c	-0.92625594
136	0xbf120166	-0.57033384
137	0xbfab1d07	-1.3368233
138	0x3f315005	0.69262725
139	0x40c2ddb7	6.089565
140	0x3f96a351	1.176859
141	0xbe5948ee	-0.21219227
142	0x3f1d3d34	0.61421514
143	0xbf34ae0e	-0.70578086
144	0xbdb0d148	-0.08633667
145	0x3dd5e1f0	0.10443485
146	0x3e842914	0.2581259
147	0x3eceabe4	0.40365517
148	0x3ee934a0	0.45547962
149	0xbecafcf2	-0.39646107
150	0x3e00da88	0.12583363
151	0xbe5c3978	-0.21506298
152	0xbd24bfac	-0.040221855
153	0xc094a668	-4.6453133
154	0x3f94738d	1.1597763
155	0x3fee2e45	1.860787
156	0x3e88d1cc	0.26722562
157	0x3e33efe4	0.1757198
158	0x3e2660a0	0.16247797
159	0xbe8a67ca	-0.2703231
160	0x3ee8b10c	0.45447576
161	0x3de10640	0.1098752
162	0x3d83ba38	0.06432003
163	0xbee199ea	-0.4406274
164	0x3eca4626	0.39506644
165	0xbd7c9f8a	-0.061675586
166	0xbf188f46	-0.5959362
167	0x4099d04e	4.806678
168	0x3ece15bd	0.4025096
169	0x3f0eee6e	0.55832565
170	0xbf107049	-0.56421334
171	0xbf41f5f9	-0.7576595
172	0x3ee60e39	0.44932726
173	0x3fa11cda	1.258693
174	0xbf10cca8	-0.5656228
175	0xbf14a90a	-0.58070433
176	0xbf2883f9	-0.65826374
177	0xc0118832	-2.2739377
178	0x3f50be99	0.8154083
179	0x3f55780a	0.8338629
180	0xbdccf86a	-0.10008319
181	0x40e34175	7.1017404
182	0xbd2b1ee9	-0.041777525
183	0xbe344695	-0.1760505
184	0x3f6af979	0.91786915
185	0x3fb9fc63	1.4530147
186	0x3e79ee0d	0.24407215
187	0xc049028f	-3.1407812
188	0xbde82b5d	-0.11336396
189	0x3d318e14	0.043348387
190	0xbd90c4fe	-0.07068823
191	0xbe432706	-0.19057855
192	0x3ea3a310	0.31960344
193	0x3edc019c	0.42969978
194	0xbd4abf20	-0.049498677
195	0xbde54538	-0.11194843
196	0x3dfaa5b2	0.12238635
197	0xc097c4a0	-4.742752
198	0x3d7e8349	0.062136922
199	0xc00d58b2	-2.2085385
200	0xbf03f1c5	-0.51540786
201	0xc0861297	-4.1897693
202	0x3f8ce079	1.1006004
203	0x40611844	3.517106
204	0x3e9dc6de	0.30815786
205	0x40c83ba7	6.257282
206	0xbeea7450	-0.45791864
207	0xc0509ae4	-3.2594538
208	0xbf490e14	-0.78537107
209	0xbf11e6bb	-0.5699269
210	0x3f52f169	0.8239961
211	0xbf8a0f2c	-1.078588
212	0xbe00d8dc	-0.12582725
213	0xbfcec523	-1.6153911
214	0x3eadf367	0.33974764
215	0x40ea96e4	7.3309193
216	0x3f83a02d	1.0283257
217	0xbf9e0d9e	-1.2347906
218	0x3dc483c6	0.09595446
219	0x40775950	3.8648262
220	0xbd2a0eab	-0.041517895
221	0x40b6f852	5.7178125
222	0xbb33237a	-0.0027334378
223	0xc06f6c93	-3.7410018
224	0xbf67e671	-0.90586
225	0xbe716ba7	-0.23576222
226	0x3f34fa9d	0.70694906
227	0x4044c0c4	3.0742655
228	0xbd812de9	-0.06307585
229	0x3ed1c57c	0.4097098
230	0xbd0cd1d6	-0.034379803
231	0xbf126631	-0.5718718
232	0x3faa6e49	1.3314906
233	0x3f870ba7	1.0550431
234	0x3c459826	0.012060201
235	0x405d4db7	3.4578683
236	0x3f2ab8ef	0.66688436
237	0x4072a950	3.791584
238	0xbedf9070	-0.43664885
239	0xc08c1445	-4.3774743
240	0x3ef9434f	0.48684165
241	0x40773475	3.8625767
242	0xbc9087b3	-0.017642831
243	0xc079e991	-3.9048808
244	0x3ed0063f	0.40629765
245	0xc03b2707	-2.924257
246	0xbf215ac1	-0.63029104
247	0x3fdd3a0d	1.7283341
248	0xbe38afea	-0.18035856
249	0x409f2c0c	4.974127
250	0xbed56ce2	-0.41684633
251	0xc066edc7	-3.6082628
252	0x3e18b8dc	0.14914268
253	0x40cc4cc0	6.384369
254	0xbeaf9c1b	-0.34298787
255	0xc0548e26	-3.321176

actor.0.bias f4 [64]
0	0xbdb53a15	-0.08848969
1	0xbf16336d	-0.5867222
2	0x3e17a825	0.14810236
3	0xbd4dacef	-0.05021375
4	0xbe0f2b62	-0.13981393
5	0xbf079dd9	-0.5297523
6	0x3b564ded	0.0032700256
7	0x3e5f452c	0.2180373
8	0x3e4b4459	0.19850291
9	0xbd83508b	-0.06411847
10	0x3dc9dd06	0.0985661
11	0xbe2b15ad	-0.16707487
12	0xbdc1a513	-0.094553135
13	0xbeef4590	-0.4673276
14	0x3e7d4807	0.24734508
15	0xbefe22c2	-0.49635893
16	0x3e922c95	0.28549638
17	0x3eb9b2e4	0.36269295
18	0x3ec8e70a	0.3923877
19	0x3d4278c8	0.047478467
20	0x3e11ff0f	0.14257453
21	0x3e081529	0.13289322
22	0xbe103dcb	-0.14086072
23	0xbe6d0301	-0.23145677
24	0x3e8b46be	0.2720241
25	0xbf2295e0	-0.6350994
26	0xbe5110a8	-0.2041651
27	0xbe72a409	-0.23695387
28	0xbea2255d	-0.3166913
29	0xbe81fa5e	-0.25386328
30	0xbef34720	-0.47515202
31	0x3cf6961d	0.030100876
32	0x3ee89ab1	0.4543052
33	0xbe9a4c41	-0.30136302
34	0x3e1b6498	0.15175092
35	0x3e06c4d1	0.13161017
36	0xbee72f20	-0.4515314
37	0xbef91ffe	-0.4865722
38	0x3e47c9a4	0.19510514
39	0xbe8c8e4a	-0.27452308
40	0xbea49396	-0.3214385
41	0xbe68db40	-0.22739887
42	0xbe0e0720	-0.13869905
43	0xbdd53d04	-0.104120284
44	0xbe500817	-0.20315586
45	0xbd24abb4	-0.04020281
46	0x3f23426d	0.6377323
47	0xbe846833	-0.25860748
48	0xbed056fe	-0.4069137
49	0x3e9f6841	0.31134227
50	0x3de52f65	0.111906804
51	0xbde281e4	-0.11059931
52	0xbc7b58b2	-0.015340971
53	0x3d83d3da	0.06436892
54	0xbdd3e94e	-0.10347234
55	0xbe86c73b	-0.26323876
56	0xbdebf30b	-0.11520966
57	0xbe6a3e86	-0.22875413
58	0xbdb9da13	-0.090747975
59	0x3e2b827c	0.16748995
60	0x3c922bae	0.017843094
61	0xbe3d4d2d	-0.18486471
62	0xbebe1a57	-0.3712947
63	0xbe0f02fc	-0.13965982

actor.2.weight f4 [64, 64]
0	0xbf7ec1e4	-0.99514604
1	0xbd3973fb	-0.045276623
2	0xbd320e48	-0.04347065
3	0xbfb028fe	-1.376251
4	0xbee8d6df	-0.45476434
5	0x3e4808e1	0.19534637
6	0xbfe7448c	-1.8067794
7	0xbea6c877	-0.32574818
8	0xbfa009c4	-1.250298
9	0xbf6ac0ed	-0.9170063
10	0x3e974cc3	0.29550752
11	0xbe0a5234	-0.1350792
12	0xbe804e23	-0.25059614
13	0xbdd7f024	-0.1054385
14	0x3ec914b8	0.3927362
15	0xbdbe6c62	-0.09298016
16	0x3e98f203	0.2987214
17	0x3dd29807	0.10282903
18	0x3ec39589	0.38200024
19	0xc05950c3	-3.3955543
20	0xc06d291e	-3.7056346
21	0x3e009705	0.1255761
22	0xbf8f3808	-1.1188974
23	0xbda921d7	-0.082584076
24	0x3eb4c9bb	0.35310158
25	0x3ecf0350	0.40432215
26	0x3f020fc9	0.50805336
27	0xbf3c5a0c	-0.735749
28	0xbd03eb03	-0.032206547
29	0x3d8d8755	0.06910578
30	0x3d0d1ccc	0.03445129
31	0xbf8f604f	-1.1201266
32	0x3e4badd8	0.19890535
33	0x3d9541c0	0.072879314
34	0xbf9ad24b	-1.2095426
35	0x3dbef643	0.093243144
36	0x3d9b12a2	0.07571913
37	0xbc3d4990	-0.011553183
38	0xbced1b23	-0.028943604
39	0x3df40e14	0.11916748
40	0xbd3f8094	-0.04675348
41	0xbe9289e4	-0.28620827
42	0xbe08f03d	-0.13372894
43	0x3d2660fb	0.04061983
44	0xbef3c025	-0.47607532
45	0xbe40a27f	-0.18811987
46	0x3f2b5489	0.66925865
47	0xbdc4c4d5	-0.09607855
48	0xbdef133c	-0.116735905
49	0x3f128266	0.5723022
50	0xbf3d5159	-0.7395225
51	0xbe7fbd73	-0.24974613
52	0xbf15fcf3	-0.58589095
53	0xc00e30c5	-2.2217267
54	0xbf78f637	-0.97250694
55	0xbea9d525	-0.3317043
56	0xbede91e7	-0.4347069
57	0x3e10b58c	0.14131755
58	0xbf6dff56	-0.92967737
59	0x3eb46181	0.3523064
60	0xbbdb7c28	-0.00669815
61	0x3deaaf6c	0.1145924
62	0xbe1c69f9	-0.152748
63	0xbea7cdf0	-0.32774305
64	0xbd1ccdbe	-0.03828215
65	0x3de954f8	0.1139316
66	0xbd7a9b5b	-0.061183315
67	0xbd5c10c1	-0.053726915
68	0x3d28145d	0.041035045
69	0xbcde8574	-0.027163245
70	0xbd8c221d	-0.06842444
71	0xbdd1586f	-0.102219455
72	0x3d36146b	0.044453066
73	0xbba11b40	-0.0049165785
74	0xbc92bd94	-0.017912664
75	0xbd6749d9	-0.05646691
76	0xbe098a7b	-0.13431732
77	0x3c5d8350	0.013520077
78	0xbd2387a4	-0.03992428
79	0xbd6c6580	-0.057713985
80	0xbdd90f66	-0.1059864
81	0x3d242054	0.040069893
82	0xbd33f4f8	-0.043934792
83	0xbd115b72	-0.0354876
84	0xbd9353cd	-0.07193718
85	0xbdc4c766	-0.09608345
86	0xbe170d98	-0.1475128
87	0xbd74be64	-0.059751883
88	0xbd95caf0	-0.07314098
89	0x3ddbdc81	0.10735417
90	0xbd55db11	-0.05221087
91	0xbdb038bb	-0.086045705
92	0x3e1c4061	0.15258934
93	0x3d80aea3	0.06283309
94	0x3db680c4	0.08911279
95	0xbdd3f390	-0.1034919
96	0xbddc5ac7	-0.10759502
97	0x3d08be1e	0.033384435
98	0xbdbe6165	-0.0929592
99	0xbe1a0034	-0.1503914
100	0xbbc5d5e0	-0.006037459
101	0xbd3b44fc	-0.045720086
102	0xbe1247d2	-0.1428521
103	0x3d97d944	0.07414487
104	0x3dcddd9e	0.10052036
105	0x3c019d75	0.007911076
106	0x3b50c03b	0.003185286
107	0xbd314bc1	-0.043285135
108	0xbd733ecf	-0.05938607
109	0x3dad86b5	0.08472959
110	0x3ddb9a8c	0.10722837
111	0xbc817398	-0.01580219
112	0xbd4a6bb0	-0.049419105
113	0x3c010072	0.007873641
114	0xbe1c8417	-0.15284763
115	0x3d01367a	0.031546094
116	0xbd466b19	-0.04844198
117	0xbc215970	-0.009847984
118	0xbd8b1189	-0.06790454
119	0xbcd97ac9	-0.026547806
120	0x3cc47a47	0.023984088
121	0x3da04d85	0.07827286
122	0xbd4de852	-0.050270386
123	0x3d59e82c	0.053199932
124	0x3d57ca1c	0.05268298
125	0xbdb3d6a0	-0.08781171
126	0xbe05fea2	-0.13085416
127	0x3d577ca5	0.052609105
128	0xbedd4d89	-0.43223217
129	0x3e813ee3	0.2524329
130	0xbeef11c5	-0.46693245
131	0xbe30423a	-0.17212763
132	0x3ed5ba42	0.41743666
133	0x3e54edd9	0.20793857
134	0x3fd16ec4	1.6361928
135	0x3fc9a938	1.5754766
136	0xbec0693a	-0.37580281
137	0xbf2b2f5b	-0.66869134
138	0xbecaea67	-0.3963196
139	0x3e93e596	0.28886098
140	0xbf9150cc	-1.1352782
141	0x3cf61e39	0.030043708
142	0x3ebfb6c9	0.37444142
143	0xbdb50340	-0.088385105
144	0x3e8f21fc	0.27955616
145	0x3f20bc6d	0.62787515
146	0xbf7c22d3	-0.9849064
147	0x3f068fd8	0.5256324
148	0x4022fbe9	2.5466254
149	0x3eeeb291	0.4662061
150	0x3ecb5816	0.39715642
151	0xbe8e8397	-0.2783477
152	0xbedb88ad	-0.42877713
153	0xbeded14e	-0.43519062
154	0xbd9b611f	-0.07586884
155	0x3fc16418	1.5108671
156	0xbd1071aa	-0.03526465
157	0xbde1ec2c	-0.11031374
158	0xbd237fc0	-0.039916754
159	0x3f8516d6	1.0397594
160	0xbdd6b413	-0.10483565
161	0xbb90586d	-0.0044050724
162	0x3e9ed03a	0.3101824
163	0xbf2103e4	-0.6289656
164	0xbd96e518	-0.07367915
165	0xbda6abf6	-0.08138268
166	0x3f278845	0.65442306
167	0xbcac0428	-0.020998076
168	0x3de9edd0	0.11422312
169	0xbde814a2	-0.113320604
170	0xbee5828e	-0.44826168
171	0xbeff66d4	-0.4988314
172	0x3f972108	1.1806955
173	0xbefc763f	-0.49308965
174	0xbf02b615	-0.51059085
175	0x3ae12f00	0.0017180145
176	0x3d3f3188	0.046678096
177	0x3ef3bd8c	0.4760555
178	0x3fbe15d1	1.4850408
179	0xc00e5d9d	-2.2244637
180	0x3f914391	1.1348745
181	0x3d0d32c0	0.034472227
182	0x3e91e973	0.2849842
183	0xbfcf685a	-1.620372
184	0x3f49241e	0.78570735
185	0x3e234431	0.15943982
186	0xbe029449	-0.12751879
187	0xbf99f61a	-1.2028229
188	0xbf414c68	-0.7550721
189	0xbdfaa431	-0.12238348
190	0xbf7c8f05	-0.9865573
191	0xc0165da4	-2.3494654
192	0x3f732442	0.949772
193	0x3f299e50	0.6625719
194	0x3e4abe0a	0.19799057
195	0x3fe12e7c	1.7592311
196	0x3f6e5d84	0.93111444
197	0x3e5071fa	0.20355979
198	0x3ff5080f	1.9143084
199	0x3ee4276c	0.44561327
200	0x3f8bd53a	1.0924447
201	0x3e9045bc	0.28178203
202	0x3ef18951	0.47175077
203	0x3db2c91c	0.08729765
204	0x3f961d96	1.1727779
205	0xbdde4304	-0.10852626
206	0x3f1b3186	0.6062244
207	0x3cc14f48	0.023597375
208	0x3eee6b09	0.46566036
209	0x3e4b2e50	0.19841886
210	0x3e4851de	0.1956248
211	0x3e98df4f	0.2985787
212	0x40037e74	2.054593
213	0x3e0ee1ed	0.13953371
214	0x3f72fa45	0.9491313
215	0x3e7685cc	0.24074477
216	0xbed15b04	-0.40889752
217	0xbeb627e6	-0.35577315
218	0x3ea53abb	0.3227137
219	0x3f84da6f	1.0379161
220	0x3f1641b8	0.5869403
221	0x3ee3abd8	0.44467044
222	0xbce344f0	-0.027742833
223	0x3fe63d1a	1.7987397
224	0x3ed670c4	0.41882908
225	0x3dea0dc2	0.11428405
226	0x3e33cd6e	0.17558834
227	0x3f23ed4b	0.64033955
228	0x3dceabf2	0.1009139
229	0xbd30d1e8	-0.043168932
230	0xbe10db8b	-0.14146249
231	0x3d76c08c	0.06024222
232	0xbd0bb550	-0.03410846
233	0x3e5533f9	0.20820607
234	0x3f6a041d	0.91412526
235	0x3f3c9254	0.7366078
236	0x3fa9b162	1.3257258
237	0x3f1abef9	0.6044765
238	0x3ee4a367	0.44655916
239	0x3dfe551a	0.124185756
240	0x3daec796	0.08534162
241	0x3e09f7bf	0.13473414
242	0x3f8e02d8	1.1094618
243	0xbe0a2fd8	-0.13494813
244	0x3faf9f44	1.3720479
245	0x3d04f729	0.032462273
246	0x3f5804af	0.84382147
247	0xbf0bdbce	-0.5463227
248	0x3caf51db	0.021401336
249	0x3d93ed74	0.07223025
250	0x3f6b49ba	0.9190937
251	0xbe6799aa	-0.22617212
252	0xbe3e7035	-0.18597491
253	0x3dbfb3d7	0.093604736
254	0x3ed8bcfb	0.4233168
255	0xbe379cdd	-0.17930932

actor.2.bias f4 [64]
0	0x3ed2d6e6	0.4117958
1	0xbe456445	-0.19276531
2	0x3e1c548d	0.15266629
3	0x3d0f1e80	0.034941196
4	0xbdf8b4ae	-0.12143837
5	0xbe92511d	-0.2857751
6	0x3e1200fb	0.14258187
7	0x3e814014	0.252442
8	0x3eb77859	0.35834005
9	0xbdac43fc	-0.084114045
10	0x3e9e0dd8	0.30869937
11	0xbe9aca30	-0.30232382
12	0x3e902a7b	0.2815741
13	0xbe073144	-0.13202387
14	0xbe8669d5	-0.26252618
15	0xbe9f1927	-0.31073877
16	0xbdb8f024	-0.09030178
17	0x3eb70d6d	0.3575243
18	0xbed50628	-0.4160626
19	0xbd8103f1	-0.0629958
20	0x3e52751a	0.20552483
21	0xbe133def	-0.14379095
22	0xbdefea28	-0.11714584
23	0x3e0754eb	0.13215987
24	0x3e9d6e3f	0.30748174
25	0xbca8bf63	-0.020599073
26	0xbd333cec	-0.04375927
27	0xbda3cc50	-0.07997954
28	0x3ed2134d	0.4103035
29	0x3e38e8f8	0.1805762
30	0x3ede8726	0.43462485
31	0xbda15d60	-0.07879138
32	0xbdebc337	-0.11511844
33	0xbc8a0f0e	-0.016852882
34	0x3e213aec	0.15745133
35	0x3e8b28e5	0.27179638
36	0x3ce1608f	0.027511863
37	0x3e5f1593	0.21785574
38	0xbe0b673f	-0.13613604
39	0x3e0a8088	0.13525593
40	0xbe67de64	-0.22643429
41	0x3e80df87	0.25170538
42	0x3ec36bee	0.3816828
43	0x3e112efb	0.14178078
44	0x3ebd1d05	0.36936203
45	0x3ea7adac	0.3274969
46	0x3da7de0b	0.08196648
47	0xbd58a756	-0.05289396
48	0xbdd0bcba	-0.10192247
49	0xbcaa9b52	-0.020826016
50	0xbeb98439	-0.3623369
51	0xbde1b4b6	-0.11020796
52	0xbc2ee392	-0.010674374
53	0xbdeface3	-0.117028974
54	0xbe02ab13	-0.12760572
55	0xbdb65356	-0.08902614
56	0x3e20fc4a	0.1572124
57	0xbe05e821	-0.13076831
58	0x3ed66ca5	0.41879764
59	0x3e282d39	0.16423501
60	0xbe531050	-0.20611691
61	0xbe2f9ceb	-0.17149703
62	0x3d8636d8	0.06553429
63	0x3e969e6d	0.29417744

actor.4.weight f4 [1, 64]
0	0xbfe399d3	-1.7781318
1	0xbd9c3491	-0.07627214
2	0x3fea9558	1.8326826
3	0x3f264158	0.64943457
4	0xbd9a57bc	-0.07536265
5	0x3fa5a16d	1.2939888
6	0x3f943a07	1.1580209
7	0xc02eeafa	-2.7330918
8	0xbfff49e8	-1.9944429
9	0x3cf51f3a	0.029922117
10	0x3fcdd833	1.6081604
11	0x3f9d3b53	1.2283729
12	0xbfc52a37	-1.5403508
13	0x3be1745c	0.006880326
14	0x3fb4ee99	1.4135314
15	0xbf2f90ec	-0.6858051
16	0xbc5b267f	-0.013375877
17	0xbfec358e	-1.8453844
18	0xbef094b4	-0.4698845
19	0x3c3d5334	0.011555482
20	0xbffb7826	-1.9646041
21	0x3bfd5b53	0.007731834
22	0x3fc26cc5	1.5189444
23	0xc00d3956	-2.2066245
24	0xbfd6aebf	-1.6772078
25	0xbc80c142	-0.015717153
26	0xbce03814	-0.02737049
27	0x3cf5077a	0.029910792
28	0xbff41d51	-1.9071447
29	0x3f3314a1	0.6995335
30	0xbfff454c	-1.9943023
31	0xbfa7adb1	-1.3099881
32	0xbb3dead2	-0.0028979075
33	0x3ef7474a	0.48296577
34	0xc00f8456	-2.2424521
35	0xc0471fc2	-3.1113133
36	0xc0146455	-2.3186238
37	0xbf89acc2	-1.0755847
38	0xbec43f95	-0.3832976
39	0x3fcfc6e6	1.6232574
40	0xbfcff88b	-1.6247724
41	0xbf8d330b	-1.1031202
42	0xbfe1fb6a	-1.765485
43	0xbf018227	-0.5058922
44	0xbfb46af8	-1.4095144
45	0xbfcf4c14	-1.6195092
46	0xbf3e1c8b	-0.74262303
47	0x3c02cbd1	0.007983164
48	0x3b0dc8f1	0.0021634663
49	0xba8f8cd2	-0.0010952002
50	0x3f821afe	1.0164487
51	0x3ddfe2dc	0.10931942
52	0x3fac9459	1.3482772
53	0x3ea1ebad	0.3162512
54	0x3ea84ea7	0.32872507
55	0x3d74c2c8	0.05975607
56	0x3fa1fb84	1.2654881
57	0xbd983bb1	-0.0743326
58	0xbfc50341	-1.5391618
59	0x3fb3b370	1.4039135
60	0x3faf7e3b	1.3710397
61	0x3dc4c122	0.0960715
62	0xbfdec7b3	-1.7404693
63	0xbfbac907	-1.4592599
