Pre-trained/HAC_MountainCarContinuous-h-v1_solved_level_1_crtic.pth (torch, 21952 bytes, 5 tensors)

critic.0.weight f4 [64, 6]
00000000: f7b6 243e f266 e63f d5bc 463f 88a5 1dc0
00000010: b0aa 8cbd de5a 0a3f f880 2ebf 928e f0bf
00000020: 60b5 3e3f 06cf a0bf f8ff dd3e b9d2 813d
00000030: 7062 b93e 6194 9ac0 c6c7 6b3e e920 5640
00000040: bc5d d13e bca0 efbe 6f15 853f 0cde da3f
00000050: 97b2 093f b796 55c0 27a5 e3bd 734e 4ebf
00000060: dff5 cb3e eded 06c0 e041 b53e a4e1 203f
00000070: d197 643e defe 70be fc9f 383f e905 94c0
00000080: 620b c53e dba0 1140 e486 0d3f eafe 2abf
00000090: c22d 79bd 9086 ec3f d7fa e3bd 2dcb 61c0
000000a0: b376 e93e 81a0 163e 0572 5c3f 558d 2a40
000000b0: 1e45 003f 2281 afbf 6a41 4fbe d5d8 5cbf
000000c0: c6f8 413e 23d6 c5c0 635a 4fbc 4536 3ac0
000000d0: 3984 533e b82c 39be baeb 093e c8a9 4dbe
000000e0: 4c86 3c3c 337a 8e3e f4ad 0dbe 42c2 a83e
000000f0: c2a4 57be 075d 96c0 5eef 3cbf df37 14c0
00000100: fa30 e4bd f3b0 c5be 0f42 a6bd 2a30 56c0
00000110: 2c33 debe 642a 01c0 390b 81be eeef 10bf
00000120: 267b dc3e b8ad 2240 5eee d53e 6802 21be
00000130: 8072 1bbe 4b09 e23f a63a ca3b bffc 74c0
00000140: e5b0 683e 9747 5340 8554 f03d 8d6a 5bbf
00000150: d0f7 093f 7fc9 2b40 4dcd 8d3e ad7f 12bf
00000160: 80d2 c0bd 39ed 9c3f 639f b5be e33c a1c0
00000170: 2c0c 05bf 970a cc3f 6eff 2abf a684 733f
00000180: f700 a6be aee9 3140 9f27 313f c280 ddbe
00000190: 4206 92be 2217 6d3f a416 353f ccba 933f
000001a0: 980c 0f3e 7952 30c0 a7aa 803d e87a 82be
000001b0: 3690 5c3e f879 613f e675 793f f901 5cbf
000001c0: 5789 36be 921d b83e 4f92 93be 2d38 b7bf
000001d0: 4dea 8c3e 488a 0240 6cb4 6e3f d609 163f
000001e0: 764f 8d3e 8070 5440 bc39 fe3e affb 53c0
000001f0: b8e0 0b3f 6ec4 693e 3d54 09be c75b 8bc0
00000200: 40dc 563f e7fd d93e 7e34 523e 18ee fa3e
00000210: 692f 2c3f 3084 593f 0490 4ebf 496d aabf
00000220: a03c 72be 0cf8 27bf 3ab1 093e a59b 3d40
00000230: e79e 26bf 4293 ed3f eb32 0b3f 4fb6 0cbd
00000240: 23f7 b93e 7aaf 74c0 2bd7 b3be 3f79 84c0
00000250: 1a7c 1abe 69cf 82be 4b1c 57bd 8f89 b43e
00000260: 3a63 883e a27f b2be 10fe 193e f663 57be
00000270: e417 43bf bfb8 683f 8571 0bbe ecb3 2fc0
00000280: a311 d3be 2fb7 b2be a5bd 893e d7dc 0540
00000290: d30f 5cbe 4c18 4940 7577 873e 7831 a5be
000002a0: 8c2d fa3e 2af8 80bf 6747 083f 1d81 cd3d
000002b0: 7252 b5bf f51e 87be 295a 6ebd d14c 3940
000002c0: bab9 013f a93e 16be dd18 32bf 25d8 d73d
000002d0: 316c 873d c1ab 64c0 23bb e63d ed03 1040
000002e0: 70c5 863e ea7a aebf 651f d03d a76f 7dc0
000002f0: 4b03 633e 661e d6bf 232d fd3d 0a65 843f
00000300: da8e edbe bb2e a6bf 63f9 cc3e 223a 80c0
00000310: 9139 963e 366a 15bf 0003 8abd 1bfd 61c0
00000320: e12f debd 04f9 01c0 b35f 583e 9f68 233d
00000330: cb57 323e 6f26 fa3f fea1 c7bd 9c89 7f3e
00000340: a688 423f 731d b0be 30a3 583f e09c 59c0
00000350: b148 62be fe58 1040 a09d 583e 23ea 953f
00000360: 1986 a5be 6237 80c0 6518 b03e 7ba1 73c0
00000370: 8b33 843e 2c2c 5abe 1771 fcbe 4787 883f
00000380: 7723 f73e 69cf 23bf ad00 3cbe 2963 e1bc
00000390: 6915 a53e 4f25 6b40 b7c3 9c3e 4b8c 99be
000003a0: 6016 1dbd 2393 6bbd 1aef cfbe 27a5 39c0
000003b0: e05b 023f 4fa8 4d40 84c9 033f 5f16 3abe
000003c0: 12eb e13d 9efa febf 8969 31be 2d31 39c0
000003d0: 4bce ae3e 55bf f13d 0ee3 8bbe 4061 54bf
000003e0: cfdd 6b3d 2068 6440 42a3 06bf 85bb 773f
000003f0: 2493 8e3f 7005 1b3f cf40 59be 51d7 66be
0.1608542 1.8000166 0.77631885 -2.4632282 -0.068684936 0.540449 -0.6816554 -1.8793509
0.74495506 -1.2563179 0.4335935 0.0633902 0.36207914 -4.8306127 0.23025426 3.3457587
0.40891826 -0.46802318 1.0397166 1.7099013 0.5378813 -3.337324 -0.11115485 -0.80588454
0.39836022 -2.1082718 0.3540182 0.628443 0.22323538 -0.23534724 0.72119117 -4.6257215
0.38485247 2.2754428 0.5528395 -0.6679522 -0.060834654 1.8478565 -0.11131828 -3.5280259
0.45598373 0.14709665 0.8611148 2.6648762 0.50105464 -1.3711283 -0.20239797 -0.8626836
0.18942556 -6.1823897 -0.012655827 -2.9095623 0.20655908 -0.18083465 0.13468829 -0.20084298
0.011506628 0.27827606 -0.13835889 0.32960707 -0.21058944 -4.698856 -0.73802745 -2.31591
-0.11142154 -0.38611564 -0.081180684 -3.3466897 -0.43398416 -2.0182123 -0.25203875 -0.56616104
0.43062705 2.541853 0.41783422 -0.15723574 -0.15180397 1.7659086 0.006171542 -3.8279264
0.2272373 3.3012445 0.11734871 -0.8570946 0.53893757 2.6841733 0.27695695 -0.5722607
-0.0941515 1.2259895 -0.35473165 -5.0386825 -0.519717 1.5940732 -0.66796005 0.9512428
-0.3242261 2.7798877 0.6920108 -0.43262297 -0.285204 0.9261342 0.7073767 1.1541381
0.13969648 -2.7550337 0.06282549 -0.25484395 0.21539387 0.88076735 0.97445524 -0.8594051
-0.17825828 0.3596006 -0.28822562 -1.4314018 0.27522507 2.03969 0.9324405 0.5860876
0.27599686 3.3193665 0.49653423 -3.3122365 0.5463977 0.22828838 -0.1341104 -4.3549533
0.83929825 0.42576525 0.20527837 0.49009776 0.6725984 0.8496733 -0.806885 -1.3314601
-0.23655939 -0.65612864 0.13446513 2.9626248 -0.65086216 1.8560565 0.5437457 -0.03435355
0.36321363 -3.8232102 -0.35125098 -4.1398005 -0.15086403 -0.25548866 -0.052517217 0.352612
0.26638204 -0.34863 0.15038323 -0.21034226 -0.7620833 0.909069 -0.13617523 -2.7453566
-0.41224393 -0.34905383 0.269025 2.091604 -0.21490411 3.142108 0.26458326 -0.32264304
0.48862875 -1.0075734 0.5323395 0.10034392 -1.4165785 -0.26390806 -0.058191452 2.8953135
0.5067402 -0.1467234 -0.6956919 0.10539273 0.06612433 -3.572983 0.11266162 2.2502396
0.26322508 -1.363126 0.10162238 -3.9599397 0.22169225 -1.6728027 0.12362125 1.0343335
-0.4639805 -1.2983011 0.40034017 -4.0070963 0.29340795 -0.5836519 -0.067388535 -3.5310733
-0.10848976 -2.0308237 0.21130256 0.039894696 0.17416303 1.9542979 -0.097476944 0.24954838
0.7598976 -0.34397468 0.84624004 -3.4002 -0.22098042 2.2554317 0.21153879 1.1712078
-0.3232887 -4.0067606 0.34393612 -3.806731 0.25820574 -0.21305913 -0.4930503 1.0666283
0.48269245 -0.6398836 -0.18359633 -0.027513104 0.32242897 3.6741521 0.3061807 -0.29989848
-0.038351417 -0.057513367 -0.40612108 -2.900705 0.5092144 3.2133977 0.51479363 -0.18172596
0.11031164 -1.9920232 -0.17325415 -2.8936265 0.34141764 0.11804072 -0.27321666 -0.8296089
0.05758458 3.5688553 -0.5259286 0.9677051 1.1138654 0.6055517 -0.21216129 -0.22543074

critic.0.bias f4 [64]
00000000: a940 07be cea7 43be 6bd5 2a3e 404d 7e3d
00000010: 9c88 ad3e 6113 a63e 626e 1fbd c19a b93d
00000020: 899f e83c 15f4 7abe 198c 84be 9589 4abe
00000030: a2fc 0a3e 7355 983e e8c0 603d d667 b7be
00000040: 8194 eb3d 15a2 863e 7d44 8bbe 6361 7dbe
00000050: 1af3 b3bd 0a81 483d c336 9cbe 125b f7be
00000060: caf1 c93d f4cc 97be a8e8 1fbe 6ffc a3bd
00000070: 7056 aa3e 8384 be3e 0f56 293d 59b4 fa3d
00000080: dcf4 2abe e811 903d bc91 87be fe63 38be
00000090: 3d21 b4bd ae68 c43d 7ac8 763e 4851 b6be
000000a0: 54ff c93d bd87 9a3e ca66 993e 0ca7 903e
000000b0: 2229 93bd 1224 a3bd 0b9f 4ebe fc5a 093e
000000c0: 3800 3ebe 7d20 4dbd 77f3 0d3f 6b38 123e
000000d0: 1e86 69bd ddcf 7abe d535 0abe 8ac2 d5bd
000000e0: 5dcc 8bbd ab89 c9be 35b8 d0be 3df4 f6bd
000000f0: d744 003c f737 b7be cd6e 92be ec8e 92be
-0.1320826 -0.19106981 0.16682975 0.06208539 0.33893287 0.3243666 -0.03892363 0.0906272
0.028396385 -0.24507172 -0.25888136 -0.19779046 0.13572934 0.29752693 0.05487147 -0.35821408
0.11502934 0.26295534 -0.2720069 -0.24744181 -0.08786602 0.048951186 -0.3051053 -0.4831167
0.09860571 -0.29648554 -0.15616095 -0.08007132 0.33269072 0.37210473 0.041341837 0.1224143
-0.16694969 0.07034665 -0.26478374 -0.18006894 -0.08795402 0.095902786 0.24099913 -0.35608888
0.09863153 0.30181685 0.29961234 0.28252447 -0.0718558 -0.07965864 -0.20177858 0.13413614
-0.18554771 -0.05007981 0.5544962 0.14279334 -0.05701267 -0.24493356 -0.13497098 -0.10437496
-0.068260886 -0.39362845 -0.4076554 -0.120583035 0.007828913 -0.35784885 -0.2860016 -0.28624666

critic.2.weight f4 [64, 64]
00000000: e5c0 7c3f a82c 453f ab71 2bc0 2a0d 9d3f
00000010: c93b 50be d36b adbf 6333 9c3e f83e 6b3f
00000020: 763b 8abf 70b7 5dbd b1a6 b9be 8bb5 debd
00000030: 8fa9 bf3e 97bd bdbf e91f 3c3f d087 af3e
00000040: fa09 c7be 841a a23e d791 ed3e bdf9 f5bf
00000050: 9450 313f ab28 a53d 7860 5b3f 7045 703f
00000060: 0464 e8be 4068 28bc 3734 fd3e 6c23 8dbf
00000070: c86a 73c0 4ea0 0abf d470 edbf 4d9c bcbe
00000080: 7fef 13bf 1e02 103e f7bd a13e b4c1 3a3f
00000090: 9cf1 3cc0 c00a 603e 8089 523f 0ef1 2fbf
000000a0: decc 993d 6ca6 8cbe 1525 cd3d 17e3 703e
000000b0: b8ec dcbe 3bb2 753e ec1e f73e 8eaf 53be
000000c0: dde8 60c0 298c d73e abbe 8b3e 0a64 053e
000000d0: 920a 683f 03c1 1e3f 5399 943e a5d4 1d3f
000000e0: 3fd4 dac0 ac9e 4cbd b06d a1be fbbb 653f
000000f0: 68cf 323f c016 403c e0e3 35bd 997d 0ec0
00000100: c3eb 503e 800a 9cbe 7554 6b3d 6be1 89bd
00000110: 38e1 3c3d 81ee 5c3e 8f02 193e de30 51be
00000120: 5a6e 933d 883a 27bd 1e8a 7cbe b2a5 8cbd
00000130: 1680 2d3d 3534 333e aca3 4abe 35fc 90be
00000140: 3f60 42be bbeb b0bc 039c fabe 2d5e 96bc
00000150: ebea 02be 10c9 123f 9ace 243d 7d94 ebbd
00000160: a564 cdbe aacb 983d be0a 453d 2786 d3bf
00000170: 748e 31bf 4443 10be e987 833e 9fe7 0b3f
00000180: ad0d 283f 51c0 9c3e d963 fb3d d486 a93e
00000190: 41e2 09be d59a 34be 0bbe b5be 6792 bf3d
000001a0: ce70 723e e96b e33c b950 66be b68c 10be
000001b0: c871 623e e227 733d 1ac7 c13e d708 e5be
000001c0: f255 f8bf d02c 043f ca8c cbbd 54c1 143e
000001d0: adca b63e 9196 0e3f 7441 0d3e ce94 3b3e
000001e0: 5c55 47c1 741d 9a3d eca4 3fbd 68cc ffbe
000001f0: 19a7 5b3e e4f2 0c3d ae8e c83d 071f 24bf
00000200: d3e9 313e 5d23 993e 8457 4cbe 8f7c a63d
00000210: 59b6 653e 920a 693e af62 9cbe 4472 b63d
00000220: d782 f1be 2e6a af3d baec c6be 610d 93bf
00000230: 653f 16bc e832 1fbe 588d 69be a237 ad3f
00000240: ba41 db3e da9e 25bd 0e0c a43e 228e 04bf
00000250: 26f2 5a3d 62f3 a23e 805b 983f 8707 2b3f
00000260: 4dfa 6fbf d083 b83c 3445 bbbc b22a 40bf
00000270: d3d9 8f3e 7bfb 8e3d d314 9abc fafa 663e
00000280: 2625 9d3f 8f9f 1fc0 d764 49be e6e9 c23e
00000290: e588 dbbe 3675 733e 8a69 c73d 0452 a63e
000002a0: bed6 143d 9334 173d 3294 93be dde9 233e
000002b0: 423e af3e 3666 1a3f cc77 49c0 ec93 113f
000002c0: e141 8bbf 3fff abbd c24d e5be d0bd 873d
000002d0: d0f9 513e bcee e03f 34f0 eabf 3976 a43d
000002e0: e950 40c1 4ac4 b93d 4fdb 25bd e94e 0ebe
000002f0: 65e1 973e 5cdf 993d 64ef 443d d8af 85bf
00000300: ca81 733f 3120 193f 27f8 01be e4c3 a93e
00000310: a3c2 4abe 9f9c 0abe 3559 053f b27e 3f3f
00000320: 1c79 0b39 88a4 5cbd a10a 5dbe 02dd 31be
00000330: 3361 1b3e 94a8 cfbe dedc e53e dfb7 5abf
00000340: f490 ccbe f166 1d3e 0aa0 ce3f 1234 aa3e
00000350: 489e 1e3f ce85 41bf 2f93 97be ed96 a83e
00000360: 7084 2ebe 1d94 84bd d6a0 323f 1559 423f
00000370: dc09 a1bf 3193 48bf ddc7 87be 7166 21be
00000380: 62f8 643f 9cb1 083e 2420 8f3e 36b9 ed3e
00000390: e58d 0140 826d efbe 881b 9d3e 8578 91be
000003a0: 1369 763e ec3a 99be 7045 2e3d b883 b0be
000003b0: 4683 a73d 5d9a bf3e d4c6 7d3f 123d 893f
000003c0: 8d84 013f 69c4 253e 6a34 8ebe 3747 21be
000003d0: e6ed 30be 8b89 013f 7c3d 5c3d 4690 663e
000003e0: cc7a ee40 80de 653d 99c3 42bd cf5d 373f
000003f0: 5c64 5ebd 1298 c23d 70d5 88bd 7310 c7bd
0.98731834 0.77021265 -2.6788127 1.2269642 -0.20335306 -1.354853 0.30507955 0.9189296
-1.0799396 -0.054130018 -0.36259988 -0.1087447 0.3743405 -1.4823483 0.7348619 0.34283304
-0.388748 0.31660855 0.4640033 -1.9216839 0.6926358 0.080643974 0.85694075 0.93855953
-0.45388806 -0.010278761 0.494539 -1.1026435 -3.8033924 -0.54150856 -1.8550057 -0.36837998
-0.5778732 0.14063308 0.31590244 0.7295182 -2.9522467 0.21879101 0.8224106 -0.68727195
0.075097784 -0.2747072 0.100168385 0.23524128 -0.43149352 0.23993771 0.4826578 -0.20672438
-3.5142128 0.4209912 0.27293906 0.13026443 0.9064113 0.6201326 0.29023227 0.61652595
-6.838409 -0.04995601 -0.31528997 0.8973996 0.69847727 0.011724174 -0.04440677 -2.2264159
0.20402436 -0.3047676 0.05745359 -0.06732448 0.046113223 0.21575357 0.14942382 -0.20428798
0.07198782 -0.040827304 -0.24662063 -0.068675414 0.04235848 0.17500384 -0.19788998 -0.2831742
-0.18982027 -0.02159678 -0.48947152 -0.018355453 -0.12784927 0.5733805 0.040236093 -0.11502931
-0.40115848 0.07460721 0.048105948 -1.6525315 -0.6935799 -0.1408816 0.2568963 0.546503
0.6564587 0.30615476 0.12274904 0.33110678 -0.13465215 -0.17637189 -0.35496554 0.09354096
0.23675844 0.027761417 -0.22491731 -0.14116177 0.22113717 0.059364207 0.37847215 -0.44733307
-1.9401228 0.5163088 -0.09938963 0.14526874 0.35701504 0.55698496 0.137945 0.18318483
-12.45834 0.07525149 -0.04678814 -0.49960637 0.21450461 0.034411326 0.09792839 -0.64109844
0.17374353 0.29909793 -0.1995526 0.081292264 0.22432841 0.22757939 -0.3054404 0.08908513
-0.47170135 0.08565174 -0.38852483 -1.1488458 -0.009170388 -0.15546763 -0.22807825 1.3532603
0.42823583 -0.040434696 0.32040447 -0.5177938 0.053453587 0.3182631 1.1902924 0.6680836
-0.93741304 0.02252379 -0.022860147 -0.7506515 0.28095874 0.0698156 -0.018808758 0.22556677
1.2276962 -2.4941137 -0.19667374 0.38069075 -0.4287788 0.23775181 0.09736927 0.32484448
0.036337607 0.036915373 -0.28824002 0.1600718 0.34227186 0.6031221 -3.1479368 0.56866336
-1.087948 -0.08398294 -0.44785887 0.06628001 0.20505452 1.7572856 -1.8354554 0.08030362
-12.019753 0.09070642 -0.040492352 -0.1389729 0.2966415 0.075133055 0.048079863 -1.0444288
0.9511992 0.59814745 -0.12692319 0.33157265 -0.1980081 -0.13536309 0.52089244 0.74802697
0.0001330119 -0.053867847 -0.21586086 -0.17369464 0.15173797 -0.40558302 0.4489507 -0.85436815
-0.3995434 0.153713 1.614259 0.33242851 0.6196027 -0.75594795 -0.2960448 0.32927647
-0.17042708 -0.06473563 0.69776666 0.7591718 -1.2581134 -0.78349596 -0.2651967 -0.15761735
0.894415 0.13349003 0.2795421 0.46430367 2.0242856 -0.46763235 0.30685067 -0.28412262
0.2406352 -0.29927766 0.04254669 -0.34475493 0.08179335 0.37422457 0.9913151 1.0721762
0.5059288 0.16188206 -0.27774364 -0.15749823 -0.17278251 0.506005 0.053769574 0.22515973
7.45249 0.056120396 -0.047549818 0.71627516 -0.05429493 0.09501661 -0.06681335 -0.09719934

critic.2.bias f4 [64]
00000000: 400d 773e d879 e63e 3379 83bd bf7b 64be
00000010: 1c96 043f a912 cabc f465 58bd a95d c1bd
00000020: 2f44 52be a3a2 82bd b225 ee3e e647 c8be
00000030: c947 b53c d02c f8bd 6a78 853e 0aa8 523d
00000040: 1743 97be b654 d13b 6dbb bdbe 1acc 11be
00000050: 645d 5f3e 1e34 c2be 487f ecbd 94eb b43e
00000060: 8307 253c 2462 c83d fc60 09be 4d33 94be
00000070: 966a 94bd 9e3f 33bc be23 4f3e 3ed9 ae3e
00000080: e96a 74bd 38d4 14be 9ac6 89be 393f 44be
00000090: 37b8 24bf 2fb4 f6be e4f9 efbe 2395 dcbd
000000a0: 682c 21be 5bd4 113f 8a47 10bf 989c 763e
000000b0: 7e84 a9be f7a7 043a 0863 913e ada9 21bd
000000c0: 4947 04be b3eb f4bd fa82 12bd 3da6 9dbe
000000d0: 5807 86be ef57 f6be 5c69 a43e 3b77 07be
000000e0: b927 ccbd bb2a ef3c fb07 1dbe 1f34 05be
000000f0: 681a f0be 230e 16bf 4a4d c63e 815a 1bbe
0.24126148 0.45014834 -0.06419601 -0.2231283 0.5179155 -0.024667101 -0.052831605 -0.094416924
-0.20533822 -0.06378677 0.46513134 -0.39117354 0.022128956 -0.12117922 0.2606843 0.051429786
-0.29543373 0.006388272 -0.37057057 -0.14238015 0.2181297 -0.37930387 -0.115477145 0.35335982
0.010072592 0.09784344 -0.13415903 -0.2894539 -0.07246892 -0.0109404605 0.20228478 0.34150118
-0.05967227 -0.1453408 -0.26909333 -0.19164743 -0.6434359 -0.48184344 -0.4687034 -0.10770633
-0.15739596 0.56964654 -0.5635916 0.24083173 -0.33108896 0.0005060429 0.28395867 -0.039468456
-0.12917818 -0.119590186 -0.03576944 -0.30790892 -0.26177478 -0.48113963 0.32111633 -0.13229077
-0.09968514 0.02919518 -0.15335076 -0.13008164 -0.46895146 -0.5861532 0.38730842 -0.15171243

critic.4.weight f4 [1, 64]
00000000: 9de5 66c0 7ff0 b4be 09f8 84bf 6bd6 603e
00000010: 8ee6 07bf c649 d640 c7a8 89c0 a9e5 4240
00000020: b021 42c0 8857 9bbb a2af bcbf 8520 c43f
00000030: 88b3 b2bd 3c9f 8bc0 dd11 e9be 3d92 33bd
00000040: 8a0b 1840 7d83 0040 c632 0f41 d1fd 95bd
00000050: 5a1d 05c0 7fb6 203f cc66 743d 273a 8bbf
00000060: fa25 843d 9551 dcbf 1211 b0bd bc8c cb3e
00000070: cf99 a2bd 6e7f 793f d456 a6bf 1ac3 20bf
00000080: 6f66 f3bb 2628 2cc0 8ad7 a83f ec8a 26c0
00000090: da69 c83f 9b26 953f a13a 4f3d 2971 6e3c
000000a0: b89f ce3a b867 85be 99e6 5dc0 c012 59bf
000000b0: 653c 2040 7dfe efbf c69f 69bf b133 eb3d
000000c0: c311 9141 5c84 9abd b4d0 6bbd 99bd f140
000000d0: 72b0 033f 68a4 f43e 3346 a2be 48b3 ca3f
000000e0: a90f f0bd 57d7 a63e ed9c cbbc 191b 9ebb
000000f0: 9251 33bf b533 7540 499a 93be 2907 3fc0
-3.6077645 -0.35339734 -1.0388194 0.21956794 -0.53086174 6.6965055 -4.3018527 3.0452673
-3.0333061 -0.004740659 -1.4741099 1.5322424 -0.08725649 -4.363188 -0.4552144 -0.043840636
2.3757043 2.0080254 8.949896 -0.07323802 -2.0799165 0.62778467 0.059668347 -1.0877122
0.06452556 -1.7212397 -0.08597006 0.3975581 -0.07939493 0.9746007 -1.2995248 -0.627977
-0.0074279825 -2.6899505 1.3190777 -2.602229 1.5657303 1.1652406 0.050593022 0.014553347
0.0015764153 -0.26055694 -3.4671996 -0.84794235 2.5036862 -1.8749539 -0.9125942 0.11484469
18.133673 -0.07544777 -0.05757208 7.5543942 0.5144111 0.47781682 -0.31694183 1.5835962
-0.11721737 0.32586166 -0.024855101 -0.0048250076 -0.7004634 3.831281 -0.28828648 -2.984812
