Pre-trained/HAC_MountainCarContinuous-h-v1_solved_level_0_crtic.pth (torch, 21696 bytes, 5 tensors)

critic.0.weight f4 [64, 5]
0	0xbdfc7f43	-0.12328961
1	0x402aefcd	2.6708863
2	0xbcba0188	-0.022705808
3	0x3e2c9728	0.16854537
4	0xbf290fe1	-0.66039854
5	0xbea39c00	-0.31954956
6	0xbf2ebe00	-0.68258667
7	0x3b2e00e2	0.002655082
8	0x3f4a4ca2	0.7902318
9	0x402ae9c4	2.670518
10	0xbe0850f9	-0.13312139
11	0x408aca3c	4.337187
12	0x3b931198	0.0044881813
13	0xbe6ff833	-0.23434524
14	0x3f40938e	0.7522515
15	0x3f8e0af9	1.1097099
16	0xc071b421	-3.7766192
17	0x3b136008	0.002248766
18	0xbd9246a5	-0.071423806
19	0xc06de3d2	-3.71703
20	0xbecab9c4	-0.39594853
21	0x403ee24a	2.9825616
22	0xbcbf3189	-0.02333905
23	0x3f48424b	0.78226155
24	0x3e92b87a	0.2865637
25	0xbe2ea435	-0.17054828
26	0x4010627f	2.2560117
27	0x3bfe6f23	0.0077647134
28	0x3c56158f	0.013066663
29	0x40672c47	3.6120775
30	0xbf3b9a00	-0.7328186
31	0xbf851dcc	-1.0399718
32	0xb9c06a8a	-0.00036700472
33	0x3f0acf18	0.5422225
34	0xbfd540a4	-1.6660352
35	0xbeda1211	-0.4259191
36	0xbfc44530	-1.5333614
37	0xbc522205	-0.012825494
38	0xbf12ab25	-0.57292396
39	0x3fbcf23a	1.4761422
40	0xbef4f2d0	-0.478415
41	0x3f3faee2	0.74876225
42	0x3a529b73	0.0008034028
43	0x3f0c0d28	0.54707575
44	0x40a76f6b	5.232351
45	0xbd81b7fd	-0.06333921
46	0x40c2b00b	6.0839896
47	0x3bfb0318	0.007660281
48	0xbe0450a2	-0.12921384
49	0xbfc65f95	-1.5497919
50	0x3f46a728	0.7759881
51	0xc05dc95f	-3.4654157
52	0xbb9501a3	-0.0045473143
53	0x3e60a2bc	0.21937078
54	0x4004f21c	2.0772772
55	0x3e95fa53	0.29292545
56	0xbf7de847	-0.9918255
57	0x39d4bf1c	0.0004057818
58	0x3f49670b	0.78672856
59	0xc08a4d1d	-4.3219132
60	0xbf5b069e	-0.8555697
61	0x3e549527	0.20760022
62	0xbc347a2c	-0.011015456
63	0x3f47feb3	0.78123015
64	0xc03a9e7d	-2.9159234
65	0x3e80ed3c	0.25180995
66	0xbfab60a8	-1.3388872
67	0x3b87d2c9	0.0041450006
68	0x3e807fdb	0.25097546
69	0x403b287a	2.9243455
70	0x3c3f5307	0.01167751
71	0x407b5086	3.9267898
72	0xbb19dca3	-0.0023477457
73	0x3e139614	0.14412719
74	0x3f30fa9e	0.6913241
75	0xbf8dc151	-1.107462
76	0x3daa5a3f	0.08317994
77	0xbbe169ac	-0.006879052
78	0x3f5caa84	0.86197686
79	0xbfed727d	-1.8550564
80	0xb96511ac	-0.00021845725
81	0x40911bb5	4.534632
82	0x3b906153	0.004406133
83	0xbe331f6d	-0.17492457
84	0xbfd45a6b	-1.6590093
85	0xbf5fe13c	-0.87453055
86	0x3fb9f065	1.4526488
87	0x3a44b5da	0.00075039046
88	0x3ebd06e1	0.3691931
89	0xc0622336	-3.533399
90	0xbd8530f4	-0.06503478
91	0x4041c876	3.0278602
92	0xbb89407f	-0.0041885967
93	0xbea271bf	-0.31727406
94	0x3f8cba3e	1.0994337
95	0x3f0bef5b	0.546621
96	0x40998055	4.7969155
97	0x3c9ff932	0.019528005
98	0x3df93be2	0.12169625
99	0x3fdae007	1.7099618
100	0x3e0c9e43	0.13732247
101	0xbec23317	-0.37929603
102	0xbb6b432b	-0.003589819
103	0xbe64c094	-0.22339088
104	0x40552645	3.3304608
105	0xbf6cfc9f	-0.9257297
106	0xc024ae4a	-2.5731378
107	0xbb3c218d	-0.0028706521
108	0x3ea5d38b	0.32387957
109	0x3f9cdde2	1.2255213
110	0xbeef64f9	-0.46756724
111	0x40a46089	5.136784
112	0x3c8663a0	0.016404927
113	0x3e963cbe	0.29343218
114	0xc087c1ba	-4.2423983
115	0x3ea5d5bb	0.32389626
116	0x40910615	4.5319924
117	0x3b8c9d41	0.004291207
118	0x3ea19938	0.3156221
119	0x3f6d4cde	0.92695415
120	0xbe62d293	-0.2215064
121	0xc02ec528	-2.7307835
122	0xbb8c794a	-0.0042869197
123	0xbec371fd	-0.38172904
124	0xc0318503	-2.7737434
125	0x3e9d6be7	0.30746385
126	0xc0d8299c	-6.7550793
127	0xbc1ea0b3	-0.009681868
128	0xbe13c005	-0.14428718
129	0xc018d420	-2.387947
130	0xbf971b82	-1.180527
131	0x403c6b88	2.9440632
132	0x3aa6c07a	0.0012722157
133	0x3ece946a	0.40347606
134	0xbef5593c	-0.47919643
135	0xbd86ed5a	-0.0658824
136	0xbf0fb05b	-0.5612847
137	0xbdc0945d	-0.09403298
138	0x3dcafbb6	0.09911291
139	0xbe2fc585	-0.17165191
140	0xbf17b024	-0.59253144
141	0x3fafaca2	1.3724558
142	0x389ffa88	7.628376e-05
143	0xbee244f1	-0.44193223
144	0xbfd65b7a	-1.6746666
145	0xbeddef1e	-0.43346494
146	0xc091f175	-4.5607247
147	0xbbab5563	-0.0052286847
148	0x3e9a5bb3	0.30148086
149	0x40339247	2.805803
150	0xbe22244e	-0.15834162
151	0xbf9d922f	-1.2310237
152	0xbd575ef9	-0.052580807
153	0x3e4a0e6a	0.19732061
154	0xbfb0e8d0	-1.3821049
155	0xbeb64790	-0.35601473
156	0x3f18bb50	0.59660816
157	0xbb98f2da	-0.004667622
158	0x3f4431e4	0.7663863
159	0xbff7f5d9	-1.9371902
160	0xbf02b89f	-0.5106296
161	0xbe4c673c	-0.19961256
162	0xbda17596	-0.07883756
163	0x3eb9d704	0.36296856
164	0x3fa6b660	1.3024406
165	0xbf5610c9	-0.8361936
166	0x4040dcdc	3.0134802
167	0x3c2d117b	0.01056325
168	0x3f1f7796	0.6229185
169	0x3fa2ca9e	1.2718084
170	0xbe92a362	-0.28640276
171	0x3f7d4f49	0.98949105
172	0x3c1a319c	0.009411242
173	0x3ed1c657	0.40971634
174	0x402746c7	2.613695
175	0x3dab8062	0.083740965
176	0x40a7d65e	5.244918
177	0x3b0febb7	0.0021960565
178	0xbe3895dd	-0.18025918
179	0x401d0fd1	2.4540904
180	0x3ea68ba8	0.32528424
181	0xbdea0b2b	-0.11427911
182	0x3d5e356a	0.05425016
183	0x3e4aa019	0.19787635
184	0xbe8a612f	-0.2702727
185	0xbe2ebf75	-0.17065223
186	0xbfafbe0b	-1.3729872
187	0xbca12c42	-0.019674424
188	0x3ef30e4a	0.4747184
189	0xbd76b107	-0.06022742
190	0xbf7f3ca2	-0.99701893
191	0xbfed314c	-1.8530669
192	0xbb1d3e44	-0.0023993412
193	0x3f80acb0	1.00527
194	0x3f47801d	0.7792986
195	0xbf534ceb	-0.8253924
196	0x3f982e6c	1.1889167
197	0xbca754df	-0.020426212
198	0x3f0dbf3a	0.55369914
199	0xc09d949d	-4.9243913
200	0xbe022a35	-0.12711413
201	0xbf46c5d1	-0.77645594
202	0xbc7d33dd	-0.01545426
203	0x3e96278c	0.29327047
204	0x404d3d94	3.2068834
205	0x3f8823c8	1.063592
206	0x4038b06a	2.8857675
207	0x3b722d13	0.0036953136
208	0x3e8024a1	0.25027946
209	0x400e7361	2.2257922
210	0x3f1abe32	0.60446465
211	0xbf04d482	-0.5188676
212	0xbb4e4187	-0.0031472163
213	0xbd20bf32	-0.039244838
214	0xbfb5771a	-1.4176972
215	0x3f2a495b	0.6651818
216	0x3f2a3359	0.664846
217	0x3a145c7d	0.0005659534
218	0x3e2a3bef	0.16624425
219	0x400c4c6e	2.192165
220	0xbd277767	-0.040885355
221	0xbfc2c5dc	-1.5216632
222	0xbc8c173a	-0.017100919
223	0x3e523333	0.20527343
224	0x3f29cfdf	0.6633281
225	0xbd7a2ed4	-0.061079815
226	0xc09ac329	-4.8363233
227	0xbc3cec50	-0.011530951
228	0x3e40198a	0.18759742
229	0xbf161084	-0.5861895
230	0xbf737be8	-0.9511094
231	0xbfede66d	-1.8585945
232	0xba903a65	-0.0011003731
233	0x3ee8b57b	0.4545096
234	0xbdbd091e	-0.092302546
235	0xbefd1930	-0.4943328
236	0x40a013d2	5.0024195
237	0x3b84d389	0.0040535373
238	0xbdf17b56	-0.117911026
239	0xc00cdd6e	-2.201015
240	0x3e9cf7a6	0.3065769
241	0xc086405e	-4.1953573
242	0x3c955f0c	0.018233798
243	0x3ec2de14	0.38060057
244	0xbc2246f7	-0.009904615
245	0x3d5fe38a	0.054660358
246	0xc080efbe	-4.0292654
247	0xbb68638b	-0.0035459723
248	0xbd4f04ce	-0.05054169
249	0x40793a51	3.8941844
250	0xbdfff97f	-0.124987595
251	0x3f6c32e7	0.9226517
252	0xbb518a48	-0.0031973291
253	0x3f5b7698	0.85727835
254	0x3f466a7f	0.7750625
255	0xbe27a24f	-0.1637051

critic.0.bias f4 [64]
0	0xbeceb7e1	-0.40374663
1	0x3e84e619	0.259568
2	0xbe616a43	-0.22013192
3	0x3e5990cd	0.21246643
4	0xbf73832d	-0.95122033
5	0xbdd49fbc	-0.103820294
6	0x3d983dd3	0.07433667
7	0xbc9d5063	-0.01920337
8	0x3cde2fcb	0.027122399
9	0xbe4dbb6c	-0.20091027
10	0x3ec20803	0.37896737
11	0xbd587783	-0.05284835
12	0x3e419313	0.1890376
13	0x3e9de671	0.30839875
14	0x3db0a557	0.08625286
15	0xbec5706b	-0.3856233
16	0xbe9bce88	-0.30431008
17	0xbf0e9b71	-0.55705935
18	0xbe4d9a1e	-0.20078322
19	0x3e62529d	0.22101827
20	0xbcf08ea7	-0.029364897
21	0xbf476b4d	-0.77898103
22	0xbe17d8be	-0.14828774
23	0xbcad0f1b	-0.021125367
24	0xbee06082	-0.4382363
25	0x3db26404	0.08710483
26	0xbecbe923	-0.39826307
27	0xbe8c3c25	-0.27389637
28	0xbed3b58b	-0.41349444
29	0xbd4997c9	-0.04921702
30	0xbec9cbb6	-0.39413232
31	0x3eafb300	0.34316254
32	0xbf47d30c	-0.78056407
33	0xbdf71bc5	-0.120658435
34	0xbf3d42d8	-0.7393012
35	0xbde889d7	-0.11354416
36	0xbeab69b0	-0.3347907
37	0xbf06b1f8	-0.5261531
38	0x3ba8890a	0.0051432895
39	0xbf22e0d5	-0.63624316
40	0x3e0d8822	0.13821462
41	0x3e3499e2	0.17636827
42	0x3f25483a	0.64563334
43	0x3df93d8d	0.12169943
44	0xbe87f13c	-0.26551235
45	0xbc12d39a	-0.008961583
46	0xbeba7ebb	-0.36424813
47	0xbeb2252b	-0.34793982
48	0x3e1cb2f1	0.15302636
49	0x3c4421b5	0.011970927
50	0x3e9e3bbf	0.30904958
51	0xbe37022d	-0.17871924
52	0xbe1c5fd8	-0.15270936
53	0x3e94a667	0.29033205
54	0xbe9aaddc	-0.3021077
55	0x3ed317e8	0.41229177
56	0xbedd72d2	-0.43251663
57	0x3bbec91e	0.005822315
58	0x3e09bf61	0.13451912
59	0xbe91cd9a	-0.28477174
60	0xbeec26fe	-0.461235
61	0x3e225fb0	0.15856814
62	0x3d969073	0.0735177
63	0x3e95e6fc	0.2927779

critic.2.weight f4 [64, 64]
0	0xbdf70a0e	-0.12062465
1	0xbd80ea53	-0.06294694
2	0xbe7fa0fa	-0.24963751
3	0xbe29a701	-0.16567613
4	0x3e07cd77	0.13261972
5	0xbec17ee2	-0.37792116
6	0xbe071634	-0.13192064
7	0x3cb59192	0.02216414
8	0x3e1c743a	0.15278712
9	0xbed476b7	-0.41496822
10	0xbdcf2825	-0.10115079
11	0xbeafbf6a	-0.34325725
12	0x3c15c21d	0.0091405185
13	0xbec98680	-0.39360428
14	0x3d5281d8	0.05139336
15	0x3cdab35a	0.02669685
16	0xbf2a54b7	-0.66535515
17	0xbba8f502	-0.0051561603
18	0x3b6b4826	0.0035901158
19	0xbe89c0a8	-0.26904798
20	0xbebc8527	-0.36820337
21	0xbd22d58a	-0.039754428
22	0xbd659b02	-0.05605603
23	0xbde3b1b4	-0.111178786
24	0x3e0302f2	0.12794092
25	0xbdee4e70	-0.116360545
26	0xbe035688	-0.12825978
27	0x3e35c5e5	0.17751272
28	0xbd0decb3	-0.034649562
29	0xbd655880	-0.055992603
30	0x3d4c7083	0.049911987
31	0xbac57eba	-0.0015067675
32	0xbdcaf5ac	-0.099101394
33	0xbca7d3e1	-0.020486774
34	0x3d8c24f3	0.06842985
35	0xbe8c230f	-0.27370498
36	0xbd8f9376	-0.07010548
37	0xbeffe2cf	-0.4997773
38	0x3e4d8f1e	0.20074126
39	0xbde74abd	-0.11293552
40	0xbd45aa91	-0.048258368
41	0xbda9fca7	-0.08300143
42	0x3d960cb3	0.07326641
43	0x3d6effc5	0.05834939
44	0xbd941815	-0.07231156
45	0xbd362289	-0.04446653
46	0x3d0058de	0.03133475
47	0xbe4737dd	-0.19454904
48	0xbea78ca1	-0.3272448
49	0xbecb2432	-0.39676052
50	0xbb984efd	-0.004648088
51	0xbd0b17ea	-0.033958353
52	0xbe948873	-0.29010352
53	0xbdc6914a	-0.096956804
54	0xbe9d090a	-0.3067096
55	0xbe374836	-0.1789864
56	0x3de8132c	0.11331782
57	0x3c2c8bec	0.010531407
58	0xbe574bd7	-0.21025024
59	0xbce31631	-0.027720543
60	0xbe500b5c	-0.20316833
61	0xbd973387	-0.07382875
62	0xbd8d1c2f	-0.06890141
63	0x3d95eec6	0.07320933
64	0xbf9e6313	-1.2373985
65	0x3e8fdae0	0.28096676
66	0x3f643912	0.8914958
67	0x3f0b5487	0.54425853
68	0x3f39bbb1	0.7255202
69	0x3f0bb5d1	0.54574305
70	0x3f1ea61c	0.6197221
71	0xc0162fe1	-2.3466723
72	0x3fb3d995	1.4050776
73	0xbe0e1f79	-0.13879193
74	0xbe443633	-0.191613
75	0x3fbdb8ac	1.4821982
76	0x3e028c88	0.12748921
77	0x3f5dd71e	0.8665637
78	0xbe218c92	-0.1577628
79	0xbf7887b2	-0.97082055
80	0xbf8ffe2b	-1.1249441
81	0x3f0f1ea8	0.5590615
82	0xbd0fd6b6	-0.035116874
83	0x3e566eab	0.20940654
84	0x3dd9bfd3	0.10632291
85	0xc01f8428	-2.4924412
86	0x3dbd42b6	0.0924124
87	0x3e1de1be	0.15418145
88	0x3f6634ba	0.89924204
89	0x3f90753c	1.1285777
90	0xc009ac88	-2.1511555
91	0x3e027e4a	0.12743488
92	0x3e85d1a9	0.2613652
93	0x3f75fd3d	0.96089536
94	0xbe07726e	-0.13227245
95	0x3deb610f	0.11493122
96	0xc054428a	-3.3165612
97	0x3eedf49f	0.46475694
98	0xbf93fd42	-1.1561663
99	0x3f7c4c46	0.98553884
100	0xbd1facf6	-0.038983308
101	0x3f9faa9d	1.2473942
102	0x40c2b606	6.0847197
103	0xbf0c6fe9	-0.5485826
104	0xbe2954c4	-0.16536242
105	0x3da7c333	0.08191528
106	0x3ab60788	0.0013887743
107	0xbf1daf76	-0.6159586
108	0xbe0c249a	-0.13685837
109	0xbe2fba27	-0.17160855
110	0x3fbf9a32	1.4968932
111	0xbfa98d76	-1.3246295
112	0x3f20f68d	0.62876207
113	0x3f129573	0.5725929
114	0xbc8abbdf	-0.016935287
115	0xc0554336	-3.3322272
116	0xbdb661e1	-0.08905388
117	0x3ebedff2	0.37280232
118	0xbf5b09b1	-0.8556166
119	0xbfe8c2c6	-1.818444
120	0xbbaaff57	-0.005218427
121	0x3f3ca685	0.7369159
122	0x3eee976a	0.46599895
123	0xbf0b7f01	-0.5449067
124	0x3f865023	1.0493206
125	0x3ea26cd9	0.3172367
126	0xbf983c7b	-1.1893457
127	0x3f469734	0.7757447
128	0xbd16114e	-0.036637597
129	0xbe76a1f5	-0.24085219
130	0xbf8d6230	-1.104559
131	0x3e89fd70	0.2695117
132	0xbff0ab97	-1.8802365
133	0xbdb7bc27	-0.08971434
134	0xbf22927d	-0.63504773
135	0xbdbfc16f	-0.093630664
136	0xbf59bbbe	-0.85052097
137	0xbfaf4d5b	-1.3695482
138	0x3e257633	0.1615837
139	0xc079b1c0	-3.901474
140	0xbeb10138	-0.34571242
141	0x3f04ee90	0.5192652
142	0xbd284f95	-0.04109152
143	0xbf65940e	-0.8967904
144	0x4014ae69	2.3231452
145	0x3f086855	0.532842
146	0x3d4517b2	0.0481183
147	0xbe965230	-0.2935958
148	0x3e9cf1af	0.3065314
149	0x3ea5c3bb	0.32375893
150	0xbe4026b0	-0.18764758
151	0xbe7f6b46	-0.24943265
152	0xbec140b1	-0.37744668
153	0xbea8bb6c	-0.32955492
154	0x3eae3eb0	0.34032202
155	0xbd88ead3	-0.06685414
156	0xbe20686f	-0.15664838
157	0xbf7d6c9e	-0.9899386
158	0xbe7fa9b8	-0.24967086
159	0x3d9161d1	0.07098735
160	0xbcb5c214	-0.02218727
161	0xbe5e879b	-0.21731417
162	0xbe5533e4	-0.20820576
163	0xc0076951	-2.115803
164	0x3cd703c7	0.026246918
165	0x3f43f8a1	0.7655125
166	0x3f64bb64	0.89348435
167	0xbe9e74e4	-0.30948555
168	0x3ca505f8	0.020144448
169	0xbea6ef66	-0.32604522
170	0xbe11cd89	-0.14238562
171	0x3de3ad6b	0.11117061
172	0xbecfe831	-0.40606835
173	0x3e2736c0	0.16329479
174	0x3de8eab0	0.11372888
175	0x3f0b4425	0.54400855
176	0x3edbfa0a	0.42964202
177	0xbeae9580	-0.34098434
178	0x3edd97b3	0.432798
179	0x3f150770	0.58214474
180	0x3f2be7a2	0.6715032
181	0xbfe507d7	-1.7893018
182	0x3f23536d	0.6379917
183	0xbf9b7235	-1.2144228
184	0xbc4de9b0	-0.0125679225
185	0xbf02eeff	-0.5114593
186	0xbda6bc3f	-0.08141374
187	0x3daf84d3	0.08570256
188	0x3e7a4d69	0.24443592
189	0x3f463c78	0.7743602
190	0xbec57b7d	-0.38570777
191	0x3e4b5e1a	0.19860116
192	0x3e11a11c	0.14221615
193	0xbf8b2155	-1.0869547
194	0xbe89257d	-0.26786414
195	0x3eddaddf	0.43296716
196	0xbf58bd6f	-0.8466405
197	0x3f826288	1.0186319
198	0x3f0268ce	0.5094117
199	0x3f208b47	0.6271252
200	0xbf4c7004	-0.7985842
201	0xbfc86f79	-1.5659019
202	0x3ca4e94d	0.020130778
203	0xbfee6ee7	-1.8627595
204	0xbe1c560d	-0.15267201
205	0x3f8eed51	1.1166173
206	0xbe3bbe6f	-0.18334363
207	0xbf80b76b	-1.0055975
208	0x3f305f4b	0.68895406
209	0x3e0c5000	0.13702393
210	0x3f09d634	0.53842473
211	0xbd0f08de	-0.034920566
212	0x3e14e875	0.145418
213	0xbfd3b708	-1.6540232
214	0x3f13559c	0.57552505
215	0xbf2b5e39	-0.6694065
216	0x3e9656ee	0.29363197
217	0x3e594d81	0.21220972
218	0xbeae61f5	-0.3405911
219	0xba9f93ff	-0.0012174844
220	0x3e6e1fa5	0.23254259
221	0xbe8c006f	-0.2734408
222	0xbdad2408	-0.08454138
223	0xbd8efdaa	-0.06981976
224	0x3c66baa6	0.014082586
225	0xbfa0b2b2	-1.2554533
226	0x3f691b57	0.9105734
227	0xbfc9b731	-1.575903
228	0x3bdde240	0.006771356
229	0x3e815817	0.2526252
230	0x3fb5c6b9	1.420127
231	0xc0483d0b	-3.1287258
232	0xbead1c93	-0.33810863
233	0xbf9d5572	-1.2291701
234	0xbe586bff	-0.21134947
235	0x3e689cae	0.22716019
236	0x3d7c10d0	0.06153947
237	0x3e911995	0.2833983
238	0xbead0b15	-0.33797517
239	0x3dba410b	0.09094437
240	0xbd4f9f09	-0.050688777
241	0x3ec00ce4	0.37509835
242	0x3d5adde5	0.05343427
243	0x3ef6712a	0.48133212
244	0x3f458418	0.77154684
245	0xbeb7681f	-0.35821626
246	0x3f0e1af7	0.55509895
247	0xbeb2ba53	-0.3490778
248	0x3c93e588	0.018053785
249	0xbf287e12	-0.6581737
250	0xbe664357	-0.22486626
251	0x3e9b8d4c	0.30381238
252	0x3d678a0c	0.056528136
253	0xbf315f7a	-0.6928631
254	0xbd717e0f	-0.05895811
255	0xbf1aeab0	-0.60514355

critic.2.bias f4 [64]
0	0x3c65f017	0.014034293
1	0xbe7c3a11	-0.24631526
2	0xbe2d37ff	-0.16915892
3	0x3e2dba5b	0.1696562
4	0xbd808646	-0.062756106
5	0xbe0cadc1	-0.13738157
6	0xbe3cf195	-0.18451531
7	0xbd9e4916	-0.07728784
8	0xbec3ba9d	-0.38228312
9	0xbe70e95f	-0.23526524
10	0xbbf8e0ca	-0.0075951563
11	0x3ec9c954	0.39411414
12	0xbe1a087b	-0.15042298
13	0x3de9f577	0.11423772
14	0xbda495e4	-0.08036402
15	0xbd131f07	-0.03591826
16	0xbdefd46f	-0.1171044
17	0x3eda3e77	0.42625782
18	0x3f222c07	0.6334843
19	0xbe22c0f2	-0.15893915
20	0x3ed1285b	0.408511
21	0x3cca2a9e	0.024678525
22	0xbe3b00e5	-0.1826206
23	0xbd77e402	-0.06052018
24	0x3d394c32	0.04523868
25	0x3e9c18af	0.30487582
26	0x3d906984	0.070513755
27	0x3e35b1a0	0.1774354
28	0xbebdfd5b	-0.37107357
29	0xbd32a6db	-0.043616157
30	0xbd49ce8a	-0.049269237
31	0xbd06dbb9	-0.032924388
32	0xbe7e288f	-0.2482016
33	0xbd0fc5f7	-0.035100903
34	0xbf117820	-0.5682392
35	0x3d89087d	0.06691072
36	0xbdb842e1	-0.08997131
37	0x3ec884a7	0.39163706
38	0x3c042cba	0.008067304
39	0x3d452204	0.048128143
40	0x3e61c376	0.22047219
41	0x3d83d4ab	0.064370476
42	0xbd765a89	-0.060144935
43	0xbe4e97b6	-0.2017506
44	0xbe0ce558	-0.13759363
45	0x3dc3f464	0.09568098
46	0xbe87e30e	-0.26540416
47	0xbe1ad218	-0.15119207
48	0x3da8dc62	0.0824516
49	0x3f1d7135	0.61500865
50	0x3b67745a	0.0035317154
51	0xbbde715d	-0.0067884163
52	0x3e6612c4	0.22468096
53	0xbe10f4a7	-0.14155827
54	0xbe005761	-0.12533332
55	0x3e643375	0.22285254
56	0xbe38ecdd	-0.18059106
57	0xbc2a28e1	-0.010385723
58	0xbe2e056b	-0.16994254
59	0x3f05830b	0.5215308
60	0xbd8a7986	-0.0676146
61	0xbd816fd5	-0.063201584
62	0xbe88e13c	-0.2673434
63	0x3ce51ebc	0.027968757

critic.4.weight f4 [1, 64]
0	0xbceb40c9	-0.028717415
1	0x3ed89a6d	0.42305318
2	0x3fb652a8	1.4243975
3	0x3f4700f3	0.77735823
4	0xbd60a2f7	-0.054842915
5	0xbcac4116	-0.02102713
6	0xbdca76d2	-0.098859444
7	0x3bf339b8	0.007422652
8	0xbf1307a6	-0.57433546
9	0x4058e1c6	3.38878
10	0xbfaa09b0	-1.3284206
11	0x4065f7df	3.5932539
12	0xbf9e68fd	-1.237579
13	0xbf51e5d1	-0.81991297
14	0xbd85818a	-0.06518848
15	0xbe7c0a3e	-0.24613282
16	0x3c963f7a	0.018340815
17	0x3efdc95a	0.49567682
18	0x3f66cc0a	0.9015509
19	0xbd66e663	-0.056372058
20	0x3ea33310	0.31874895
21	0xbf3600bd	-0.71094877
22	0x3df40c3a	0.119163945
23	0xbf9e170d	-1.2350785
24	0x3f89c564	1.0763364
25	0x3f447aa5	0.7674964
26	0x402d518c	2.7081022
27	0x406c2196	3.68955
28	0x3fa92296	1.321368
29	0xbd30b14c	-0.043137833
30	0x3c879848	0.016552106
31	0xc04900ab	-3.1406658
32	0xbe2973cf	-0.16548084
33	0xbec6a3b7	-0.3879678
34	0xbf21abc8	-0.6315274
35	0xbc994975	-0.018711785
36	0xbbbb7867	-0.00572114
37	0x3f381959	0.7191368
38	0x3fa53d2c	1.2909293
39	0xbf7a0d1d	-0.9767626
40	0xbfb3c46a	-1.4044316
41	0x3f94677f	1.1594085
42	0xbd66c3e7	-0.05633917
43	0x3dabb2a8	0.08383685
44	0xbd0b3312	-0.03398425
45	0x3f9af00f	1.210451
46	0xbec497e4	-0.38397133
47	0xbd3f68d7	-0.046730842
48	0xbf0f6283	-0.5600969
49	0x3eefbf0c	0.46825445
50	0xbee7f3ab	-0.4530309
51	0xbe1f8a6b	-0.15580146
52	0x40321f0d	2.7831452
53	0x3e3e1cff	0.18565749
54	0xbd081abc	-0.03322862
55	0xbfbcabf8	-1.4739981
56	0x3fb3e042	1.4052813
57	0xc048723d	-3.1319726
58	0xbcb75653	-0.02238003
59	0x3f03e710	0.5152445
60	0xbf78e268	-0.9722047
61	0xbd5bcea6	-0.053663872
62	0xbf6f2fab	-0.9343211
63	0xbf84a24d	-1.036203
